model_results/Victoria/ANN_PSO_Model/2025-09-01_18-10-27 - Transformed ($)/best_model.pth (torch, 68277 bytes, 19 tensors)

layers.0.weight f4 [128, 11]
000000 92 c3 1e be bb df 3e c0 11 f9 18 40 33 64 16 c1
       -0.15504292 -2.9824054 2.3902018 -9.399463
000010 20 32 32 c1 65 a4 0b c0 01 d2 84 c1 46 73 4b c0
       -11.137238 -2.1819088 -16.602541 -3.1789107
000020 63 b0 24 c1 09 ae 84 40 d2 a9 13 3f e7 98 5a c0
       -10.293063 4.1462445 0.57681 -3.4155824
000030 1a 2b d7 3f 37 17 87 3f f0 cc 88 c1 af a1 45 42
       1.6810029 1.055396 -17.100067 49.407894
000040 a8 96 e5 40 5e 4d 7a 3f 9b 42 1d c1 db 5f 2f 3f
       7.1746407 0.977743 -9.828761 0.6850564
000050 b4 3f 65 40 f1 ba 1f 3f 6e 64 ae 3f e2 f8 24 40
       3.5820131 0.62394625 1.3624399 2.5776906
000060 ad 28 23 40 5c 36 e5 c1 8f 29 9a c1 97 8e a4 c0
       2.5493577 -28.651543 -19.270292 -5.142406
000070 b4 f2 6e 41 1a d6 52 41 7b 18 88 40 da 4e 9a bf
       14.934254 13.177271 4.2529883 -1.2055314
000080 41 eb a4 3e 28 6a c0 3d a8 ca a2 3d 9e 5e 19 3d
       0.32210734 0.09395248 0.0794881 0.03744375
000090 b4 7d a0 42 0d e5 8a c0 14 14 00 3e de 04 61 c0
       80.245514 -4.3404603 0.12507659 -3.515922
0000a0 65 37 11 c0 7f 39 09 be 87 44 0b be 20 9b 86 bd
       -2.269006 -0.1340084 -0.1360036 -0.065725565
0000b0 8f bb 05 3f 3e 6a 78 3f 88 3e ff c0 9b db 14 3e
       0.52239317 0.9703711 -7.976383 0.14536898
0000c0 bd 9b 36 41 96 88 93 c0 a6 37 2c 41 57 1e 25 41
       11.413022 -4.610423 10.763586 10.319907
0000d0 db ba 69 40 59 4e a6 c0 ed bf df be 29 7d fa 3f
       3.6520298 -5.197064 -0.43701115 1.9569446
0000e0 7e ec bf 3f 0f 29 c5 3f 39 57 1a 40 0d 4f 85 bf
       1.4994047 1.5403155 2.4115736 -1.0414749
0000f0 96 ef 7c 40 50 a9 26 41 1b 19 28 41 3b f8 bd 40
       3.9521232 10.416336 10.506129 5.9365516
000100 b3 f9 96 3f 57 5d ab 3f 02 69 81 3e d6 a7 24 3f
       1.1794952 1.338786 0.25275427 0.643186
000110 6e 2c f2 bc 2f aa 86 42 66 c7 92 c0 c0 6a 76 bf
       -0.029562201 67.33239 -4.5868406 -0.9625664
000120 b9 44 b4 c0 cd de 8c c0 06 a9 79 3e 57 7f df 3d
       -5.633389 -4.4021974 0.24380884 0.1091296
000130 54 53 23 be 0a 87 c0 3f ab cd 0c c1 2e 65 31 40
       -0.15949756 1.5041211 -8.800212 2.7718005
000140 9c f2 b7 c1 09 6e 09 41 12 fb 39 3e eb 6a c4 3f
       -22.993462 8.589364 0.18162182 1.5345129
000150 bf 8c 4a bf 7e 36 9f 40 65 66 af bf 2e d4 0b 3f
       -0.7912101 4.975402 -1.3703123 0.54620636
000160 8a 03 e9 bf ba c2 ff bf ff ff f9 be 61 86 0d c1
       -1.8204205 -1.9981301 -0.48828122 -8.845307
000170 ec 36 10 bd 38 4e 66 3f 70 a0 68 c1 e2 7f d5 c0
       -0.035208628 0.899631 -14.539169 -6.6718607
000180 04 7b 2e c1 e8 1b e6 3f 8e fa f8 3e ef ac a9 bf
       -10.905033 1.7977266 0.48628658 -1.32559
000190 b6 87 38 bf 79 0d e5 bc 5b 19 20 c1 27 7f 3c 40
       -0.7208208 -0.027960526 -10.00619 2.9452608
0001a0 03 9e ab c0 c7 84 37 c1 a1 66 ad c0 c6 a2 f8 c0
       -5.3630385 -11.469916 -5.418778 -7.76987
0001b0 81 49 32 40 35 6d 49 3f 1b ea 39 bf 66 fd ac bd
       2.7857363 0.7868226 -0.7262284 -0.084467694
0001c0 5d 28 03 3f 7d 40 9f c0 82 e9 04 3f 51 12 38 bf
       0.51233464 -4.976622 0.51918805 -0.7190295
0001d0 c4 fc e8 c1 95 11 e7 c1 3b 01 00 c0 78 f8 46 bf
       -29.12342 -28.883585 -2.000075 -0.77722883
0001e0 c4 d3 9d bf c3 f4 b1 be e2 f9 93 bb e0 e4 a3 3f
       -1.2330251 -0.3475705 -0.0045158723 1.2804222
0001f0 2a a8 d8 c0 9f 0f b5 3f 4b bf 1c 40 ee 48 55 40
       -6.770528 1.4145392 2.4491756 3.3325763
000200 75 8f 61 40 3e da 28 3c 0a 63 4b 3d c2 5d 4d bc
       3.524381 0.010305939 0.049654998 -0.012534561
000210 d7 22 f7 bf d4 88 70 bf 54 1c c4 bf cb f2 75 c1
       -1.9307507 -0.93958783 -1.5321145 -15.371776
000220 8f 4a 96 40 8e 86 36 c0 36 16 49 c1 02 4d 8d c0
       4.6966014 -2.8519626 -12.567923 -4.4156504
000230 cf fd 1b c1 97 7d a8 3e 50 9d 71 3e 16 f1 8d 3e
       -9.749465 0.32908317 0.23595166 0.27722996
000240 34 45 2e c0 ba 95 e7 3f fb ed 44 c1 7a 42 2a c1
       -2.7229738 1.8092568 -12.308101 -10.64123
000250 e4 13 7b c0 0a 5f de c0 dc 33 ad 40 87 b0 1c c1
       -3.923089 -6.9491014 5.4125805 -9.7930975
000260 a4 7e 82 40 b4 d1 e4 3e 44 c4 f0 3d ab 40 09 3e
       4.077959 0.4469124 0.11756185 0.13403575
000270 90 8a 40 bf d4 d8 a7 40 fb 7f 09 c0 e3 1f d2 bd
       -0.7521143 5.2452183 -2.1484363 -0.10259988
000280 d4 da d9 bf ab 72 ac bf 98 05 0c bf 1b 9b 94 be
       -1.7019906 -1.3472494 -0.54696035 -0.29024586
000290 96 47 75 be 53 03 5f 3f 70 ed 16 40 20 23 17 be
       -0.23953089 0.8711445 2.358242 -0.14759493
0002a0 3a 64 c6 41 e8 24 9b 3e 5a 84 2d c1 77 c5 23 c0
       24.798939 0.30301595 -10.844812 -2.5589273
0002b0 1d 15 0d be 91 bc 4d c0 da c4 8a 40 0b 5e 8f bf
       -0.13777585 -3.2146342 4.3365297 -1.1200575
0002c0 3b a5 5c 3e c0 e7 b2 3f 4b 2e 69 be 6b de b2 c1
       0.21547405 1.3976974 -0.22771566 -22.358603
0002d0 76 2a 94 40 32 02 aa c0 77 b2 62 c1 b5 66 06 c1
       4.630183 -5.312768 -14.1685705 -8.400075
0002e0 d2 9d 08 c1 a3 d1 7f 3f c5 8a 29 3f 1c 5b d4 bf
       -8.53853 0.99929255 0.6622737 -1.6590304
0002f0 37 02 62 bd 08 1a 99 3e 30 9e 46 c1 b9 cd 94 c0
       -0.055177893 0.29902673 -12.41362 -4.6501126
000300 81 a8 e8 bf 2e b2 3e c1 bc 6c b5 c0 f1 23 13 c1
       -1.8176423 -11.918501 -5.6695232 -9.196275
000310 68 b7 1e 40 5f a9 2b 3f b3 59 f0 bf 3f 83 03 bf
       2.4799442 0.67055315 -1.8777374 -0.5137214
000320 75 07 bb 3e 8f e9 05 c1 3a ca e7 be a9 26 0a 40
       0.36529127 -8.369521 -0.45271474 2.1586096
000330 c2 85 bd c1 b7 9d a0 c1 a4 30 8f c0 0a 8a 09 40
       -23.690311 -20.07701 -4.4746876 2.1490502
000340 b9 5a 99 3f 81 a5 b6 bf 43 59 15 c0 66 d9 18 c0
       1.1980811 -1.4269258 -2.333573 -2.388269
000350 d4 2c 10 c2 85 f3 c9 3b 16 c5 41 c0 d7 e2 9f 41
       -36.043777 0.006163063 -3.0276542 19.985762
000360 7c 80 81 41 a9 b0 8d 3f 99 1e 97 bf 98 19 dd 3d
       16.187737 1.1069537 -1.1806213 0.10795897
000370 75 99 e1 be 1a ef a8 3f b5 83 58 3f 71 41 38 c0
       -0.4406239 1.3197968 0.8457597 -2.8789942
000380 b9 0c 2f c1 63 07 89 bf 85 03 dd 3f 21 d9 a4 3f
       -10.940606 -1.0705379 1.7266699 1.2878762
000390 c5 19 b7 c0 39 ea 03 40 43 5d 5d c0 db 78 9a 3e
       -5.7218957 2.0611708 -3.4588172 0.3017033
0003a0 1a a1 01 c0 77 fd cf be a9 28 8b c1 b7 f6 1b 40
       -2.0254579 -0.40623066 -17.394854 2.4369333
0003b0 43 3a 52 be 5c 37 84 40 b4 23 27 40 9f 90 9d 3f
       -0.20530038 4.1317577 2.6115541 1.230976
0003c0 3a 31 8f bf 11 a6 75 3e e2 17 15 40 4c 11 d4 be
       -1.1186898 0.2398913 2.3295827 -0.41419446
0003d0 23 a7 d0 3f e2 32 a0 c1 74 98 06 c1 d7 5d aa 40
       1.6301006 -20.024845 -8.41222 5.323955
0003e0 15 2f 3b 41 51 f7 17 41 fc 90 fd 40 03 a7 6c 3f
       11.698995 9.49788 7.9239483 0.9244234
0003f0 54 e6 77 3f 1d 97 df 3f 01 dc 36 c0 03 b2 ba 3f
       0.9683583 1.7467991 -2.857178 1.4585575

layers.0.bias f4 [128]
000000 98 44 88 bc c1 ed 87 be a4 75 8d 3e fa aa 31 3d
       -0.01663427 -0.2654858 0.27628815 0.043375947
000010 b6 47 a8 bd c4 ae a3 bd 56 eb 19 3e 64 d5 0d be
       -0.08216803 -0.07992318 0.1503118 -0.13850933
000020 e4 b4 31 be 6f 39 c3 bd fc f6 71 3e c5 43 98 3c
       -0.1735416 -0.09532439 0.23629373 0.018587003
000030 3f b9 12 3e 26 28 82 3e 22 02 be 3d 4a 96 34 be
       0.14328478 0.25421256 0.092777506 -0.17635456
000040 42 48 14 be 69 dc 19 be 65 e0 6f 3e d3 cf 4d be
       -0.14480689 -0.15025486 0.23425443 -0.2009881
000050 8e 48 82 3d d5 5e 0c bd f6 de 63 3e 88 51 44 be
       0.06361495 -0.034270126 0.22253022 -0.19171727
000060 32 95 8a 3e f3 d2 80 3e bd 9e 38 3e c8 32 de 3d
       0.27066952 0.2516094 0.18029304 0.108495295
000070 55 9e c3 bd f0 a6 29 be 30 45 c0 3d 47 ce b0 bd
       -0.09551684 -0.16567588 0.093881965 -0.08633094
000080 4e 6a 81 3c 85 b7 5e bd 53 f8 3e be ff 1e 66 3e
       0.01579776 -0.054374237 -0.18649416 0.22472762
000090 39 ca 11 3e 1e 65 84 be d2 b9 c0 bd 59 e5 b5 3d
       0.14237298 -0.25858396 -0.094104424 0.08881635
0000a0 51 26 67 be 02 ca ca bd 17 6a e6 bd 61 be 65 3e
       -0.2257321 -0.09901811 -0.11250704 0.22435905
0000b0 12 b7 89 bd c6 b7 c5 bd 89 0d 3b 3d 08 84 5e 3e
       -0.06724371 -0.096541926 0.045667205 0.21730053
0000c0 b6 fd 6f be 31 0f a7 3d d7 4b 3c be 59 ae 9c 3d
       -0.23436627 0.081571944 -0.18388306 0.07650442
0000d0 a3 01 80 3e a3 b8 c1 bd 61 27 30 be e9 e4 ef bd
       0.2500125 -0.09459045 -0.17202522 -0.11713583
0000e0 65 b9 5f 3c 13 31 98 3e 2c 79 84 3d 95 aa 79 3d
       0.013655041 0.2972494 0.06468424 0.060953695
0000f0 77 06 52 3d 05 8a c7 3c 21 45 09 be ba a6 5d 3e
       0.051275697 0.024357805 -0.13405277 0.21645632
000100 3c 83 48 bd 25 4c 64 3e 59 0d 6b be 32 6c 09 be
       -0.04895328 0.22294672 -0.2295431 -0.1342018
000110 28 f2 05 3e a2 a0 bd bc 9e e5 5b be ba 3f 94 be
       0.13080657 -0.023147885 -0.21474311 -0.2895487
000120 3a ab 48 3e b2 ae de 3d e9 35 8b be 90 69 85 3d
       0.19596568 0.10873164 -0.27189568 0.06514275
000130 51 e8 c9 3d 02 46 90 3e 9b 31 22 be 35 34 89 bd
       0.09858764 0.28178412 -0.15839235 -0.06699411
000140 20 d0 10 3d e7 57 86 be 6b e7 32 be 0c 84 95 bd
       0.035354733 -0.2623894 -0.17471091 -0.073005766
000150 a2 f0 21 3e 18 90 2d 3e 7a a4 18 3d 6b 87 75 3e
       0.1581445 0.16949499 0.037266232 0.23977439
000160 d7 57 8f 3e ad 62 04 bd 4a 59 9a be 1b 35 e9 3c
       0.27996704 -0.032320667 -0.30146247 0.028467705
000170 20 94 7e 3e 19 5e ae 3d d4 6e 8f bd d6 2a f2 3d
       0.24861193 0.085140415 -0.07003561 0.118245766
000180 e9 b7 1b be be 66 7e be f1 9b c8 3b 0d 1e 77 3d
       -0.15206875 -0.2484388 0.0061221053 0.060331393
000190 50 24 8a 3e b4 c6 88 be 5d c2 86 3e 34 ae 73 be
       0.2698083 -0.26714098 0.26320162 -0.23796922
0001a0 d8 e4 11 3e fe 65 ce bd f2 91 68 3e d1 ee ff 3d
       0.14247453 -0.10078047 0.22711924 0.124967225
0001b0 29 15 e4 3d 91 88 12 3e c7 69 9a 3d 26 18 64 be
       0.111368485 0.14309908 0.07539707 -0.22274837
0001c0 96 e5 3d 3e 2e bb 89 3e bc 8a 92 3e 9f 6c 37 3d
       0.18544611 0.2690062 0.2862147 0.044781324
0001d0 ae 46 6b be 55 da c4 bd 2e b1 0e 3e aa f5 a2 bd
       -0.22976181 -0.09611956 0.13934776 -0.07957013
0001e0 e1 da 8a be eb af 98 bd 97 56 49 be d1 04 38 be
       -0.27120116 -0.07455429 -0.19661938 -0.17970587
0001f0 85 03 50 3e a6 ac d2 bd 70 05 6d be 61 b2 61 3e
       0.20313843 -0.10286836 -0.23146605 0.22040702

layers.1.weight f4 [128]
000000 b0 c2 6b 40 ac 5e 42 40 17 42 18 40 64 fa 8c 40
       3.6837578 3.0370283 2.3790338 4.4055653
000010 ac 42 b5 40 d2 4d 89 40 30 6f 88 40 13 a9 0f 40
       5.6643887 4.2907495 4.2635727 2.2446945
000020 a5 51 32 40 30 93 14 40 ca 4b 91 40 a3 47 d4 3e
       2.7862332 2.3214836 4.5405016 0.41460904
000030 77 81 bb 3f b1 69 34 40 d9 59 d0 3e ed 29 a4 40
       1.4648885 2.818951 0.40693548 5.130118
000040 8e 0c 3d 40 f9 bc 06 40 d8 1b ed 3f 44 24 2b 40
       2.9538913 2.105284 1.8524122 2.6740885
000050 af e8 41 40 bd 02 26 3f 7f ed a1 40 20 bc 3c 40
       3.0298269 0.6484793 5.060241 2.9489822
000060 5e 76 ef 3f d1 9b 83 40 09 e7 31 40 26 99 ec 3e
       1.8707998 4.1127706 2.7797263 0.46210593
000070 56 0b 64 3f 87 b1 6b 40 a8 fe 9f 40 11 80 7e 40
       0.890798 3.6827104 4.999836 3.9765666
000080 0f 9f 19 40 eb e4 3f 40 d9 82 81 40 54 62 ca 3e
       2.4003332 2.998347 4.0472226 0.39528143
000090 05 4b 1f 40 06 d6 a4 40 ed 28 55 40 e3 e4 f3 3f
       2.4889538 5.151126 3.330623 1.9054226
0000a0 1e 97 4f 40 f0 f5 b0 40 85 f9 4d 40 0d 3a 5d 40
       3.2435985 5.5300217 3.2183545 3.4566681
0000b0 b8 ca c9 3f 49 d7 38 40 e4 1f ac 40 f5 2b 8e 40
       1.576499 2.88814 5.378893 4.442866
0000c0 52 d3 1b 40 f2 33 40 3f 82 e7 31 40 95 44 8d 40
       2.434773 0.7507926 2.779755 4.414622
0000d0 21 2a 1d 40 66 15 ae 40 f9 df ff 40 56 58 7b 40
       2.4556963 5.440112 7.9960904 3.9272666
0000e0 3c ab 08 40 c7 b6 64 40 90 b4 92 40 c8 5e 86 40
       2.1354513 3.5736558 4.5845413 4.19907
0000f0 98 e6 fd 40 56 49 4f 40 1d 0c 2c 40 c7 e3 f3 3f
       7.9343987 3.238851 2.6882393 1.9053887
000100 41 79 97 40 e0 d5 55 40 36 8e d6 40 45 01 a7 40
       4.7335515 3.341179 6.7048597 5.218905
000110 e7 15 5d 40 12 0b bd 40 3c fc bc 40 2e e2 47 40
       3.4544618 5.9076014 5.9057903 3.12318
000120 22 9f 21 40 6b 4b 93 3e 74 6e ae 40 ef b4 2c 3f
       2.5253377 0.28768477 5.450983 0.6746358
000130 99 ac 98 40 34 80 a7 3f 56 8f 35 40 e4 01 72 40
       4.771069 1.3086 2.8368735 3.7813654
000140 cb 2f e8 40 50 a8 48 3f a1 97 cc 40 9e 89 67 3f
       7.255834 0.78381824 6.3935094 0.9044436
000150 55 8c 7e 40 9c 0d 38 40 e7 92 89 40 d1 0d 2f 3f
       3.9773152 2.8758307 4.2991824 0.6838046
000160 c4 48 99 40 f3 23 a2 3f 32 76 8e 3e 36 0f 23 40
       4.7901325 1.2667221 0.2782455 2.5478034
000170 b4 55 30 40 2e 78 aa 40 fb b7 0b 40 16 0a b9 3e
       2.755231 5.3271704 2.1831043 0.36140507
000180 dc 84 0e 40 16 bd 5c 40 92 32 8c 40 f9 f3 81 40
       2.226859 3.449041 4.381173 4.061032
000190 e7 cd f4 40 3e 1b 8d 40 06 7e 70 3f c8 55 97 40
       7.6501346 4.4095755 0.93942297 4.7292213
0001a0 f2 ab a4 3e 6d 91 7e 40 75 73 a2 3f 8f cb 0c 40
       0.32162434 3.977626 1.2691485 2.1999242
0001b0 17 1c 58 40 88 4e f0 40 f3 de e9 40 e7 c3 ab 3f
       3.3767145 7.5095863 7.3084655 1.341916
0001c0 c4 62 54 40 e2 ed 0d 40 26 06 89 40 ea 82 b3 40
       3.3185282 2.2176442 4.2820005 5.6097307
0001d0 7d d0 0f 41 77 b0 f7 3f d6 7a 4c 40 f4 a2 e0 3e
       8.9884 1.9350728 3.1949973 0.43874323
0001e0 5f 6f 35 3f 2c 5d be 3f 7c c1 a8 3f 9f 10 3e 3e
       0.70873064 1.4872184 1.3184047 0.18561028
0001f0 2c 80 37 40 ad 9a be 40 9f 6c 25 40 3b a5 63 3f
       2.867198 5.9563813 2.5847547 0.88923997

layers.1.bias f4 [128]
000000 f2 9d 1f c0 64 36 81 c0 3f 88 d9 be 39 61 fd bf
       -2.4940152 -4.0378895 -0.4248676 -1.9795295
000010 e9 12 69 bd 44 62 39 c0 5d 06 8f c0 ac 33 8c c0
       -0.0569028 -2.8966227 -4.469527 -4.3813076
000020 86 11 8a be 79 b9 c1 bf 4f 94 89 bf 67 25 f0 bf
       -0.26966494 -1.5134727 -1.0748385 -1.8761414
000030 36 fa d4 3e b7 50 10 c0 d7 74 9c bf 55 44 2a bf
       0.41597146 -2.2549264 -1.2223157 -0.66510516
000040 1f 11 d6 bf a7 af 9b bf 8d 3c e0 be 44 05 f4 bf
       -1.6723975 -1.216298 -0.43796197 -1.9064107
000050 f9 de a0 3f 2b 13 2e c0 27 b2 97 bf 4c cb 5d c0
       1.2568046 -2.71992 -1.1851243 -3.4655333
000060 ee 16 4a 3d 0d 86 34 c0 12 82 66 c0 18 4c ff bf
       0.049338274 -2.8206818 -3.6016889 -1.9945097
000070 20 8f d9 bf 00 b2 0b 3f 56 04 0d c0 fc 28 6f 3f
       -1.6996803 0.5456848 -2.2033896 0.9342191
000080 d4 9f 66 c0 c1 4e f0 bf 64 24 db 3d 4f d0 97 bf
       -3.6035051 -1.8774034 0.107003 -1.1860446
000090 b0 ce f2 bf 04 0f 17 be 63 3f e6 bf 32 13 45 c0
       -1.8969326 -0.14751822 -1.7988094 -3.0792966
0000a0 e1 0d 13 c0 03 0b f7 bf 85 a0 3d c0 3a 35 70 c0
       -2.297722 -1.9300236 -2.9629223 -3.7532487
0000b0 b2 e5 03 c0 cc c5 6c c0 2e db e7 bf 29 63 45 bf
       -2.0608945 -3.6995726 -1.8113763 -0.7710443
0000c0 1f 53 95 be f6 9c 18 bf af a0 00 c0 a6 f7 89 3f
       -0.2916498 -0.59614503 -2.0098073 1.0778701
0000d0 fa 71 4d c0 ba cb 16 c0 eb a3 cf 3e 36 81 52 c0
       -3.2100816 -2.3561845 0.40554747 -3.2891364
0000e0 2b ce b9 bf 22 9d a2 bf 98 1b d4 be 4e 2d 9d bf
       -1.4516042 -1.2704203 -0.41427302 -1.2279451
0000f0 02 5d 92 be d4 ad fb bf c4 f7 b2 bf 0e a6 7f c0
       -0.28586584 -1.9662423 -1.3981862 -3.9945102
000100 de e9 1a c0 8f d5 5f c0 35 73 d4 3c b2 84 c4 bf
       -2.4205241 -3.4974096 0.025933841 -1.5352995
000110 73 65 41 3f 2f 64 32 c0 94 a9 d4 bf fc 51 52 3d
       0.75545424 -2.7873647 -1.6614251 0.051347718
000120 21 18 7b c0 db 72 87 bf bf 18 bf 3e e1 62 d5 bf
       -3.9233477 -1.0581926 0.37323567 -1.66708
000130 c5 bf 92 bf 45 a3 20 c0 3e a3 6e bf 89 e2 0a c0
       -1.1464773 -2.5099652 -0.9321784 -2.1700766
000140 7e 59 1e be c9 9c db bf 75 d7 83 be b5 eb 07 c0
       -0.15463826 -1.7157222 -0.25750318 -2.1237614
000150 b9 af c4 bf 61 00 10 be 76 c2 0d c0 d5 c0 ca bf
       -1.5366126 -0.14062645 -2.214994 -1.5840098
000160 26 8b b0 bf 11 7f 65 3f a3 e2 a7 bf 60 fe 2a bf
       -1.3792465 0.8964701 -1.3116039 -0.66794395
000170 93 ca 02 c0 35 9c 42 40 a4 32 0e c0 2d fb 88 bf
       -2.0436141 3.0407841 -2.2218409 -1.0701653
000180 4e 1a 69 bf c2 49 28 c0 00 a3 bc bf 08 0d 04 3d
       -0.9105576 -2.6295018 -1.4737244 0.03223899
000190 1c 49 11 3f d4 2a 8d be 79 83 a4 bf 5e 72 d0 bf
       0.5675218 -0.27571738 -1.2852622 -1.6284902
0001a0 26 65 76 bf 19 32 91 be 19 eb 30 c0 0c 8e 3c bf
       -0.9624809 -0.28358534 -2.7643492 -0.73654246
0001b0 16 c5 3d bd 07 68 7e be c3 dc 1b 3f dd dc da bf
       -0.046330534 -0.24844371 0.6088373 -1.7098652
0001c0 ea 60 0c c0 61 e7 e7 3f fd 10 62 be de 09 7a bf
       -2.1934152 1.8117486 -0.22076793 -0.97671306
0001d0 61 0c 18 be d8 af 08 40 f5 0c 7b 3f 56 f0 b6 bf
       -0.14848472 2.1357327 0.98066646 -1.4292095
0001e0 20 5b 0b c0 5e 20 ee 3f e5 8f 1a c0 a4 e1 30 bf
       -2.1774368 1.8603628 -2.4150326 -0.690943
0001f0 af fc 2b c0 23 a7 06 40 67 32 f2 3e 0c 1f b4 bf
       -2.6872976 2.1039512 0.4730408 -1.4071975

layers.1.running_mean f4 [128]
000000 bc 89 3d c6 9d 2f 3a 47 7a c0 68 c6 5b da 3d c5
       -12130.434 47663.613 -14896.119 -3037.6472
000010 e8 a1 c3 45 2c ae a4 45 a2 31 48 c5 42 20 2d 46
       6260.2383 5269.7715 -3203.102 11080.064
000020 f9 1c ae c5 9e a5 19 c4 7b 70 e8 c4 82 09 01 45
       -5571.6216 -614.58777 -1859.515 2064.5942
000030 4b c5 df c4 a4 7e 2e c6 e4 7c 29 c5 12 37 fb 44
       -1790.1654 -11167.66 -2711.8057 2009.721
000040 5a ab 24 45 a9 68 06 c6 f4 64 76 c5 d8 d8 8a c5
       2634.7095 -8602.165 -3942.3096 -4443.1055
000050 f5 5a 37 c6 92 5d ef 44 b7 ff 00 c5 90 b0 ce 44
       -11734.739 1914.9241 -2063.9822 1653.5176
000060 49 ff 83 c6 85 25 da 45 01 b2 21 46 c0 f7 c9 c5
       -16895.643 6980.69 10348.501 -6462.9688
000070 91 5f ad 44 dc 3e ef c4 cd 21 27 c4 66 a0 e2 c5
       1386.9865 -1913.9644 -668.52814 -7252.05
000080 2d 64 92 46 5a e6 eb bf 4e c4 aa c5 8a b5 92 42
       18738.088 -1.8429673 -5464.538 73.35457
000090 8e 2d 01 c6 45 25 d2 c2 6c 98 1d c6 a2 02 88 46
       -8267.389 -105.07279 -10086.105 17409.316
0000a0 c2 87 45 c6 b2 e6 cb 45 40 73 80 46 47 e8 03 47
       -12641.939 6524.837 16441.625 33768.277
0000b0 f6 4a fb c5 d7 f1 01 46 34 1d fd 43 ee 3a dd c5
       -8041.37 8316.46 506.22815 -7079.366
0000c0 3b 2a 75 c6 eb 4f 15 46 76 a4 2f 46 04 d1 c9 c5
       -15690.558 9555.9795 11241.115 -6458.127
0000d0 c6 44 16 46 94 82 f0 45 6b a0 95 c6 aa c0 74 45
       9617.193 7696.3223 -19152.209 3916.0415
0000e0 01 f1 2f c6 e5 63 11 c4 73 41 1e c6 07 a3 03 44
       -11260.251 -581.56085 -10128.362 526.5473
0000f0 10 db a9 c4 64 a7 12 c5 c5 6e 34 c6 99 53 a8 c5
       -1358.8457 -2346.462 -11547.692 -5386.4497
000100 60 11 fd 45 1d 5a c5 46 34 95 88 c5 e9 02 22 46
       8098.172 25261.057 -4370.6504 10368.728
000110 d8 cd de c5 c1 ca dc 45 e7 b4 e3 45 09 6d 8c c6
       -7129.7305 7065.344 7286.613 -17974.518
000120 54 c8 02 c3 e8 33 fe c0 57 e1 84 45 70 d4 1e 45
       -130.78253 -7.943836 4252.1675 2541.2773
000130 e6 c8 5f c5 07 1e b0 c5 08 3e 14 46 b7 3d 45 45
       -3580.5562 -5635.7534 9487.508 3155.8572
000140 74 3d c8 c5 b9 61 86 45 07 b9 13 44 b7 22 86 45
       -6407.6816 4300.2153 590.89105 4292.3394
000150 19 65 86 45 b8 54 20 c6 08 38 0b 46 90 33 05 c6
       4300.637 -10261.18 8910.008 -8524.891
000160 0c b3 8d c5 c3 1b f6 46 3c c4 c2 c4 2e c3 1c c5
       -4534.381 31501.88 -1558.1323 -2508.1987
000170 19 17 80 c5 63 fb 86 46 77 c4 87 46 f2 09 2c c5
       -4098.887 17277.693 17378.232 -2752.6216
000180 33 5a c9 c6 07 5b 09 46 a7 7b 02 c6 4c 1d f1 c5
       -25773.1 8790.757 -8350.913 -7715.662
000190 03 79 80 c6 ab 7d c1 c2 9a 16 69 45 ed 59 fb 45
       -16444.506 -96.745445 3729.4126 8043.2407
0001a0 33 4e fc c4 14 99 02 c5 8c ab 23 c4 41 df 1c c6
       -2018.4437 -2089.5674 -654.6804 -10039.813
0001b0 0b 3d bd 44 3a 10 41 c6 45 2b d1 45 1f c7 b7 43
       1513.9076 -12356.057 6693.4087 367.55563
0001c0 78 70 97 c5 ec 82 27 c6 04 1a 18 c4 8a 5e 2a c5
       -4846.0586 -10720.73 -608.4065 -2725.9087
0001d0 d4 fb ac c5 fd f8 ea c5 48 b3 00 c6 b3 6c 8a 44
       -5535.4785 -7519.1235 -8236.82 1107.3969
0001e0 08 45 9c 45 3f 10 b4 44 d9 0a b2 44 7f 0c f1 c2
       5000.629 1440.5077 1424.339 -120.52441
0001f0 af 89 10 c6 52 87 0f 46 88 5f 57 46 3a 74 ab c5
       -9250.421 9185.83 13783.883 -5486.5283

layers.1.running_var f4 [128]
000000 4c 28 bc 49 5c e7 bb 4b 82 be 6f 4b 38 b0 85 48
       1.5413855e+06 2.462892e+07 1.5711874e+07 273793.75
000010 ef 1f 4d 4c 7d a2 89 4b 38 34 da 48 59 f0 9c 4a
       5.377222e+07 1.8040058e+07 446881.75 5.1425725e+06
000020 0d b8 7c 4b 3a 29 a8 4a f9 77 d3 49 9f 7c b5 49
       1.6562189e+07 5.510301e+06 1.7323511e+06 1.4867399e+06
000030 20 21 a9 4b ee 06 d2 49 89 5e 37 49 d2 77 1f 4a
       2.2168128e+07 1.7205418e+06 751080.56 2.6127245e+06
000040 c1 38 94 4a f0 d4 d3 4a 05 40 ba 4a d8 05 18 4b
       4.8569285e+06 6.941304e+06 6.1030425e+06 9.962968e+06
000050 d3 29 f0 49 1a 12 8d 49 4e be 99 4b 66 ce 40 4b
       1.9674184e+06 1.1556512e+06 2.0151452e+07 1.263575e+07
000060 2c 9b 05 49 c8 b8 1c 4a 0f 0c 6c 4b ce 9b 69 4a
       547250.75 2.56773e+06 1.5469583e+07 3.8274435e+06
000070 c4 d9 06 49 a6 92 a0 4a 3e 1c 81 48 79 c0 10 4b
       552348.25 5.261651e+06 264417.94 9.486457e+06
000080 ce 36 f3 4a b0 a4 d5 49 d5 ae 29 4b aa 2e 12 49
       7.969639e+06 1.750166e+06 1.1120341e+07 598762.6
000090 36 45 76 4a e6 30 1c 4a 71 1e d9 48 36 8d 86 4a
       4.0348935e+06 2.5590335e+06 444659.53 4.408987e+06
0000a0 b0 16 72 4a 81 11 35 4b 87 e2 99 49 71 ba b9 49
       3.96638e+06 1.1866497e+07 1.2606249e+06 1.5214861e+06
0000b0 cd 73 11 4a fa 4f ce 4a 55 b8 9a 4b 30 8c 92 4a
       2.3830912e+06 6.760445e+06 2.0279466e+07 4.802072e+06
0000c0 d9 6e ac 4b f3 df 4a 4b e8 87 96 4a 13 61 11 4a
       2.2601138e+07 1.3295603e+07 4.932596e+06 2.3818928e+06
0000d0 9f 80 f2 49 2a 37 23 4a 6c 2b 05 4c b2 3d 36 4a
       1.9865799e+06 2.6741225e+06 3.4909616e+07 2.9858365e+06
0000e0 6c 26 6a 4b 2b 71 f5 49 b7 32 fd 49 1e e3 15 4b
       1.534526e+07 2.0106614e+06 2.0741989e+06 9.823006e+06
0000f0 07 03 25 4c 58 ce 22 49 d7 e8 e8 4a 66 76 41 4b
       4.325686e+07 666853.5 7.6319795e+06 1.2678758e+07
000100 32 1d 46 4a 6a ad b6 49 1f ea a9 4b aa 06 2c 4a
       3.2459005e+06 1.4964932e+06 2.2271038e+07 2.8184745e+06
000110 d5 c2 dd 49 ec 6d 14 4a 16 00 54 4b 0b 69 14 4b
       1.8166666e+06 2.431867e+06 1.3893654e+07 9.726219e+06
000120 93 27 44 4b 9e 47 0b 49 26 1f 05 4c a5 3a 75 49
       1.2855187e+07 570489.9 3.489705e+07 1.0044583e+06
000130 0e e2 02 4a 7c 79 a2 4a 90 f3 c3 4a c6 9b e1 4a
       2.1443875e+06 5.323966e+06 6.420936e+06 7.392739e+06
000140 e5 6f 73 4c ad 9c 64 48 9a 63 23 4c cd 9a 6e 48
       6.3815572e+07 234098.7 4.2831464e+07 244331.2
000150 6f 95 38 4b 26 86 3f 4a e0 49 1e 4a ac 80 88 49
       1.2096879e+07 3.1379295e+06 2.5934e+06 1.1182295e+06
000160 71 14 96 4b ae 3b 56 4a 2b f4 dd 49 09 1e 3c 4b
       1.9671266e+07 3.5099955e+06 1.8182454e+06 1.2328457e+07
000170 5f 6c f5 49 ac 66 8a 4b 00 3d b2 48 51 ef 30 49
       2.0105079e+06 1.8140504e+07 365032.0 724725.06
000180 d8 47 23 49 8f 28 6c 4a d4 9d cf 4a 92 2c a6 4a
       668797.5 3.8692198e+06 6.803178e+06 5.445193e+06
000190 e2 df 2f 4c 52 aa f1 49 54 64 e3 4a 57 1a 59 4b
       4.6104456e+07 1.9797222e+06 7.451178e+06 1.4228055e+07
0001a0 49 ef 7b 4a 77 68 24 49 3d f3 f3 4a 38 4a 02 4b
       4.1276982e+06 673415.44 7.9937585e+06 8.53868e+06
0001b0 ac cb 13 4b c5 5d 0b 4c a4 4f a7 4b 90 5c 10 4b
       9.685932e+06 3.6534036e+07 2.19298e+07 9.46088e+06
0001c0 87 0c b2 4a bf 30 c6 4a 6c eb 87 4a 98 a9 9a 49
       5.8343075e+06 6.4943035e+06 4.453814e+06 1.266995e+06
0001d0 0e 7c 47 4c 1c 91 24 4b be fe d1 4a ab 7c 7d 4a
       5.229369e+07 1.0785052e+07 6.881119e+06 4.1531308e+06
0001e0 ca cb d7 49 9a e6 dd 4a 25 d8 6c 4a f7 eb 32 49
       1.7678012e+06 7.271245e+06 3.8804572e+06 732863.44
0001f0 3c 91 c2 4a 23 e2 11 4c 6d ac 26 4b b6 6d 32 4a
       6.375582e+06 3.8242444e+07 1.0923117e+07 2.9233735e+06

layers.4.weight f4 [64, 128]
000000 5b fb 59 c0 5f 4a aa 40 0f 8b c5 3e a8 e6 89 c0
       -3.4059665 5.3215785 0.38582656 -4.3094063
000010 1d 29 cc bf 6e 2e 80 bf 87 9b 8d c0 49 81 19 40
       -1.5950047 -1.0014169 -4.4252353 2.398516
000020 06 cd 73 bf 87 49 9d bf 2c e3 e5 be 97 49 a1 3c
       -0.95234716 -1.2288064 -0.4489988 0.01968841
000030 6f e9 08 c0 84 04 1e bf bb b5 77 be 5a da de c0
       -2.1392477 -0.6172564 -0.24190418 -6.9641542
000040 28 d5 6c c0 48 ac 77 be 7e f5 e8 be 41 b0 ad bf
       -3.70051 -0.24186814 -0.45499796 -1.3569413
000050 8c 9c ec be 40 14 df 3e e7 87 1a bf bb 6c af 3e
       -0.46213186 0.43570137 -0.6036362 0.34262642
000060 ab e3 99 3f 45 ad 30 bf fd b1 b6 3f fc 7b 5e bf
       1.2022604 -0.6901439 1.4273068 -0.86907935
000070 83 8f 2a 3f 14 c9 5b c0 ac 11 78 c0 a7 06 06 c0
       0.6662523 -3.4341478 -3.8760786 -2.094156
000080 bc 0b d8 3f d5 64 5c bc af 16 1f c0 25 1f 82 3e
       1.6878581 -0.013451775 -2.4857595 0.25414386
000090 8b cc 89 bf fe 17 d5 bf e9 7f 77 40 79 5a b5 bf
       -1.0765547 -1.6647947 3.867182 -1.4168235
0000a0 6f 9c 90 c0 05 65 63 3f c6 00 8b be b1 6c 51 3f
       -4.519096 0.8882602 -0.27149028 0.81806475
0000b0 39 0a d0 be c3 08 13 40 ab 5a 4a 3d fb 00 8e bf
       -0.406328 2.2974098 0.049402874 -1.1094049
0000c0 33 a9 20 c0 04 dc 3f 40 e3 f1 90 c0 97 be 2e bf
       -2.510327 2.9978037 -4.529527 -0.6825957
0000d0 7c b0 da 3f 5c e9 f8 3c aa 0d aa c0 8a 66 71 c0
       1.7085109 0.030384712 -5.314168 -3.7718835
0000e0 f0 28 b9 bf 49 3d bc bf 39 c3 3c 3d ff 6c cb 3e
       -1.4465618 -1.4706203 0.046084616 0.39731595
0000f0 66 08 93 c0 69 05 4c bf ba 35 d0 bf 9c f1 9c bf
       -4.594775 -0.79695755 -1.6266396 -1.2261233
000100 93 5f 3a c0 c1 40 7c bf cb 7b 93 c0 bf 45 3b 3e
       -2.9120834 -0.98536307 -4.6088614 0.18288325
000110 a7 9f 61 3f d0 aa 10 c0 cd 0a f5 be e0 ad 95 be
       0.88134235 -2.2604256 -0.47859803 -0.2923422
000120 7a 52 74 c0 10 1c 40 bc 1c db 86 bf b0 9c 4b 3e
       -3.817534 -0.011725441 -1.0535617 0.1988399
000130 4b f6 ce c0 bf 70 fd bf d5 37 dc bf fd 33 66 3f
       -6.467565 -1.9800032 -1.7204539 0.8992308
000140 de 12 88 c0 2b 2f 7d 3f ec dd a1 c0 d9 a5 2d 3e
       -4.252303 0.989001 -5.05834 0.16957797
000150 05 08 80 be 0b 3f 85 c0 7f e3 29 3f b7 3a 14 bf
       -0.25006118 -4.1639457 0.66362756 -0.5790209
000160 c7 bb 50 3c 65 fb d4 be 1e a3 e2 be eb 27 01 c0
       0.012740082 -0.4159805 -0.44265074 -2.0180614
000170 7c 36 65 3e d1 cb 8c bf a4 97 d2 3f 1b 0d 8c 3e
       0.22384065 -1.09997 1.6452527 0.2735375
000180 bc 72 9b bf 03 7e 1b c0 4c e5 98 be 22 59 12 3e
       -1.2144389 -2.4295661 -0.2986244 0.14291814
000190 30 a8 6b bf 94 4b 16 c0 bc 30 cf be c7 17 4a bf
       -0.9205351 -2.348363 -0.4046687 -0.7894253
0001a0 b7 14 16 3e 76 d7 f2 3f 29 c7 c3 bf 54 63 83 bf
       0.1465634 1.8972003 -1.5295154 -1.0264688
0001b0 fe 65 3b c0 14 76 a8 c0 50 cd 38 bf f0 c4 4a 40
       -2.9281 -5.264414 -0.7218828 3.16827
0001c0 2d 18 a0 c0 5e db ad bf 0a 0f 33 c0 50 a2 b1 c0
       -5.002951 -1.358257 -2.797793 -5.5510635
0001d0 25 3b 7d c0 95 39 1b c0 b2 67 5b c0 4c 24 e1 3a
       -3.956735 -2.4253895 -3.428204 0.0017176955
0001e0 6c 57 8a bd ae a3 59 bd 28 d8 0f c0 e0 bc 93 be
       -0.06754956 -0.053134613 -2.2475681 -0.28855038
0001f0 f7 24 07 c0 76 93 f7 bf a5 ae 07 c0 17 da 60 bf
       -2.1116312 -1.9341877 -2.1200345 -0.8783278
000200 d2 3e d1 be fa 4a e8 be 34 e7 88 c0 32 29 26 40
       -0.4086824 -0.45369703 -4.278223 2.5962644
000210 f2 88 02 3f 64 27 33 c0 72 1c 5a 40 a7 f5 2b 3f
       0.5099021 -2.7992792 3.4079862 0.6717171
000220 c6 6a 8d be 47 c3 bc 3f f7 2e 35 3f 99 10 a6 bf
       -0.27620524 1.4747094 0.7077479 -1.2973815
000230 db 82 0f 40 d3 d0 0c c0 1e f9 84 bd e6 1d 16 bf
       2.2423618 -2.2002456 -0.06492828 -0.5863937
000240 b5 ca 68 40 77 04 e6 3f 2d 02 bc 3f ca 4e c4 c0
       3.6373723 1.7970113 1.4688164 -6.134618
000250 e7 1a 46 be e9 4a 38 bf 08 de 66 c0 07 8e d7 c0
       -0.193462 -0.71989304 -3.6073017 -6.7360873
000260 a9 6d 02 c1 3d 03 ae bf 39 8e 87 c0 6d ba 0b 3f
       -8.1517725 -1.3594738 -4.236111 0.5458134
000270 ea cf 26 bf e4 a9 34 bf a5 27 82 3f 18 30 12 3f
       -0.65161 -0.7057173 1.0168349 0.57104635
000280 33 dd 7d bf 6d 54 ee c0 a4 ad a6 be 38 8f ab be
       -0.9916565 -7.447806 -0.32554352 -0.33507705
000290 17 29 28 3f d6 ee e0 3d 4b a2 81 c0 30 94 0f c1
       0.656877 0.10983054 -4.051061 -8.973679
0002a0 f1 c7 d9 be ac 41 16 40 69 2f c2 c0 c8 12 70 c1
       -0.42535356 2.3477583 -6.0682874 -15.004585
0002b0 a0 e6 e7 be 2d ae b2 3f 5d a8 90 3f 33 1d 3d c0
       -0.4529314 1.3959404 1.130138 -2.9549072
0002c0 5f 42 1d 40 59 41 88 3f 38 05 8f c0 be 10 8c bd
       2.457176 1.0644943 -4.469387 -0.06839131
0002d0 03 2b 56 c0 69 36 fc 3f 39 d3 73 3f da c7 b3 3e
       -3.3463752 1.9704105 0.95244175 0.35113412
0002e0 d3 d7 4b 3f a5 de 03 bf a0 fc 9c 3d 71 61 4b c0
       0.79626197 -0.51511604 0.07665372 -3.1778224
0002f0 37 01 aa bf 43 91 43 c1 b1 d2 6b 40 07 1a 4c 40
       -1.3281621 -12.222964 3.6847346 3.1890886
000300 71 73 c2 3f 40 ad 66 c1 aa 4f 8f c0 2d 1b 08 bf
       1.519148 -14.417297 -4.4784746 -0.53166467
000310 03 30 17 bf 78 75 1d 3f 40 2b 07 3f 31 d5 3c bf
       -0.59057635 0.6150737 0.5280037 -0.73762804
000320 75 18 a4 bf a4 9a f2 3d 78 1d 77 3e 4a 6c f6 be
       -1.2819964 0.118459016 0.24132335 -0.48129493
000330 b2 5c 30 3f 56 53 0b bf 02 b2 7d bf 04 91 ac c0
       0.6889144 -0.54424036 -0.99099743 -5.392702
000340 6e 83 ad bf 0a ab b8 bd bc 47 7e c0 01 e9 2b be
       -1.3555734 -0.09016998 -3.9731283 -0.16788103
000350 dc aa 95 c0 14 eb c0 bf b8 a9 3b c0 1d e9 24 bf
       -4.677107 -1.507174 -2.9322338 -0.644182
000360 ab fa b8 bf 21 ef 0c 3f 14 a5 09 be e8 19 45 bf
       -1.4451498 0.5505238 -0.13441879 -0.76992655
000370 03 8a 2f c1 ae 41 5f be 69 14 e5 c0 ac 59 e3 be
       -10.971194 -0.21802399 -7.1587415 -0.44404352
000380 15 2c f5 c0 72 cf e9 3f 8a 9a a1 c0 b6 48 16 c1
       -7.661631 1.8266432 -5.0501146 -9.392752
000390 e5 99 46 3f 28 cf 1a bf 06 ab be 3f 4c b7 35 3f
       0.77578574 -0.60472345 1.4895942 0.70982814
0003a0 7b 35 b5 be 83 aa 69 40 84 da 7f bf 53 0e 17 40
       -0.35392365 3.6510322 -0.99942803 2.3602493
0003b0 64 7c ce c0 83 33 86 3d 02 93 f9 be 98 90 ce bf
       -6.4526844 0.06552794 -0.4874497 -1.6137877
0003c0 b7 a6 32 bf 69 48 3d 3f f0 b2 ca 3e 7a a3 93 3e
       -0.69785637 0.73938614 0.39589643 0.2883566
0003d0 29 bb 77 3d 37 f3 5b bf a7 eb 41 bc f8 74 c0 be
       0.060481224 -0.8591799 -0.011835969 -0.3758924
0003e0 c2 26 42 bd e7 41 63 3e 6a c1 ce 3f a6 7f 16 bd
       -0.047400244 0.22193108 1.6152775 -0.03674283
0003f0 de 82 2c bf 53 b9 7d be 1e 29 b7 be 44 5d 31 3e
       -0.6738719 -0.24777727 -0.35773557 0.17320734

layers.4.bias f4 [64]
000000 e4 d7 62 3c ca 4b bb bc 96 46 10 3d 29 a6 a9 bd
       0.013845418 -0.022863287 0.035223566 -0.08283646
000010 6b 5e d0 3d f7 b5 49 bc 32 f7 09 bd bd 84 ad bd
       0.10174259 -0.01231145 -0.03368301 -0.084725834
000020 17 0d f6 bd 2f 10 07 3d 7f 06 86 bd f9 08 ca 3d
       -0.120142154 0.03297442 -0.06544208 0.09864993
000030 d6 25 a2 bc 1f 69 96 3c 2e 34 a2 3d 77 2d 83 3c
       -0.019793432 0.018360673 0.07920109 0.01601289
000040 b5 6f df 3d 79 97 16 bd 3d 18 40 3d d6 ea 75 ba
       0.10909978 -0.03676555 0.046898115 -0.00093810016
000050 a8 1d 87 3c 82 be d4 3d 47 26 b7 bc fe 3d 23 bd
       0.016493633 0.10387899 -0.02235712 -0.039854042
000060 10 be 94 bd e6 21 80 3e 0e 03 68 3d ab e5 98 bd
       -0.07262814 0.25025862 0.05664354 -0.07465681
000070 ad 9b eb bc 03 ed 7c 3d 03 f6 4f bb 11 67 fd bc
       -0.028760755 0.06174947 -0.0031732328 -0.030932935
000080 64 56 a4 bc ef 33 85 3d 95 ac f3 bc 56 26 53 bd
       -0.020060726 0.06504046 -0.02974538 -0.051550232
000090 64 dc a6 3c ae 35 f6 3d a5 17 e2 bc 8f 6d 28 bc
       0.020368762 0.12021957 -0.027599165 -0.010280027
0000a0 2b ec 37 bd 6d e4 a7 bc a8 2a 74 3c 8b f6 e5 3b
       -0.04490296 -0.020494664 0.014902748 0.0070179156
0000b0 a3 0d 28 3d a0 93 99 bd 97 f5 83 3d 77 8e 6c 3c
       0.04102863 -0.0749886 0.06443327 0.014438263
0000c0 20 be 24 bd 62 c8 b6 3d 58 5b 10 3e 30 cc ef 3d
       -0.04022038 0.08924939 0.14097345 0.117088675
0000d0 86 7c 91 bd 44 e4 5e bb 81 b3 e2 3c fb 9b 37 3d
       -0.07103829 -0.0034010569 0.027673485 0.04482649
0000e0 1b 03 78 3c 70 9c 27 bd f5 c6 32 bd ba 5d d4 ba
       0.015137459 -0.040920675 -0.04364677 -0.0016202249
0000f0 14 68 b5 3d 01 80 98 3d c8 23 d1 3c f3 35 54 3c
       0.08857742 0.0744629 0.025529757 0.012952316

layers.5.weight f4 [64]
000000 d4 08 41 40 8b e0 2e 40 1b 3f e9 3f 2c ec 0a 40
       3.0161638 2.732455 1.8222383 2.1706648
000010 41 2e 4f 40 2a a7 9a 3f ff 25 00 40 76 4f 69 40
       3.237198 1.2082264 2.002319 3.645475
000020 99 ee 4d 40 df f7 84 3f 60 fe 2e 40 0d 14 a1 3f
       3.2176878 1.0388144 2.7342758 1.2584244
000030 c2 34 42 40 49 d1 d4 3f aa 52 27 40 40 66 d8 3f
       3.03447 1.6626369 2.6144204 1.6906204
000040 d1 d2 37 40 cc 6c 0a 40 2a 47 ad 3f 27 bc 48 40
       2.8722422 2.1628904 1.3537343 3.136484
000050 9e e2 1e 40 69 6f 39 40 b1 c6 d5 3f 51 4a 10 40
       2.4825816 2.897425 1.6701261 2.254536
000060 b1 d8 0a 40 67 22 65 40 19 20 06 40 14 a2 01 40
       2.1694758 3.5802248 2.095709 2.0255175
000070 ec 33 16 40 9d 11 2b 40 53 e9 59 40 97 e6 2c 40
       2.346919 2.67295 3.404866 2.701574
000080 48 2c 2f 40 21 cc 13 40 7b be 16 40 b3 50 fd 3f
       2.7370777 2.309334 2.355376 1.9790252
000090 0d 65 11 40 a0 85 4c 40 57 6f d9 3f 7a cc cb 3f
       2.2717927 3.1956558 1.6987103 1.5921776
0000a0 78 aa 3f 40 11 ec c6 3f b3 2d 46 40 fb cf 4d 40
       2.9947796 1.5540792 3.0965393 3.2158191
0000b0 88 ef 5b 40 3f f7 c6 3f e8 77 b1 3f 84 45 16 40
       3.4364948 1.5544204 1.3864717 2.347993
0000c0 f7 67 82 40 db d8 60 40 ff 38 1b 40 75 4d 2d 40
       4.075191 3.5132358 2.4253538 2.7078526
0000d0 94 88 1a 40 d3 ba 12 40 34 ee dd 3f 50 25 bb 3f
       2.414586 2.2926528 1.7338319 1.4620762
0000e0 f9 2b 2b 40 19 2f 32 40 6a 4f 1c 40 43 c7 4c 40
       2.6745589 2.7841246 2.442347 3.199662
0000f0 44 c5 4b 40 2b ac 21 40 24 a0 d7 3f 32 27 72 40
       3.1839151 2.5261333 1.6845746 3.7836423

layers.5.bias f4 [64]
000000 da 6d 65 c0 fc 75 02 bf 5b f2 36 bf b3 ec 37 be
       -3.5848298 -0.5096128 -0.71463555 -0.17961387
000010 bb 52 18 3e 17 f1 1e 3f 4b e1 b6 bf b6 60 e2 3f
       0.14875309 0.62086624 -1.4287504 1.7685764
000020 52 70 b4 c0 d9 1e 69 c0 8f e4 ef 3f 7b d7 36 bf
       -5.638711 -3.6425078 1.8741626 -0.7142255
000030 b7 b1 a1 c0 5d 91 92 bf c7 b9 6b c0 5f 35 0f 40
       -5.0529437 -1.1450611 -3.683214 2.2376325
000040 1c 4e 9d c0 6c 3d 9d bf c0 cb f3 3f b9 44 29 3e
       -4.915785 -1.228437 1.9046555 0.16530122
000050 75 ca 17 c0 a5 04 8f c0 2b cc e0 3e 1f a7 6b 40
       -2.371732 -4.469317 0.43905768 3.6820753
000060 38 09 01 c0 39 ad cf c0 2c f5 62 c0 64 37 e7 bf
       -2.0161877 -6.4898953 -3.546214 -1.8063779
000070 c0 b0 99 bf 3f ec 4e c0 28 60 98 c0 40 89 a2 c0
       -1.2007065 -3.2331693 -4.761738 -5.079254
000080 24 69 ab bf e4 81 21 40 59 7e 89 c0 c2 71 0c c0
       -1.3391461 2.523553 -4.2966733 -2.1944432
000090 03 bc 6b c0 eb 6e 8f c0 95 ec b1 3e 4c 71 e0 bf
       -3.6833503 -4.48229 0.3475081 -1.7534575
0000a0 99 82 1f 3f 66 2a 2b 3e 41 a0 a9 c0 10 e4 b1 bf
       0.6230865 0.16715392 -5.3008122 -1.3897724
0000b0 c9 9e 33 bf 67 2d c4 3e fb 96 f3 be 36 50 08 c0
       -0.7016416 0.3831589 -0.47576126 -2.1298957
0000c0 76 81 3f 3e 21 03 5c c0 3f 79 af c0 c7 1c 98 c0
       0.18701729 -3.437691 -5.4835505 -4.753513
0000d0 fa bd f4 bf 5c 0f 01 bf 18 6f 99 bf 34 30 e3 be
       -1.9120476 -0.5041406 -1.1987028 -0.44372714
0000e0 27 ee 6b c0 20 fe 24 bf 58 30 d4 bf 78 e1 a0 40
       -3.6864107 -0.64450264 -1.6577253 5.027523
0000f0 0d 43 61 c0 39 5d 01 40 ae e3 16 3f 9a 43 98 c0
       -3.5197175 2.0213149 0.5894116 -4.758252

layers.5.running_mean f4 [64]
000000 d8 f8 3e c3 67 54 ab c2 84 f9 fb 42 df 36 1a c3
       -190.97205 -85.66485 125.987335 -154.21434
000010 89 1f 87 42 47 2b 94 c2 2f 2e 55 c3 fa e1 7c c2
       67.56159 -74.084526 -213.1804 -63.22068
000020 14 d5 33 c3 5c eb 82 c2 8e 7d 28 43 b0 a5 03 43
       -179.83234 -65.45969 168.49045 131.64722
000030 d0 a7 5e c3 00 cc bf c2 f0 18 21 c3 5d e8 6d 43
       -222.65552 -95.89844 -161.09741 237.90767
000040 cc c0 3a c3 bd 63 d2 c2 85 db 27 43 d9 8f a9 c2
       -186.75311 -105.1948 167.8575 -84.78095
000050 44 40 e6 c2 91 2c 42 c3 5b 0f 20 c3 01 35 68 42
       -115.12552 -194.17409 -160.05998 58.05176
000060 b4 e2 04 c3 a5 06 dd c2 1d 86 ad c2 93 a1 0b c3
       -132.88556 -110.51298 -86.76194 -139.63115
000070 3d 11 f0 c2 b4 51 2c c3 58 ee 1d c3 09 51 0d c3
       -120.03367 -172.31915 -157.93103 -141.31654
000080 fb bc 37 c3 6b 24 30 43 4a 5d e0 c2 0e 47 00 c3
       -183.7382 176.14226 -112.182205 -128.27756
000090 f0 be 47 c3 b8 06 2e c3 6e b5 60 bf 9b a1 fd c2
       -199.74585 -174.02625 -0.8777684 -126.815636
0000a0 2d b9 03 43 7d e3 a8 c2 f5 47 09 c3 26 0e 28 c3
       131.72334 -84.44431 -137.28108 -168.05527
0000b0 fb 8b c3 c2 a9 c3 f0 c2 44 6a 06 c2 f4 98 28 c3
       -97.7734 -120.38215 -33.603775 -168.59747
0000c0 55 fc 92 42 ec a4 67 c3 f3 14 42 c3 c6 fc 4e c3
       73.492836 -231.64423 -194.08183 -206.9874
0000d0 3f ac 45 c3 ef 06 25 c3 1c da a3 c2 d6 7b 35 c2
       -197.67284 -165.02708 -81.925995 -45.370934
0000e0 e0 69 e4 3f 89 20 40 c3 e1 f2 1a c3 90 37 9e 42
       1.784481 -192.12709 -154.94875 79.10852
0000f0 b8 56 1d c3 8e 69 d1 42 39 ec ba c0 2d 83 33 c3
       -157.33875 104.70616 -5.841336 -179.5124

layers.5.running_var f4 [64]
000000 39 ae 51 46 91 28 66 46 d3 b7 98 46 f1 b6 b5 46
       13419.556 14730.142 19547.912 23259.47
000010 2e c4 94 46 b4 40 16 46 18 e3 1e 46 2a 9c a4 45
       19042.09 9616.176 10168.773 5267.5205
000020 37 d9 c2 45 00 40 32 46 36 36 a7 46 43 8d 85 46
       6235.152 11408.0 21403.105 17094.63
000030 4a 20 90 46 8d 16 0b 46 9b 11 01 46 32 db ce 46
       18448.145 8901.638 8260.401 26477.598
000040 ba 7f 1f 46 d0 e8 0b 46 6c 14 3a 46 36 3f b5 45
       10207.932 8954.203 11909.105 5799.9014
000050 cf 7d a8 45 c2 25 24 46 85 4f ed 46 c6 d1 d1 45
       5391.726 10505.439 30375.76 6714.2217
000060 96 6a dc 45 6e cf 86 45 c4 69 11 46 48 fe fb 45
       7053.323 4313.9287 9306.441 8063.785
000070 71 f6 03 46 6f f4 06 46 9f c5 14 46 a0 3d 81 45
       8445.61 8637.108 9521.405 4135.703
000080 e9 d8 e4 46 b5 7b c1 46 64 14 85 45 50 79 1a 46
       29292.455 24765.854 4258.549 9886.328
000090 31 7d 45 46 f4 e0 03 46 7a 5a e4 45 9f aa 08 46
       12639.298 8440.238 7307.3096 8746.655
0000a0 1c 4e 18 46 47 cc 6d 46 4a c5 9f 45 58 9e 09 47
       9747.527 15219.069 5112.661 35230.344
0000b0 25 fc a8 45 24 26 65 46 8b c8 c6 45 b4 83 1d 46
       5407.518 14665.535 6361.068 10080.926
0000c0 6f 51 2c 46 33 64 3f 46 5f 34 cb 45 d7 dc 1e 46
       11028.358 12249.05 6502.5464 10167.21
0000d0 ca da 47 46 43 05 1a 47 52 e5 e6 45 4b 1b d7 45
       12790.697 39429.26 7388.665 6883.4116
0000e0 88 88 04 46 3c 6d 31 47 50 f4 ef 45 2b b2 ce 45
       8482.133 45421.234 7678.539 6614.271
0000f0 ad cb 1a 46 1c 1b b6 46 bd bd e8 45 c7 cc 76 46
       9906.919 23309.555 7447.7173 15795.194

layers.8.weight f4 [64, 64]
000000 56 98 b3 40 8b 8a c0 3e ad 8e bc 3f 48 c4 96 3f
       5.6123457 0.376057 1.4731041 1.177865
000010 93 1f 8f 3f c9 e0 c3 3e bd 38 16 c0 76 91 1a 40
       1.1181511 0.38257435 -2.347213 2.4151282
000020 30 f6 c5 c0 8f 21 f7 3f fa 33 50 3e a5 ad 80 3f
       -6.186302 1.9307116 0.20332327 1.0052992
000030 f4 69 47 40 91 12 e7 3f 7c e0 9e bf f4 73 8d 3f
       3.1158419 1.8052541 -1.2412257 1.1051011
000040 e9 bf f2 3f fb 59 0f c0 8d 62 58 bf 5b a1 53 40
       1.8964816 -2.239867 -0.84525377 3.3067234
000050 eb a9 3c c0 83 4c b2 40 97 51 e0 3e 3c 89 17 40
       -2.947871 5.57184 0.43812248 2.3677511
000060 29 53 ee 3e a9 0c aa c0 91 3b 93 40 20 7b 95 3f
       0.4654782 -5.3140454 4.6010213 1.16782
000070 f5 a5 47 40 f8 f7 6f 40 cb 34 6d c0 f6 13 6c c0
       3.1195042 3.7495098 -3.7063472 -3.6887183
000080 75 e9 0f c0 f1 35 0c 40 b4 a9 1f c0 4a 93 0b 40
       -2.248624 2.1907923 -2.4947329 2.1808648
000090 e5 29 6c 40 9d 77 a2 c0 b2 4d 0f 3f 03 94 07 40
       3.690057 -5.077101 0.5597793 2.118409
0000a0 9a 0c d2 3e 01 df 6b bf 5a 15 c3 c0 52 5e 10 c0
       0.4102524 -0.9213715 -6.0963564 -2.2557569
0000b0 44 06 3b 40 97 7e 36 3e b7 c6 38 bf 5d e4 21 bc
       2.9222574 0.17821728 -0.72178215 -0.009881106
0000c0 4e e7 88 40 e7 ef 4b c0 ae bd 9a c0 37 e3 3f c0
       4.2782354 -3.1865175 -4.8356543 -2.998243
0000d0 e2 7e 44 c0 45 95 af bf fc 04 0e 40 72 4b 94 bf
       -3.0702443 -1.3717428 2.2190542 -1.1585524
0000e0 1c 44 29 c0 f3 b0 5e be f6 8b 22 40 c1 0b 82 40
       -2.644782 -0.21747188 2.5397925 4.063935
0000f0 89 8d 6e c0 76 2f 53 40 d5 f4 90 3f 2c e7 ad c0
       -3.7273886 3.2997718 1.1324717 -5.434469
000100 6a 3e 3c 40 50 f6 fd be 27 d6 a9 3f 69 c9 72 c0
       2.9413095 -0.49601984 1.3268479 -3.793543
000110 97 25 21 bf 94 2e 8e c0 62 87 61 bf 12 1f 89 3e
       -0.6294798 -4.443186 -0.880972 0.26781517
000120 a1 6a 6b 3f 3a 5c 86 3f aa 49 0b bf 2d 2d 57 40
       0.9195958 1.0496895 -0.5440928 3.3621323
000130 4c 7d a9 40 45 e4 b4 3f 4b 52 16 40 1f a4 ca be
       5.296545 1.4132162 2.3487728 -0.3957834
000140 cf 23 b8 40 54 ba 01 c0 ec 97 83 3f 87 6d a4 3e
       5.754371 -2.0269976 1.0280738 0.32114813
000150 2d cd d3 3e 48 ce 99 40 f7 6d 9e c0 bf 30 fe bc
       0.41367474 4.806431 -4.9509234 -0.031029103
000160 82 7c 74 3f cd ed 9f 3f e3 eb 7d bd df ca 6d 3f
       0.95502484 1.2494446 -0.061992537 0.9288768
000170 41 bd 14 3f 2b b2 2b 40 0e 67 3f 3f 80 6e c6 3c
       0.5810128 2.6827495 0.74766624 0.024222612
000180 b8 01 27 c0 f5 23 fa 3e 74 c1 8e bf ca 86 8f 3f
       -2.60948 0.48855558 -1.1152787 1.1213009
000190 9a 4f 3f 40 1c e0 4f 3f 5c 36 2d c0 e3 f7 c7 3f
       2.9892335 0.8120134 -2.7064428 1.5622524
0001a0 78 3d 8b 3f e5 4b 29 c0 70 ff 3b 40 93 32 d9 c0
       1.0878134 -2.6452572 2.9374657 -6.7874236
0001b0 59 de 9f bd 1e 20 34 c0 f3 a0 bb 3f f7 11 eb 3f
       -0.07806081 -2.8144603 1.4658493 1.8364857
0001c0 c1 41 85 3e 88 a5 8a 3f bc 3a 53 3f 3a b2 8c 40
       0.2602673 1.0831766 0.82511497 4.396756
0001d0 39 71 8c be 33 7c b1 c0 49 7f ce 3f e9 94 a2 bf
       -0.27430132 -5.546411 1.6132594 -1.2701694
0001e0 cd 0c c8 3d 75 fd 01 c1 15 79 6a be a4 f9 11 3f
       0.097680666 -8.124379 -0.22897752 0.57021546
0001f0 fa 88 4d 40 4b a8 2d be 10 e2 30 c0 38 ac 02 3f
       3.2114854 -0.1695873 -2.7637978 0.51044035
000200 a6 d9 ee be bf 19 51 3e 66 9b 63 bf a4 6d 9c 3e
       -0.46650428 0.20419978 -0.88908994 0.305524
000210 49 9f 2a 3e fb 05 07 3e 60 91 2d be 7a 5d 8f bf
       0.16662325 0.13185875 -0.16949987 -1.1200402
000220 37 12 66 3e b6 4c 6d 3e 25 13 aa be 58 d1 b4 bf
       0.22467886 0.23173794 -0.3321773 -1.4126387
000230 c8 e1 6a be 3d 8c 29 3d 33 1c ec be c5 c7 5d bf
       -0.22937691 0.041393507 -0.46115264 -0.8663295
000240 0d a6 97 3e aa 0f a1 3d 93 b7 6a bf 03 b1 02 3f
       0.29618874 0.07864316 -0.9168636 0.5105135
000250 0a a9 96 3e f9 4c c2 3e a3 46 9b 3e 58 bf 0a bf
       0.29425842 0.3794935 0.3032733 -0.5419822
000260 61 2b cc be 81 ef 8d 3f f3 af 73 3e d0 71 9d be
       -0.39876845 1.1088716 0.23797588 -0.30750895
000270 06 94 5f bf 24 3e 7a bf 03 94 78 3f 8e 22 17 3f
       -0.8733524 -0.9775107 0.9710085 0.590371
000280 3f 2c 93 3c 5a b5 48 bf 59 90 40 3f 87 b6 c1 bd
       0.017965434 -0.7840172 0.7522026 -0.094586425
000290 35 d5 04 3f c7 4c 0f be 5e 3c 24 3e 50 90 cf be
       0.5188783 -0.13994132 0.16038653 -0.4053979
0002a0 85 ed 41 bf b8 4e 26 3f cd 22 90 3d fe 7d ae bd
       -0.7575305 0.64963865 0.07037888 -0.08520125
0002b0 d4 8c 3a bf 7a fe 3f 3f 78 08 18 be c7 ab 22 be
       -0.72871137 0.74997675 -0.1484698 -0.1588584
0002c0 8d b1 18 be 6b dd 87 3e d1 a9 14 3e 93 4d c9 3d
       -0.1491148 0.26536116 0.14517905 0.09829249
0002d0 af 92 c8 be 4d 02 5b 3e 7d 5b 14 bf 23 8a 89 be
       -0.3917441 0.21387596 -0.579521 -0.26863202
0002e0 83 05 62 3e 57 74 b0 be 95 f1 2b bf d1 22 06 bf
       0.22072415 -0.3446376 -0.671655 -0.52396876
0002f0 62 ca 52 3f 43 a2 b7 bd 79 bf 26 bd 9b 4c 80 3e
       0.8234006 -0.08966496 -0.040709946 0.25058445
000300 72 5a a8 be ba e1 83 bf c1 6f 31 3f 7d e8 c3 bf
       -0.32881504 -1.0303261 0.6931115 -1.5305325
000310 28 7d d8 be 1b ea c6 be df b6 da be 14 cd 8a 3e
       -0.42282987 -0.38850483 -0.42717645 0.27109587
000320 c9 d3 0b bf e3 51 2a bf c5 77 5c bf 8c 90 e4 3e
       -0.54620034 -0.665312 -0.86120254 0.4464153
000330 2e 26 5d bf 36 18 c6 bd 42 43 60 bf 15 7b 94 3e
       -0.8638638 -0.096725866 -0.8760263 0.29000154
000340 ed 32 47 bf 52 9d 58 bf b5 2f c5 3e e3 d1 81 be
       -0.7781208 -0.8461505 0.3851296 -0.25355443
000350 c8 72 f8 be 77 bf cf be ef a4 8e bf d9 37 79 3c
       -0.4852507 -0.40575764 -1.1144084 0.015211069
000360 83 6c 0c be ab e1 43 3e 87 7c 3f bf 3a 21 ea 3d
       -0.13713269 0.19129054 -0.7479939 0.11432119
000370 6d ef cf 3e 55 5c e0 be d6 12 ee be 70 2d 05 be
       0.40612355 -0.43820444 -0.46498746 -0.13005614
000380 89 b1 1e bf 7f 53 5c 3f cb 47 43 bf dd 7a 71 bf
       -0.6198965 0.86064905 -0.7628142 -0.943281
000390 2f 7a 56 bf 25 1d 51 be 17 05 af bf a5 5b 80 bf
       -0.8378019 -0.20421274 -1.3673428 -1.0027968
0003a0 17 31 38 3f f2 6a 6c bf 9b 4c bb be c9 80 e7 be
       0.71949905 -0.92350686 -0.36581883 -0.45215443
0003b0 1f a1 2a bf aa ac b2 bf d7 7e 40 be 88 a3 97 3e
       -0.666521 -1.3958943 -0.18798386 0.29616952
0003c0 1d 13 44 bf 32 2e dd be 6f 3e f2 be 0e 8f 6f bf
       -0.76591665 -0.43199307 -0.47313258 -0.9357766
0003d0 e5 38 48 bf b7 f1 5d bf f9 18 e7 be ba 39 96 be
       -0.78211814 -0.8669695 -0.4513624 -0.29340917
0003e0 bc 29 a0 3e f5 c2 5b be f6 9c ce 3d 58 ab da 3d
       0.3128184 -0.21461089 0.10088532 0.106772125
0003f0 26 4b 14 bf 11 8b 24 bf 92 51 b8 bf 4b 12 ad be
       -0.5792717 -0.642747 -1.4399893 -0.3380302

layers.8.bias f4 [64]
000000 2e 1a 04 be 1b 52 f1 bd 82 8f 2d bc 26 a3 2e bc
       -0.12900612 -0.117832385 -0.010593297 -0.010659015
000010 76 0d 85 bd 66 b9 61 3d 93 cf ce 3c 69 63 8d bd
       -0.06496708 0.05510845 0.025245463 -0.069037266
000020 29 30 07 bc 89 98 c5 bc 7e 54 6a bd e8 59 fe bb
       -0.008251228 -0.024120586 -0.057209484 -0.0077621825
000030 3b 9b 69 3d ca fc 42 3d 12 fd 64 3c f2 7b ad 3b
       0.057032805 0.04760436 0.013976352 0.0052943164
000040 1e 7a 8b bd 11 bc d6 3c 3c 5b d8 3d 69 06 f2 3d
       -0.068104014 0.026212724 0.105642766 0.11817629
000050 56 70 46 bd 24 e9 11 3c d2 56 c9 bd dc d0 e0 bd
       -0.048446976 0.008905683 -0.09831013 -0.10977337
000060 7c 5d b3 3c 28 ee 86 3d e7 74 93 3d 2b 7d f1 3d
       0.021895163 0.065883934 0.07200032 0.11791452
000070 2f a5 98 3d b9 3a 34 3d 2d 85 b9 3d 4e a8 ad 3e
       0.07453381 0.044001315 0.090586044 0.3391747
000080 a4 b7 cc bd 5c 46 de 3d d5 44 86 bd 15 f9 04 bb
       -0.09995964 0.10853264 -0.065560974 -0.0020290066
000090 bf 78 3c 3d dc 7c f0 3d 02 7e e7 3d e6 04 15 bd
       0.04601359 0.11742565 0.11303331 -0.036381625
0000a0 8e 1a b9 bd d1 fb ae bc 20 bb cb 3d da 4c e0 bd
       -0.09038268 -0.02136031 0.09947801 -0.10952158
0000b0 2f 6b 8c 3b dd ee fe 3d b9 e9 05 b9 24 2d 87 bb
       0.004285238 0.12447903 -0.00012770937 -0.004125254
0000c0 5e fe e2 bc a5 c7 ef bd c5 3d a4 3d b6 4c ce 3c
       -0.027709182 -0.11708001 0.08019594 0.025183063
0000d0 ea db f9 bc 52 3d 6c bd 2e 96 d3 3d 97 0e 2f 3d
       -0.030500371 -0.057675667 0.10331379 0.042738523
0000e0 f2 4f a9 bc ca 19 da bd cb 7a 8c bc b0 3a c8 bd
       -0.020668004 -0.1064945 -0.017148396 -0.09776819
0000f0 3f 87 30 bd bd 42 c4 3d 4d 88 c0 3c e4 b0 19 3d
       -0.04309773 0.09583042 0.023502493 0.03752221

layers.9.weight f4 [64]
000000 f5 5a 99 bf 99 61 89 3e 9f f7 ac 3d e2 55 b9 bd
       -1.1980883 0.26832274 0.084456675 -0.09049584
000010 4b b1 3f 3e ff 8c b3 3d 88 bb e3 3c a7 57 f3 3d
       0.18719976 0.08767127 0.027799383 0.11881953
000020 98 ba 74 3e 50 33 e7 3d e8 ac 7a 3f 87 d0 2a 3e
       0.23899305 0.11289084 0.97920084 0.1668111
000030 1a c1 79 3e c0 05 e5 3d 9e 1e 1c bd 1c 25 6c 3e
       0.24390069 0.11182737 -0.038115136 0.23061031
000040 7a ac 6a 3c 19 28 d9 3d 2d 35 0d 3e d6 e9 6b 3d
       0.014323348 0.10603351 0.13789816 0.05759605
000050 85 4a 9c 3d 98 49 09 3e 2f de ab bc f7 87 89 3d
       0.07631401 0.1340698 -0.020979969 0.06715386
000060 39 a3 78 3e 00 e1 c1 3d ac 05 8e 3e e2 98 86 3f
       0.24281015 0.094667435 0.27738702 1.0515406
000070 07 2e ee bb 66 ef e2 3e b1 9a 32 3d df cf 58 3f
       -0.0072686705 0.44323272 0.043604556 0.84692186
000080 0a 04 ef 3d 62 d9 47 3e 6a e7 d9 bb c4 c1 75 3d
       0.11670692 0.19516519 -0.006649901 0.059999242
000090 a2 df 65 3f ac a4 30 3e da 60 ec 3e 85 28 96 3f
       0.8979436 0.17250317 0.46167642 1.1731116
0000a0 1a 5b a6 3d 60 ee ef 3e 91 55 14 3e 14 3a 3e be
       0.08122845 0.46861553 0.14485766 -0.18576843
0000b0 71 a6 db bd 01 ca 81 3e 8d 1b 7a 3d 6a 26 c5 3d
       -0.107251056 0.2534943 0.06106143 0.096264675
0000c0 46 99 e8 3e 48 ab a4 bd 2c e8 95 3b 11 8d b2 3d
       0.45429438 -0.08040482 0.004574796 0.087183125
0000d0 dc e9 ae 3d d6 c8 16 3f 5e 76 16 3e ff 72 fa 3d
       0.08540699 0.589002 0.14693591 0.12228965
0000e0 ac cb 00 3e bc 8f 16 3d 23 a8 94 3d 7c 08 98 3f
       0.12577695 0.03675817 0.07258632 1.1877589
0000f0 bd fc 83 3d 51 2a a9 3e 2a 11 24 3e c2 70 24 3e
       0.064446904 0.33040097 0.16022173 0.16058639
