model_results/Queensland/Transformer_PSO_Model/2025-09-03_12-22-30 - Transformed ($)/best_model.pth (torch, 574901 bytes, 27 tensors)

encoder.weight f4 [80, 11]
00000000: df1c 21be cb50 b93d bb3a 173d 4f91 843e
00000010: de90 323e 7e6a 60bd 267b b13e 8b9e 8c3e
00000020: 1d5d 1dbe 946c 92be 9418 303e 01a8 953e
00000030: 9ad5 5b3e 9a7c 2ebe cf1b f13d 9200 a8bd
00000040: a64d 9d3e 71b6 4e3e 713d 93be 9339 043e
00000050: b0f8 703e 7f8c 81bc 8b15 91bd 1cae b5bd
00000060: 1a0d 6cbe 2d84 203e fb41 68be fef9 93be
00000070: 986c a03d 5fd0 b7bd a912 dcbd 0335 8e3e
00000080: 40c0 8dbc d770 f93d 2acd 2a3e 72ed 523e
00000090: 5a86 193d a4aa 47be aaf9 adbe a472 71bd
000000a0: 2513 f8bc ee3f 0dbe a3c6 fcbd c891 4f3e
000000b0: 4c9a 213d 8a11 87bd baf5 2fbe 23b7 efbd
000000c0: f9d8 85bd 4b54 363e 06f9 1cbe 5f2c 56be
000000d0: a224 1b3e 3304 873d 93c4 4f3e dbb8 74be
000000e0: 8cdc 6cbe 3838 09be 119d 40be e0d0 85be
000000f0: 5d53 953b c8f6 23be e7ad b8bd 7beb 273b
00000100: 3f9a 90be 2aa6 d4bc 409c 0abe ec9b 9a3c
00000110: e788 6dbe 9516 963e a91a 06be 3c9b 133e
00000120: 4c52 adbd 652b af3d c728 3abe 92f0 1bbd
00000130: dd75 4fbe f708 253d c772 613d 5d8e e0bd
00000140: 0727 423d e016 e03d 5edb 44bd f5fb 80be
00000150: e05b 043e 99bf fbbd 5b64 6d3e 67c7 1cbe
00000160: ff3e 8b3e e79c 1f3e 6d40 91be a678 a13e
00000170: 58fa 17bb f44e 74bd 6879 8b3e 3ba9 303e
00000180: af74 503d efd4 40be 1db8 aabd b73e 793c
00000190: 29a9 9cbe 6468 933e cd73 073e 0667 6e3e
000001a0: 6010 13be fbef 96bb d540 92bc 1204 563e
000001b0: 9281 823e 7ebe 8cbe 81d8 2cbc 017a 2f3d
000001c0: 5629 fbbd a846 093e f4c8 163e 524e 2fbe
000001d0: 4609 ecbd 61a6 84bd acb8 1cbc c99a 7d3d
000001e0: 0c16 e8bd b073 863d e7d2 953e 1a45 9dbd
000001f0: 07d2 983d 81f7 8bbd 0bf0 b1bc eefd 9abe
00000200: eb5e 57be ddd2 5abd 954f a83d 02b2 71be
00000210: 02e0 963d 3dbd 87be 5a0e 803c 1ed4 54bd
00000220: 4247 763e 0ca7 44be 0c0a 7fbe ba46 e53d
00000230: 7589 a0bd 54ac 0b3e e9e2 123e ddf5 92be
00000240: 52a3 323e 0f3c 833d aa89 363d 7336 ac3d
00000250: 7756 05bc 40dc 8d3c 8798 293e 1dca 8abc
00000260: f8b3 3f3e 549a 863d 8e0f 5fbe 7761 43be
00000270: bc1f 5d3e ef8a c9bd a662 16be 4d36 99be
00000280: dad4 3bbe a66e a1be dece be3b 0bb4 7d3e
00000290: 9632 543e 404a 213e 47c3 e93d cb7e 75be
000002a0: ea8f 673e 69c4 38bd 350e 913c e18b 5b3d
000002b0: 559b 54be f938 8ebe 9fde 69be 8fb6 79be
000002c0: c5db 31bb 6f63 59be 5f5c d93c 469d 8fbd
000002d0: 6789 a9bc 1d7f 1d3e 41b3 28be 6116 a53e
000002e0: c0ad 2ebe ba5b a0bd ba9a 17be 800b 9e3d
000002f0: 9df5 993e b690 2bbd bf1e a3be 1a32 67be
00000300: 2ded 0f3c 87a3 09be 2bfe 1c3e 24d4 bcbd
00000310: 6ee2 89bd 2fee 643e 7eca 5dbe 5c31 6a3e
00000320: 1192 2dbe 510a 0f3e 10b5 17be 45f3 69bd
00000330: 2972 9b3e 4ae6 493e e667 9f3c 0160 87be
00000340: 1f1d 45be 0184 433c c1a8 533e 8815 b83d
00000350: c117 a03e c313 37be 1b65 86be c6b2 0a3d
00000360: 84a9 febd 0637 34be cb54 c63d 525f 703d
00000370: c680 06be 7a86 49be 6e7e 183e 3148 42be
00000380: 8367 8a3e d702 dabd 5d7e 1e3e 8386 083e
00000390: 04db 413e 4890 7b3e 19ba d8bd 776f 843e
000003a0: b34c 8ebe a308 e73d 3e4a 63bd f0dd 5a3e
000003b0: 9170 863e 6658 edbd 9ca0 fc3d da1d 1ebe
000003c0: 78f6 61be 4042 7cbe 81ee 4e3e 8891 323d
000003d0: d0ea 243e 537a 4abe 2aa6 853e e22c 82be
000003e0: 1ea5 923e 31fc f83d 400d 82bd ec13 493e
000003f0: a2fc a5bd 1c76 7bbe 82b3 4c3d 0ac2 a8bd
-0.1573367 0.09048613 0.036921244 0.25892112 0.17438075 -0.05478906 0.34664267 0.2746471
-0.15367551 -0.28598464 0.17196876 0.2922974 0.21468201 -0.17039719 0.11772882 -0.08203234
0.30723304 0.20186783 -0.28757814 0.12912588 0.23532367 -0.015814064 -0.07084187 -0.08871099
-0.23051873 0.15675421 -0.2268142 -0.28901666 0.078332126 -0.089752905 -0.10745747 0.2777482
-0.017303586 0.121797256 0.16679826 0.2059839 0.037481643 -0.19498688 -0.3397954 -0.05894722
-0.030282566 -0.13793918 -0.123425744 0.20270455 0.03945379 -0.06595142 -0.17183581 -0.117048524
-0.06535525 0.17805593 -0.1532937 -0.20915364 0.15150693 0.06592598 0.20289831 -0.23898642
-0.23131007 -0.13400352 -0.18809916 -0.2613592 0.004557057 -0.16012108 -0.09017544 0.0025622535
-0.2824268 -0.02595814 -0.13536167 0.018873177 -0.23196755 0.29314104 -0.13096108 0.14414686
-0.084629625 0.08553199 -0.18179618 -0.038071223 -0.20259805 0.040291753 0.0550411 -0.10964654
0.0474005 0.10941863 -0.048060767 -0.25192228 0.12925673 -0.12292404 0.23182814 -0.15310441
0.271965 0.15587197 -0.28369465 0.3153736 -0.0023189988 -0.059645608 0.27241063 0.17252056
0.05089253 -0.18831228 -0.08335898 0.015212706 -0.3059781 0.2879058 0.13227768 0.23281488
-0.14361715 -0.0046062446 -0.01785318 0.2089999 0.2548948 -0.27489084 -0.010549665 0.04284096
-0.122637436 0.1340586 0.14725095 -0.1711972 -0.11525206 -0.06477047 -0.009565514 0.061915193
-0.1133233 0.065650344 0.29262468 -0.07679196 0.074619345 -0.06834317 -0.021720907 -0.30271858
-0.21032302 -0.05342375 0.08218304 -0.23603061 0.07366945 -0.26511565 0.015631843 -0.051960103
0.2405062 -0.19204348 -0.24906176 0.11195131 -0.07838718 0.13639957 0.14344372 -0.28703204
0.17445114 0.0640794 0.04456488 0.08408823 -0.008138291 0.017316937 0.16562091 -0.016942078
0.18720996 0.065724045 -0.21783277 -0.19080149 0.21594137 -0.098409526 -0.14686069 -0.2992424
-0.18342915 -0.3152973 0.0058230003 0.24775712 0.20722422 0.1575098 0.11414199 -0.23974149
0.22613493 -0.045109186 0.01770697 0.053600196 -0.2076238 -0.27777842 -0.2283883 -0.24386047
-0.002713905 -0.21229337 0.026533304 -0.070124194 -0.020695401 0.15380521 -0.1647463 0.32243636
-0.17058468 -0.078299955 -0.14805117 0.07717037 0.300702 -0.041886054 -0.31859395 -0.22577706
0.008784574 -0.13441287 0.15331332 -0.0922015 -0.06732641 0.22356485 -0.21659276 0.22870392
-0.16950251 0.13968779 -0.14815164 -0.057116766 0.30360535 0.19716755 0.019458722 -0.26440433
-0.1924939 0.011933328 0.20669843 0.08988482 0.31268123 -0.17878632 -0.26249012 0.033861898
-0.12434676 -0.17599115 0.09684142 0.058684655 -0.1313506 -0.19680205 0.14891979 -0.18972851
0.27032098 -0.10645073 0.15477891 0.13332562 0.18931204 0.24566758 -0.1058237 0.2586629
-0.27792892 0.11280944 -0.055490725 0.21373725 0.26257756 -0.11589126 0.12335321 -0.15441075
-0.22066677 -0.24634647 0.2020817 0.04359582 0.16105199 -0.19773225 0.26103336 -0.25424868
0.286416 0.12157477 -0.063501835 0.19636506 -0.081048265 -0.24556774 0.04997588 -0.08240135

encoder.bias f4 [80]
00000000: 052c 883e 6e6c 42be 24bd 8e3d c0a9 8dbe
00000010: a694 17bd 240c bebd 2cc5 16be 072f af3d
00000020: c90b 7b3e 4702 173e 3b7f 283e b5de 68bd
00000030: ed4c 83bc 2cfb 353e ac7e dc3c 48d2 003e
00000040: 37d1 18be 4e5d 44bd 0275 82bd 32f9 96be
00000050: 3d9c 2abe fbae 1d3e 255a 9fbd f133 86be
00000060: 7bb8 703e 29cb 3b3d 1bcd 94be 1ce0 083c
00000070: 3a07 323e 23f8 11bd d587 293e a0f3 163e
00000080: 1237 20bd 6f3f 8ebe b973 13bd 2eb9 94be
00000090: 4b5a 253e d1e3 58be 14ba 943e 04da 8b3c
000000a0: 940a 3abe a4d8 533e 3fe3 c9bd 671a 443d
000000b0: 8c75 813d b1a9 e43d 611a eebd 7bb6 9bbc
000000c0: 8e58 81be 2579 e9bd 02b7 58bd 4fd9 6e3d
000000d0: 425a 123e 3fe5 263e 19b7 0f3e baf9 3c3e
000000e0: 3444 88be dcf8 a33d 9e55 2e3e 7188 cc3d
000000f0: be80 e2bd c879 e03d 6874 61be 88d7 79be
00000100: fb83 353e 9c96 0ebe 7b9a 68be 9bf1 b8bc
00000110: 0fa5 cfbd 61e5 40be 9ec5 373e 515a 233e
00000120: aa29 3dbe ab79 4b3e 31ad 233d 25f1 01be
00000130: f304 7f3e 6bc2 45be 669d 893d 3ccd 773e
0.26596084 -0.18986675 0.069696695 -0.2766857 -0.037006997 -0.092796594 -0.14723653 0.08553892
0.24516214 0.14746962 0.16454785 -0.056853015 -0.016027892 0.17771596 0.02691587 0.12580216
-0.14923559 -0.047940545 -0.06369974 -0.29486996 -0.16661163 0.15398781 -0.077808656 -0.26211503
0.23507874 0.045848045 -0.29062733 0.008354213 0.17385569 -0.035637032 0.16555722 0.14741373
-0.03911502 -0.2778277 -0.035999034 -0.2904753 0.16147725 -0.21180655 0.29048216 0.017071731
-0.18168098 0.2068811 -0.09857797 0.04787674 0.063212484 0.111651786 -0.11626125 -0.019007912
-0.25262874 -0.114000596 -0.052908905 0.05831271 0.14292243 0.16298388 0.1403469 0.18454638
-0.26614535 0.080064505 0.17024848 0.09986962 -0.11059712 0.10960728 -0.22017062 -0.24398625
0.17726128 -0.1392464 -0.2271518 -0.022576144 -0.10138904 -0.18837501 0.17946479 0.15952422
-0.18472925 0.19870631 0.03996009 -0.12689646 0.24904232 -0.19312446 0.067194745 0.24199384

transformer_encoder.layers.0.self_attn.in_proj_weight f4 [240, 80]
00000000: ba2d b4bd a1e1 cdbd 2cd3 ab3d bde7 71bd
00000010: abd9 c9bc d56f 8bbd 936d 433d 5fa0 fb3d
00000020: fab1 ea3d d878 84bd d66d 733c 65cc 07be
00000030: 872f 363d 4dfe d0bc e00c 97bc 200b c4bd
00000040: 5a13 e83d c4e6 9bbd a416 afbd 0ddf 2e3d
00000050: ea0a b6bc bf3c 7abd 70ff 28bd 43f2 6dbd
00000060: 79ba adbd 68ad f23d edde cc3d 78b4 bb3d
00000070: 7ec7 0f3d aa53 b7bc 0a61 de3d 0981 1ebc
00000080: 3d3d 7dbd ae8a 49bd 0b83 bebc a394 82bb
00000090: 53dc b1bc bf54 99bd 93c3 0a3e 50a6 db3c
000000a0: 9986 04be d12a d83c 00d6 3abd 2877 c43d
000000b0: 824d e3bd 5e38 a7bd 0a75 14bd 1c38 79bd
000000c0: 0cbb 263e 7d75 2b3c f462 113e e487 a03c
000000d0: 8695 b63d b04a 8dbd 1530 8d3d f92c da3c
000000e0: 0b9c de3d 3e14 86bd 24c0 f5bd 093f ecbd
000000f0: 7f41 aebd 8062 49bc a460 e53b 2072 de3d
00000100: 53a6 b43d 9287 d0bd 74f7 163d ee04 dab9
00000110: e8bf 093e 3679 d5bd db56 dc3c 4ba5 88bd
00000120: eed2 bebc bc90 c3bd f50b 73bb 98f1 ab3d
00000130: 8599 2b3d 71df bdbd 58da 863d 1037 9abd
00000140: c132 a7bd 066e 0f3d 8e3d a73d dd69 b93d
00000150: 8062 383d 65d1 5d3c b7e8 023d 9a1e a23d
00000160: a5d0 98bd 43e6 14bd b9a1 afbd e3c7 093d
00000170: e1b3 303d 6b08 46bd c783 283d 9b67 64bb
00000180: 9a21 7cbd 27c9 ecbd 0402 45bd 9536 e7bd
00000190: 01b1 983c 764c d3bd eccc a73d a21f 6d3d
000001a0: a84e a73d 6635 88bd 6e34 963d 47dc e8bd
000001b0: 4ed5 903c 9e40 8cbc 7faf 05be 2599 133e
000001c0: 3002 d2bb 2152 36bd d797 bebc 5f10 e83d
000001d0: 9d36 73bc a0a0 333d 6221 b1bd 64ec 1abe
000001e0: 4828 903c 886d 24bd 8daf 1c3e 0ebc 223c
000001f0: 0ed6 c5bd c68e 43bd 24ce 84bc 74d0 c43d
00000200: c775 313e 325e ee3d 9256 f23d ac46 ad3d
00000210: f93e 143e 32fd 4b3d 7924 be3d 5834 cdbd
00000220: 8b03 18bd a02c b9ba dc31 a23d a980 07be
00000230: 27af 01be 2d54 d43d 20d9 cebc 7cc4 fcbc
00000240: 3231 e43d 28b4 5e3c c683 703d eae4 92bd
00000250: b775 0fbe c614 e83d 9b5c 0a3e b3dd 7e3c
00000260: a0d9 993c 7e9f 173e 101a 773d e340 5d3c
00000270: 84f2 da3d dce2 563d 4d92 053e 1812 c1bd
00000280: cee8 4a3d b2ce 8d3d 6ad6 0f3e 7465 f33d
00000290: 1e67 f8bd 8ea6 9a3d 0298 a7bd 6e89 b53d
000002a0: d096 eebd 9d35 85bb a6c0 1bbe 3e77 e43d
000002b0: cb76 85bd c872 983b aa1e 72bc dc8f fcbd
000002c0: ce18 623d 856c a13d b063 fa3d bee6 31bc
000002d0: d035 0fbe 3d97 9c3c 2c65 a9bd ce77 b43d
000002e0: fad1 553d b1e3 14bd 4606 963c 6236 e9bc
000002f0: 8e8e ff3d 4dcf 033d 8d27 dbbb d727 853d
00000300: 2dff fc3d f0d1 60bd 87bd dcbd 4349 8d3c
00000310: 0a85 5cbd 08c2 f5bd 4835 2d3e 6386 fdbd
00000320: 1305 16be 8bc7 51bd 8052 713c 065d ec3c
00000330: e193 03bd e371 d93d 433c 9a3d 134d d83d
00000340: d15d 023e d6db 0bbd 2fb3 96bd 5827 87bb
00000350: 9acb 483c e9d5 84bd e01e e1bd d265 06be
00000360: e10d 123e d2cb b1bd 6a59 183e 9aba ebbd
00000370: e377 833d b21f ef3d 75e1 83bd d210 ee3c
00000380: 2055 af3d 7802 cb3d 865e cabd 872d 483c
00000390: 1355 f43d 94c2 d23d f0d8 06bd 38ef ea3c
000003a0: 7cbe 3c3d 83c5 eb3c 02f2 af3c 899d b8bd
000003b0: 2c3d 01be a522 b83d a66c 7cbd 7a69 05be
000003c0: 4483 493c cf27 0dbd 2026 e63d 2aff d43d
000003d0: f989 84bd f103 96bd 3cc5 14bd 78e2 b4bd
000003e0: 6adb 563d d6a6 633d 6ce8 6d3c 02ff 843c
000003f0: 75bc b33d c6e7 a73d 138d 863c e9c7 89bd
-0.08797784 -0.10052801 0.08389887 -0.059058893 -0.024639925 -0.0680844 0.04771192 0.12286448
0.114597276 -0.064683616 0.01485773 -0.13261564 0.04447892 -0.025511885 -0.018438756 -0.095724344
0.11331816 -0.076123744 -0.0854924 0.042693187 -0.022222001 -0.06109309 -0.04125923 -0.058092367
-0.084828325 0.11849481 0.10003457 0.09165281 0.03510236 -0.022378761 0.108583525 -0.009674319
-0.06182598 -0.04920452 -0.023255846 -0.003985004 -0.021711504 -0.07486867 0.13551168 0.026812702
-0.1294197 0.026387604 -0.045614243 0.0959304 -0.11098768 -0.08165048 -0.03624443 -0.060844526
0.1628229 0.010465023 0.14197904 0.019596048 0.08915238 -0.06899011 0.068939365 0.026632773
0.108696066 -0.0654683 -0.119995385 -0.115354605 -0.08508586 -0.012291551 0.007000046 0.10861611
0.08820786 -0.10182108 0.036857083 -0.00041583873 0.13452113 -0.1042351 0.026896885 -0.06672152
-0.023293938 -0.0954909 -0.0037085984 0.0839569 0.041894455 -0.09271134 0.065846145 -0.075300336
-0.081639774 0.035017036 0.081660375 0.09053395 0.045015812 0.013538693 0.031960215 0.07915993
-0.07461671 -0.036352407 -0.08575768 0.033637892 0.043140296 -0.04834787 0.041141298 -0.0034851793
-0.061555482 -0.11561804 -0.048097625 -0.112897076 0.01863909 -0.10317318 0.081933826 0.057891496
0.08169299 -0.0665081 0.07334219 -0.113701396 0.017679837 -0.017120656 -0.13055228 0.14413889
-0.006408952 -0.044511918 -0.023265762 0.113312475 -0.014844564 0.043854356 -0.086489454 -0.15129238
0.017597333 -0.04014352 0.15301342 0.009932531 -0.09659968 -0.04774358 -0.016211577 0.09610072
0.17330085 0.1163906 0.11832918 0.08460745 0.14477147 0.049802013 0.092843 -0.100197494
-0.037112754 -0.0014127679 0.07919666 -0.13232674 -0.12664472 0.10367618 -0.025250018 -0.03085541
0.11142196 0.013592757 0.05871942 -0.07172568 -0.14009748 0.11332087 0.13511889 0.015555787
0.01878053 0.14806935 0.06032759 0.01350424 0.106907874 0.052462444 0.1304409 -0.09427279
0.049538426 0.069241896 0.14046636 0.11884585 -0.12129043 0.07551299 -0.0818329 0.08864103
-0.11649859 -0.004065229 -0.15210208 0.11155556 -0.065167986 0.004652355 -0.014777819 -0.123321265
0.055199437 0.078820266 0.12226045 -0.010858236 -0.13985372 0.019115085 -0.0827125 0.088119134
0.052202202 -0.036349956 0.018313538 -0.028468315 0.12478362 0.03218012 -0.0066880644 0.065017395
0.123533584 -0.054887712 -0.10778337 0.017246848 -0.053837813 -0.11999899 0.16914856 -0.12379148
-0.14650373 -0.05121569 0.014729142 0.02885295 -0.03212345 0.10617425 0.07531025 0.10561576
0.127311 -0.0341452 -0.07358395 -0.004124563 0.012255574 -0.064861126 -0.10992217 -0.13124779
0.14263107 -0.08681454 0.14877859 -0.11510201 0.06419351 0.11675967 -0.06439487 0.029060755
0.08561158 0.0991258 -0.0988131 0.012217886 0.11930289 0.10291019 -0.03292173 0.028678522
0.046080098 0.028780704 0.021477703 -0.090144224 -0.12620991 0.08990983 -0.061627053 -0.13028517
0.012299363 -0.034461793 0.112377405 0.10400231 -0.06471629 -0.073249705 -0.03632091 -0.08832258
0.052455343 0.05557903 0.014520746 0.016234878 0.0877618 0.08198504 0.016424691 -0.06727583

transformer_encoder.layers.0.self_attn.in_proj_bias f4 [240]
00000000: 60cc 04bc 6d47 d53a 1c85 0bbd dda8 b23c
00000010: 9c17 49bc 8b84 dbbb 0a38 5abc 4bb2 babb
00000020: 6b12 fbbb 8742 e6ba defa 85bc 9ee0 633c
00000030: 9659 93bb 866e 78bb 039a 64bc 1b0d e03b
00000040: bcbb 51bc 3cc9 a23c 497e 19bc a4c5 68bb
00000050: 89c1 03bc 3acd 9c3b 94a7 f53a 50c1 0ebc
00000060: e92a 32b9 3195 89bc 9103 89bb b2e5 6b3b
00000070: d1fc 013c ec82 41bc d605 40bc 71e8 4a3c
00000080: ffbe 843b f3d9 743b 9423 bdbc e8be e5bb
00000090: 8668 87bb 5487 bdbb 2d69 70bc 2285 c4b9
000000a0: b6d0 f439 f3ad d33c fdde 9ebb 656b db3b
000000b0: 63f6 543c 42d4 c73b 4ef1 2c3c ebd7 d43b
000000c0: f80c 973b 599c 78bb 84a3 d23c 4588 6cbc
000000d0: 4966 d9bb 6bd7 23bc 8ec7 59bc 5538 0b3c
000000e0: 8e47 a4bc f413 8c3c 9c1a f5bb 313a e6bb
000000f0: 56ac 14bc f4f9 98bb df47 1fbc fb89 65bc
00000100: c4f0 0d3c 8461 49bc cb34 99ba 2196 99bb
00000110: a084 3aba 95ca ba3a c43a 4c3a 3fd7 a23b
00000120: f52a ccbc f719 933b ac8d 5fba 1e9e 93bb
00000130: 7322 9fbb f65b 883b 83cb f3bb ea8f d73c
00000140: ed51 243a 946f 3ebc 53e6 0abb d0eb 65bb
00000150: 5001 063c a34d 003c ae79 68bb b865 babc
00000160: ff65 853b a6ab 55bc 7ea2 ffbb bd86 92bc
00000170: e379 88bc a8c2 18bc 35d1 38bb 288a 98bc
00000180: 07c6 263a 83f4 813c cb97 6d3c 584f b23c
00000190: 6fa2 373c 1a48 0dbc 44b2 ea3c 2f72 5bbc
000001a0: 1783 40bc b41f a93c 156c b0bb d53a 38bd
000001b0: 5d40 9d3c 85b2 ac3a 9e73 eb3b 827e 27bb
000001c0: 6d87 563c f9f1 76bb d34f 4a3c 629f 693c
000001d0: f27d 7e3b ee69 833b f694 bd38 8f60 67bc
000001e0: 7379 fdbc 8cad b03b f1c8 503c 64f2 1a3c
000001f0: 3e58 d9b8 61ee 95bc fe29 e5bc 349e f1bc
00000200: 0d87 313b b747 a8bc 724d 0d3c 9297 4dbc
00000210: d92f cb3b 7a97 40bc e81f 8fbc fef3 35bc
00000220: c5fa 30bc 4dff 60bc 2655 463c dcf9 813c
00000230: 2795 4ebb d40b d9ba 16e9 d63b 8fe8 e3bb
00000240: d559 9e3c 0534 51bc 2adf 253c 264e a3bb
00000250: ffc3 f6ba f0e8 83bb b1e9 723c 55f8 a33c
00000260: 0daa a8bc 4a85 983c 65fc 6bbc 3874 94bc
00000270: 7579 25bc 52d3 043d 937d 94bb 912c 433c
00000280: 52d2 2c3b 745b bc3c 0ee3 2fbc 2465 7d3c
00000290: 1598 cc3b 5584 073c 65a2 04ba b5a7 483c
000002a0: f87c a5bb 287f 6cbb 7e79 1abc ecaf d9bb
000002b0: 2b83 bcbb 6a53 9f3b 3fd0 3d3b 7adf 69bb
000002c0: 26ef dd3c 9b5a c63b 01ac 3cbc fd13 17bc
000002d0: ff19 f3bc 298a fdbc ade7 4bbc f4e0 103c
000002e0: 555c a839 67d6 afba 54c2 73bc 4347 963b
000002f0: 6a5c f73c fecd 9abc ec15 bbbb 9812 82bc
00000300: 5c26 8bbc a414 24bc 89fb 07bd b922 6abc
00000310: 1aa1 6f3a 5f42 b8bc df45 73bc 56b7 993c
00000320: 2018 2a3c b624 b7bb e6e4 22bc 09a0 523c
00000330: 5b3f 68bc d3b0 d2ba 7619 cdba 3994 a4bb
00000340: a115 bd3c 70ef 95bc ed7b b23c ca7e 9cbc
00000350: 13cc fe3c da9a 46bc f734 bc3b 518b 493c
00000360: 46cf 9dbb 88d1 28bc 26e2 cc3b ac4e cf3b
00000370: 74ee 043c 1afd 6a3c 429b bc3c 1345 8dba
00000380: 6b20 fdbb b3d7 b5bc 2f51 163c 0203 3fbb
00000390: 6774 c03c 47ec 07bd 9952 8e3c 53f5 673c
000003a0: 3311 58bc 5018 423c d918 dfba f997 80bb
000003b0: 985c 82bc 63fb cbbb 9445 a1b9 59b5 b83b
-0.008105367 0.0016271897 -0.03406249 0.021809036 -0.012273695 -0.00669915 -0.013319025 -0.0056975237
-0.0076621077 -0.0017567434 -0.016354974 0.013908533 -0.0044967635 -0.0037907674 -0.013952735 0.0068375
-0.012801107 0.019871347 -0.009368488 -0.0035518194 -0.008041748 0.004785207 0.0018741959 -0.0087130815
-0.00016991388 -0.016794773 -0.0041813334 0.0035995063 0.007933811 -0.011810999 -0.011720141 0.01238452
0.004051089 0.0037361353 -0.023088254 -0.007011283 -0.004132333 -0.0057839546 -0.014673513 -0.00037483225
0.00046694808 0.025839781 -0.0048483596 0.006696152 0.012998196 0.006098301 0.010555578 0.006495466
0.0046097003 -0.0037934987 0.025712736 -0.014436786 -0.006634508 -0.01000009 -0.013292206 0.008497317
-0.020053651 0.017099358 -0.0074799787 -0.00702598 -0.009074291 -0.0046684686 -0.009721725 -0.014009948
0.00866336 -0.012291316 -0.0011688707 -0.004687086 -0.00071150996 0.0014251048 0.0007790739 0.004969507
-0.024922827 0.0044891792 -0.00085278857 -0.004504933 -0.0048564016 0.004161353 -0.007440032 0.02631374
0.00062683114 -0.011623282 -0.0021194413 -0.0035083182 0.008179024 0.00783101 -0.0035472917 -0.022753581
0.004070997 -0.013041412 -0.007801353 -0.017886514 -0.016659683 -0.009323753 -0.002820087 -0.018620566
0.0006361906 0.015863663 0.014501522 0.02176635 0.011208161 -0.008623147 0.028649457 -0.013393923
-0.011750004 0.020645 -0.005383978 -0.04497798 0.01919573 0.0013175762 0.0071854135 -0.0025557582
0.013093811 -0.0037680848 0.012348133 0.014259191 0.0038832393 0.0040104305 9.0399684e-05 -0.014122142
-0.0309417 0.005391782 0.012743221 0.0094572045 -0.00010363803 -0.018302144 -0.027974125 -0.029494382
0.0027088553 -0.020542009 0.008624421 -0.012548344 0.0062007722 -0.011754865 -0.017471269 -0.011105536
-0.010801976 -0.013732743 0.012105262 0.015866213 -0.0031522007 -0.0016559311 0.0065585477 -0.0069552134
0.019329945 -0.01276875 0.010124007 -0.0049836813 -0.0018826722 -0.004025571 0.014826224 0.020015875
-0.020588899 0.018618245 -0.014403437 -0.018121824 -0.010099758 0.032428093 -0.004531571 0.011912481
0.0026370478 0.022992827 -0.010735286 0.015466008 0.0062437155 0.0082712965 -0.0005059599 0.012247016
-0.005050298 -0.0036086533 -0.00942838 -0.006643286 -0.005752941 0.0048622387 0.0028963236 -0.003568618
0.027091574 0.0060532815 -0.011515618 -0.009221074 -0.029675482 -0.030949669 -0.0124453725 0.0088426955
0.0003211225 -0.0013415337 -0.014877874 0.004586132 0.030195434 -0.018897053 -0.0057094004 -0.015878007
-0.016986065 -0.010014687 -0.033198867 -0.014290505 0.00091411325 -0.022492586 -0.014848202 0.01876418
0.010381728 -0.005589093 -0.009942269 0.012855538 -0.014175261 -0.0016074426 -0.0015647847 -0.0050225523
0.023081603 -0.01830265 0.021787608 -0.019103426 0.03110317 -0.01212188 0.0057436186 0.012301282
-0.0048159687 -0.010303862 0.006252545 0.006326517 0.008113492 0.014342571 0.023023251 -0.0010778032
-0.007724812 -0.02219758 0.009174629 -0.002914608 0.023493005 -0.033184316 0.01737337 0.014157611
-0.013187694 0.011846617 -0.0017020955 -0.0039243666 -0.015913293 -0.006225036 -0.00030760153 0.0056368527

transformer_encoder.layers.0.self_attn.out_proj.weight f4 [80, 80]
00000000: 998c 913d 8f99 a63d 15e5 753d 474a 0d3c
00000010: ea8d e0bc cf6f 013d f58f 65bd 5fec 243d
00000020: 092f 753d af25 d73d 56ce f8bd 6a8d 1d3e
00000030: 7c22 2c3e f8e6 21bc c8c3 c73d b1bc f53c
00000040: 3150 9ebd 84ac fdbd 4514 023e aee2 943c
00000050: 932a a33d 62db 29bd d37e cebc e4c5 683c
00000060: d778 62bd 4bcd 7f3d 8053 b23d cff5 d0bd
00000070: d5a7 783d 7ba0 a63c 695b 42bd 41cb 973d
00000080: 39c8 62bd abfd ef3c 186b a7bd a193 6e3b
00000090: f58f c2bc fa85 3a3c 7a0d f13a 5e63 35bd
000000a0: 0e00 873d be2e 91ba 62e8 d53c 72e2 ff3c
000000b0: 0187 35bb 21f6 88bd 2edc 82bd 7a40 c2bd
000000c0: f675 1f3e 6bfc 9dbd 57d6 96bd c145 ce3d
000000d0: 4395 f6bb 1ce4 b43c d3fa 46bd 36db 78bd
000000e0: ec90 ee3b 2853 81bc 740b be3c 4290 02be
000000f0: 01ee ee3b 2587 dc3c a7ed 8b3c 9b29 18bd
00000100: 132a ef3d af3f a9bd d6e9 bd3d 74b7 db3d
00000110: 0ce6 433d 3cf6 98bd 8380 b5bc 69c9 343d
00000120: 34a5 ae3d 7055 66bd ba6f 3dbd b42e cdbd
00000130: 6908 f6bd 1bc6 26bd 3062 133d 4fbc ac3c
00000140: a6a2 0b3d 5add c83d 1233 d03d 6d6d cd3b
00000150: ace4 36bd 330f 61bc 73d3 d83d 8a20 c7bc
00000160: 7a13 1bbe 35c8 9d3d 236b 3dbd 5412 d83d
00000170: f1c5 6bbd e453 e73d 9b2a ccbc ac27 423d
00000180: 8625 973c 7e81 eb3c f502 fabd 2c24 0bbd
00000190: c7b9 b83c 8919 dabd fd81 d33d d4cf a73c
000001a0: a0c4 31bd beaa 02be 9235 4b3d cc5c 5dbb
000001b0: b662 5a3a bbfd 913d aee9 02bb 3656 42bc
000001c0: 0ac1 a3bd b2d0 873b 5041 7d3a 0b15 8c3d
000001d0: 2fdd 2c3c 02e6 713c 6a55 14bc 4ca1 84bd
000001e0: 695d efbc e7c3 0cbd cb76 a0bc 296f cc3b
000001f0: 56b7 d03c 4210 b4bd ba29 d3bd 80a3 fdbc
00000200: ad60 d43d e113 e13c 7053 a83d b70c 53bd
00000210: 1392 bc3c 3bfe 3d3c 4177 12bb 4b64 eabd
00000220: 6894 333d 4b90 c0bd f494 3e3d 5f30 8b3d
00000230: 9f51 d0bd 88e0 1fbd 65e3 853d 1ee8 0b3c
00000240: bd82 76bd 6f09 b33d 6f11 e6bc bc38 ed3d
00000250: 4a9c 07bc d3a9 e6bd 43fc 8b3c bd50 cabd
00000260: 59ed 923d dfbc 333d c796 09bd c190 863c
00000270: ba35 46bd f22a 323c 0563 913d f7a7 1fbc
00000280: 449a 18bd 205b ac3b 0efe e73d 635c 1dbd
00000290: ecda 443c 67e6 e6bd 5e94 f03d 6878 863c
000002a0: 7727 aa3d 601a 843c f7d7 e63d fa5c efbd
000002b0: 25cb 4dbd 5b06 473d ce37 ce3d 9187 0cba
000002c0: 4e71 4dbd 6ccb 9bbd f553 81bd ea1a 97bd
000002d0: 2ef1 89bd b918 a33d ff0f eabc 383c 483d
000002e0: c412 233d e562 17bc 4d84 33bd 8a70 b8bd
000002f0: 71ec c73d a513 82bc 6773 5fbd 1518 dd3d
00000300: 7cf4 f23d ce18 08be 7c5f 513d 6757 83bd
00000310: 6edf 473c 090b 06bd 5e13 69bb 5595 71bd
00000320: 87d9 803d ec4e dfbc f678 893d 277e 94bd
00000330: 02d1 663d e172 32bb 8fa1 6d3d 775b 083d
00000340: 5d40 10be 9289 153d 67ce 3b3d 5017 ecbd
00000350: a8db 043d ee08 acbd b630 d53d 60e6 963b
00000360: b771 99bd f317 2abd 5ae2 fa3d 65d8 fcbb
00000370: 1b56 cebc cc83 aebc f61e 353d fe86 46bd
00000380: 4ca0 f1bd 12b9 b5bd f0d1 d63d c584 32bd
00000390: 5661 c5bd 5610 123d 3963 9b3d f853 6e3d
000003a0: 14b7 cd3d b724 ae3d 8ce4 cc3c d73e cd3d
000003b0: 66c7 a8bd 27dc c23d 6a8e b5bd 01c4 c4bd
000003c0: 31a7 1d3d 9c69 2dbd 83e4 043e afc8 bdbb
000003d0: b8a9 173d 757e 06be dbc8 2cbd bc1b 633c
000003e0: 5b44 043e cc9f c0bd 5cc8 5dbd 6f21 033e
000003f0: 7955 b5bd 1483 88bd 0d84 533e 785a 9fbd
0.07106895 0.08134758 0.060032923 0.008623666 -0.02741142 0.03160077 -0.05604549 0.040264484
0.05985931 0.105052345 -0.121487305 0.15385976 0.1681003 -0.009881727 0.09754139 0.029997202
-0.07730139 -0.1238642 0.12703045 0.018174496 0.07967105 -0.041468985 -0.025206959 0.014207337
-0.055291023 0.062451642 0.087073326 -0.10203134 0.060706932 0.020340195 -0.047450457 0.074118145
-0.05536673 0.029295763 -0.081747234 0.0036403912 -0.023750285 0.011384482 0.0018390857 -0.044284217
0.06591807 -0.0011076552 0.026111785 0.031235907 -0.0027698877 -0.0668757 -0.06389652 -0.09484954
0.15572342 -0.077141605 -0.07365101 0.10071898 -0.0075251176 0.022081427 -0.04857905 -0.06075593
0.0072804596 -0.015786722 0.02319882 -0.12750342 0.007291556 0.02691991 0.017081095 -0.037149053
0.11677947 -0.082641 0.09273116 0.1072835 0.04782681 -0.074688405 -0.022156006 0.044137392
0.08527604 -0.056233823 -0.04624913 -0.100186735 -0.12013323 -0.04071627 0.03598231 0.021085886
0.03409066 0.098078445 0.10165991 0.006269148 -0.044651672 -0.013736534 0.10587206 -0.024307508
-0.15144148 0.07704202 -0.04624475 0.10550371 -0.05756182 0.11295298 -0.02492266 0.047401115
0.01845051 0.02874827 -0.12207595 -0.033970043 0.022549523 -0.10649402 0.10327528 0.020484842
-0.043400407 -0.12760445 0.049611636 -0.0033777235 0.0008330749 0.07128473 -0.001997571 -0.011861375
-0.07995804 0.0041447515 0.00096609164 0.06839951 0.010550781 0.014764311 -0.009053567 -0.064760774
-0.029219346 -0.034366515 -0.019587895 0.0062388373 0.025478046 -0.087921634 -0.10310693 -0.030961752
0.10370002 0.0274753 0.082190394 -0.051525798 0.023018872 0.011596258 -0.0022348913 -0.114449106
0.043842703 -0.09402522 0.04652877 0.067963354 -0.10171818 -0.03903249 0.06537513 0.008539228
-0.060183275 0.08742034 -0.028084485 0.11583087 -0.008277008 -0.1126286 0.017088061 -0.09878681
0.07174177 0.043881293 -0.033591058 0.016426446 -0.04839108 0.010874497 0.070989646 -0.009744636
-0.037256494 0.0052598864 0.11327754 -0.038418185 0.012015086 -0.112744145 0.11747049 0.016414836
0.083083086 0.016125858 0.11271661 -0.11687656 -0.05024256 0.048590045 0.10069238 -0.0005360777
-0.050156884 -0.07607159 -0.06314842 -0.0737818 -0.067354545 0.079637 -0.02857208 0.048885554
0.03981282 -0.009239887 -0.043827344 -0.0900584 0.097618945 -0.015878508 -0.054553416 0.10795609
0.11863038 -0.13290712 0.05111645 -0.06413155 0.012199266 -0.032725368 -0.0035564522 -0.058980305
0.0629149 -0.027259313 0.067125246 -0.07250624 0.05635167 -0.0027229118 0.058015402 0.033290353
-0.14087053 0.03650815 0.045851137 -0.11527884 0.032436043 -0.08400141 0.104096815 0.0046050996
-0.074923925 -0.041526746 0.122502044 -0.007716226 -0.025187543 -0.02130308 0.04421898 -0.048468582
-0.11798152 -0.0887319 0.10489261 -0.04358365 -0.09637706 0.03566011 0.075872846 0.058185548
0.10044685 0.085030966 0.025011323 0.100217514 -0.08241157 0.09514647 -0.08865054 -0.09607697
0.038489524 -0.042337045 0.12977795 -0.0057917456 0.03702709 -0.13134177 -0.04218374 0.013861593
0.129167 -0.09405479 -0.054146156 0.12805723 -0.08854193 -0.06665626 0.20655842 -0.077809274

transformer_encoder.layers.0.self_attn.out_proj.bias f4 [80]
00000000: 462e ab3c 97f4 81bc 3723 9c3c 645b a7bc
00000010: 6d48 2f3c d2f7 7c3b 6dd9 0b3c 6888 913c
00000020: 75d2 e03b 2c15 b6bb efee 8abb 8c58 823c
00000030: 8d2f e2bb a87c 95bc 55a6 2bbc c88e 4a3c
00000040: 7dfa 93bc bc67 3e3c badd ca3c b84f 17bc
00000050: ddd5 5a3b fab1 cdbb 0c22 b5bb ef8e bd3b
00000060: 7b48 94bc 9d81 9f3c 35b0 063a c41b 0e3b
00000070: 35e1 97ba e43c 8f3c d82c 19bb 903b a13b
00000080: 5c92 45bc a124 8f3c 6917 2c3c dd99 963c
00000090: acae 583a 3575 75bc f0f8 e739 1ef6 94bc
000000a0: a2e2 dc3b bc24 8a3c 836b a63b 5202 b53b
000000b0: 1871 2bbb 99c6 75bc 0e63 aa3b 31c4 cdb4
000000c0: f0ca b9ba b4b8 4f3b 3558 89b9 6a9a 743c
000000d0: b909 71bb cac0 303c 45be a8ba b089 263c
000000e0: 812c 063d bd88 613a 70f0 5b3c b7b5 cebc
000000f0: ed79 8fb9 48cc 55bc 2167 4cbb f868 5a3c
00000100: b11b 113c 2f11 11bc bb42 48bc ef18 c83a
00000110: 1d5c 1d3b e595 0c3b 4a49 16bc 1e66 54bc
00000120: d203 ed3c 2348 723b 658d 3a3c 679b 9ebb
00000130: b9d6 feba 6e28 e1bc bd8a aabc eabf 23bb
0.020896088 -0.0158637 0.01905976 -0.02042932 0.01069842 0.003859986 0.008535725 0.017765239
0.006861026 -0.005556723 -0.004239909 0.015911363 -0.006902641 -0.018247917 -0.010476668 0.012363143
-0.018063778 0.011621412 0.02476393 -0.009235315 0.0033391633 -0.00627732 -0.0055277403 0.0057848613
-0.018100968 0.019470984 0.0005137951 0.002168403 -0.0011587503 0.01748509 -0.0023372676 0.0049204305
-0.012058821 0.01747352 0.010503628 0.018383915 0.0008265774 -0.014981558 0.00044245226 -0.018183764
0.006740884 0.01686322 0.0050787344 0.0055239582 -0.0026159938 -0.015000963 0.0051997965 -3.8326974e-07
-0.001417486 0.0031695785 -0.00026196396 0.014929393 -0.0036779477 0.010788152 -0.0012874088 0.010164663
0.032757286 0.00086034444 0.013424024 -0.025233133 -0.00027365927 -0.013049193 -0.00311894 0.013330691
0.0088567 -0.008854195 -0.012222941 0.001526622 0.0024011203 0.0021451649 -0.009172747 -0.0129638
0.028932486 0.0036969266 0.01138625 -0.0048403027 -0.0019442654 -0.027485099 -0.020818109 -0.0024986216

transformer_encoder.layers.0.linear1.weight f4 [271, 80]
00000000: ba26 c6bc 32f2 f8bd 202b 44bd cf62 8ebd
00000010: 9e53 8abd f5d3 933d 346a ef3d 881d 17be
00000020: bbf2 813d f595 933d f883 a6bd 5be4 40bd
00000030: 24d6 b9bd 2070 a9bd ef2b bc3d a278 673d
00000040: b844 7c3d 7d4a a13d da14 65bd 7ac4 a83d
00000050: 6904 fdbd e38a 273d 8e27 19bd 3216 723d
00000060: 522d 24bc 89d4 85bc 0957 723d 5415 e03d
00000070: 3c19 6abd 8b9e ae3c 1f09 83bd b318 a93d
00000080: 217c 16bd d05b d53c 8035 b83d 44a8 cc3c
00000090: c26b 9abd e04f cabd 2ea7 c33d 1afb 59bd
000000a0: 278c e6bd 4128 193d a10d 643a fe25 e0bd
000000b0: 011b 67bd ea74 b6ba aec8 a8bd 8787 5a3c
000000c0: 3de6 a03d 39f1 edbd feea 333d 98c5 5b3d
000000d0: caf2 23bd f367 b8bd d373 fe3c 9ddb 3ebd
000000e0: 72b3 70bc 4e20 843c eedc 9c3c 130e 093d
000000f0: 9d62 6e3c 7460 a3bd 0617 b6bc f99b 04bd
00000100: 374e c23c 7906 30bd e1f5 24bb 6c74 d33d
00000110: a668 cf3d c446 673d 20f1 ba3d 0c94 cc3c
00000120: b47a 253d ebdb ebbd 3a1c 8ebd c26f 003d
00000130: d4ef 803b adfa b1bb 6075 1a3d 53c7 a43d
00000140: 2da7 9abd 0aab abbc 276a 20bd b67d fbbc
00000150: 0760 a2bd 1f47 263b b701 943c 81a5 efbc
00000160: 91c9 84bd 2bd7 9c3d 50a0 50bd 2216 313d
00000170: 6c69 eabd e69b 993b a056 fcbd 0702 f03d
00000180: 0106 253d 00ba 253d 639f 993d 2bd0 803d
00000190: 4338 bcbd ca90 c33c 876f aa3d cc17 9cbd
000001a0: 8ba3 233e 6806 9cbd ea69 fabd ce7e 7ebd
000001b0: 15a5 01be 2bb9 903d 421d fcbc 768f 523d
000001c0: af80 533b 35c6 1cbd 588b 083c efe0 0b3c
000001d0: 57df 8a3d 92f2 f5bc 4e9c 543d 8340 a63d
000001e0: cd3e 223e 8fe0 00be bf3b a53d b9c9 57bd
000001f0: 2ce2 a4bc 3f45 ce3d 7985 b33d 6955 d8bc
00000200: 590f 24bd 218e f73c a2d5 e9bc 8b4b 3c3d
00000210: 12a9 a8bd dfc7 49bd 1ab2 1a3c 7669 d73c
00000220: 57fc 4abc 7856 2e3d d1ee c6bd 9b49 0abd
00000230: f7f8 223c bc93 7dbd bb04 f2bd 2bd7 583d
00000240: e5d3 b63d 2c8b efbd ba0c 253d 8ff2 8a3c
00000250: 1e17 d0bd 2fdb 62bc 822f 0a3e 72d0 f03b
00000260: f882 68bd eed5 cd3c 8bb5 f5bb 65c9 ec3c
00000270: b105 dabd bab4 023e a216 6b3d f8fe da3b
00000280: 7f9a acbd 6d8c 893d 8cd7 d1bd 3bcc 8bbb
00000290: 8f3f e5bd 31f2 723d 963e 4cbd f14b 523c
000002a0: 1433 cebc 36af d9bd 0deb cfbb 3bf9 ae3b
000002b0: fde6 f7bc a57a 3abd 0aaa b5bc 5c30 bc3d
000002c0: 8ee0 8cbd e679 e03d aeeb 2a3c 16ed 983d
000002d0: 84cc 04be 94e0 d33c 61f0 ba3d 1cb9 883d
000002e0: b619 de3d 2cf1 b9bd 67a7 a33c a276 ed3d
000002f0: 5cc6 6fbd 8ed5 8e3d 11f5 b13c edd5 bbbd
00000300: 6a33 cd3d 65e5 88bd d363 afbd e849 c13c
00000310: e950 b6bd 46d4 933d c97f 9fbd b03a 933d
00000320: 3397 3dbd 305d e43d 67ff 183b f4ab 3bbd
00000330: 164b d43c 94b0 183d 1463 6fbd 7bb2 d23c
00000340: b41b b63d 9483 7d3c 1a85 b5bd 5fe4 bd3d
00000350: bc53 d03d 8b8c 02be eb2e 903d d0fa 9e3d
00000360: 1c4e ff3d 3edf 2b3d 2f0b 0c3d 2b29 173d
00000370: 9dc4 2dbb c6d1 703d 2d62 86bc 17c4 5fbd
00000380: 6fe1 9f3d 050c 7ebd 614a 6f3d f889 103c
00000390: 39e3 3abc f282 0f3d ca2f f33c 7920 bdbd
000003a0: 9b64 2f3d 84f4 843d 94bd 043e e53b 6cbc
000003b0: 2235 9b3d 377f 99bd 76f5 05be dcf3 003d
000003c0: a0ff 6cbc 2cbe 333d 81d6 f23a b0f9 82bd
000003d0: 28e1 d13d f7e2 32bd 0a0d 003e 1c44 3dbc
000003e0: eb88 94bd 3af1 b7bd 7ef5 833d 44ee 203d
000003f0: 97c1 0a3d fad0 bdbd e8e8 bcbd 1c2d cfbd
-0.024188388 -0.1215557 -0.04789269 -0.0695244 -0.0675423 0.07218162 0.116901785 -0.14757359
0.06345125 0.072063364 -0.0813064 -0.047092777 -0.09074047 -0.08273339 0.09188067 0.05651153
0.061588973 0.07875536 -0.05592809 0.082406 -0.12354357 0.040903937 -0.037391238 0.0591032
-0.010020571 -0.016336696 0.059165034 0.10941568 -0.05715297 0.021315834 -0.06398224 0.08256664
-0.036739472 0.026044756 0.08994579 0.024982579 -0.075400844 -0.09878516 0.09553371 -0.053217985
-0.11257201 0.037391905 0.00086995406 -0.109447464 -0.056422237 -0.0013920341 -0.082414016 0.013337976
0.078564145 -0.11618275 0.043925278 0.053655237 -0.040026464 -0.09004202 0.031061089 -0.04659616
-0.014691221 0.016128685 0.019148316 0.033460688 0.014549878 -0.07977381 -0.022227775 -0.03237531
0.023718936 -0.042974923 -0.002517097 0.1032494 0.10127382 0.05646397 0.09128022 0.024972938
0.040400222 -0.115165554 -0.069389775 0.03135658 0.0039348397 -0.005431494 0.037709594 0.080458306
-0.075514175 -0.020955581 -0.039163735 -0.030699592 -0.07928472 0.0025371981 0.018067224 -0.029253723
-0.06483758 0.076582275 -0.050934136 0.043233998 -0.11445889 0.004687774 -0.1232121 0.11719137
0.04028893 0.040460587 0.07501104 0.06289705 -0.091904186 0.023872752 0.083220534 -0.076217264
0.15980355 -0.076184094 -0.12227233 -0.06213265 -0.1266063 0.07066568 -0.03077567 0.051406346
0.0032272746 -0.038274962 0.008334003 0.008537515 0.0678088 -0.030022893 0.051906876 0.081177734
0.15844269 -0.12585662 0.08068036 -0.052682612 -0.020127378 0.100718014 0.08765692 -0.026407914
-0.0400537 0.03021914 -0.02854425 0.04597048 -0.082353726 -0.049262878 0.009441877 0.026295405
-0.012389264 0.04256293 -0.09713519 -0.033761602 0.009947053 -0.06190847 -0.118173085 0.052939575
0.089271344 -0.11696467 0.04029534 0.016961364 -0.10160659 -0.013846203 0.13494685 0.0073490674
-0.056765527 0.025126424 -0.0074984482 0.028904626 -0.10645617 0.12764254 0.05739463 0.0066832267
-0.08427905 0.06716237 -0.102461904 -0.0042662895 -0.111937635 0.059313003 -0.049864374 0.012835489
-0.02517084 -0.10629122 -0.006345159 0.005339769 -0.030261511 -0.04552712 -0.022175808 0.09188911
-0.06878768 0.1096075 0.010432167 0.074670956 -0.12968642 0.025863923 0.0912788 0.06675932
0.10844748 -0.09079203 0.019977285 0.11594893 -0.05853878 0.06974326 0.021723302 -0.091716625
0.10019572 -0.066843785 -0.08563962 0.023594812 -0.08902151 0.07218222 -0.07788045 0.07188928
-0.046286773 0.111505866 0.002334559 -0.045818284 0.02591471 0.037277773 -0.058444098 0.025719872
0.08892003 0.015473265 -0.08863278 0.09272074 0.10172221 -0.12748925 0.07040199 0.077626824
0.1246607 0.041960947 0.034190353 0.036904495 -0.0026514896 0.058793806 -0.016404236 -0.054630365
0.0780667 -0.06202318 0.058420543 0.008821957 -0.011406713 0.03503699 0.029685874 -0.09234709
0.042820554 0.0649195 0.12962943 -0.014418577 0.07578494 -0.074949674 -0.13081917 0.031482562
-0.014465243 0.043882534 0.0018527062 -0.0639528 0.10248023 -0.04367348 0.12504974 -0.011551883
-0.072526775 -0.08981557 0.06443308 0.039289728 0.033876028 -0.09268375 -0.09224111 -0.10116026

transformer_encoder.layers.0.linear1.bias f4 [271]
00000000: a011 843d 0e73 993d df25 d13c 5994 23bd
00000010: e56a 723d 8bdd 673d eef1 e83a 23f7 f73a
00000020: cab9 c2bd fca4 02bb 531e 99bb 32e2 73bc
00000030: ca4d 903c 5648 5f3d 206d ccbc 9f93 00be
00000040: b7e1 cc3d d561 95bc f9af 85bc 0160 bdbc
00000050: b4e1 acbd ffd8 54bd ce45 35bd b5e2 adbd
00000060: 45f8 cdbd 1173 c53d 2dde 883d 3249 f2bd
00000070: b935 ccbd 9352 2f3d 60b5 50bd 4007 ce3c
00000080: 4e05 c1bc af04 93bd 19c1 c7bd dbf2 dcbc
00000090: 9516 dbbd 96bc 00be 41e8 c73d a2f9 883d
000000a0: e847 eebd 34de 5f3c ec0c 4fbd ebe4 22bd
000000b0: a3d7 643d a724 76bd 37c8 6e3d a3e6 45bd
000000c0: d069 0bbd 10e2 77bd 488b b33d 7f75 09ba
000000d0: f56d 673d 1fc8 843d 9028 133c 2d6e 91bd
000000e0: 0e57 d33c 0b33 d9bd 1bc6 8b3d 08f0 a83d
000000f0: 76d7 e8bd f757 b9bd d673 8cbd 4c56 00be
00000100: af94 a03d 4bd5 fabc 72d7 99bd dd07 eabd
00000110: 555c b1bc 6101 c33c 42e4 b13c 6544 60bd
00000120: cb2e ae3d fd7f 443d 9b82 39bd 834d 71bd
00000130: 2d0f 043d 405c fd3c 30df 15be c6c6 4ebd
00000140: 46f8 b23d 0f44 3f3d d506 b3bd c815 90bc
00000150: f24d b0bd ee5d 9f3d 2ec4 8bbd b977 64bc
00000160: d99c 6b3d 2dbc b8bd a10c 1cbd bcec 8b3d
00000170: 317f 70bd b18f ccbb ee7e 423c 2acf 56bc
00000180: 9fab 4c3d df41 9c3c c21b 843d ec34 863d
00000190: f56e a2bd 9ca2 aa3d 9a9b 96bd 947e 5c3d
000001a0: a3d7 adbc 6d2b bdbd 04cd debd 00bd 653d
000001b0: c3df 7dbb d266 ddbd ed9c 90bd 8737 3b3c
000001c0: 56bf 9b3d 2b97 64bd 9fd3 87bd 41b8 8e3d
000001d0: bb84 e7bd 4ffe 13bc c4fc 263d 1ae1 673d
000001e0: 4c9f 13bd c023 afbd 2c07 50bd d74a b63d
000001f0: 5770 c3bd 24aa c0bd 247a c13c 7e1a 90bd
00000200: f524 9bbd 00e2 bb3d 6566 f53d faba a23d
00000210: 4a37 c9bc 1a72 82bc 8396 adbd ce9c 8abc
00000220: 1f1f 4a3d 8d04 843c e34f 81bd 37f8 123d
00000230: 55b1 963d ead3 c2bd 91f6 163d 9d6b bebd
00000240: d273 c33b e49b 87bc 8b04 5c3c a7f5 23bb
00000250: b3ed 893c 238b 90bd be84 c63d d366 2b3d
00000260: 6fda 33bc 32b4 c1bd a26f adbd 55eb 1abd
00000270: 90a6 2abc de5b 673d 448a 2d3b af99 05be
00000280: 7ac1 e2bc 13a4 dbbd 410e 153c 2785 7b3d
00000290: e4ab 9fbd 20d0 103d 51c2 87bd 90e0 da3d
000002a0: 1d79 a43d 353e 4a3d b0c4 e8bc aacf 9ebd
000002b0: 7952 db3c de7c 09bd 4092 d6bc 0a4f 9e3d
000002c0: 53ec 153d d700 933d 1a60 aebc 45b3 ab3d
000002d0: 0965 babd 776e ad3d 1c3b dc3d ed3c 8e3d
000002e0: 6a31 3f3c b579 b23d 5739 873c bb90 74bd
000002f0: 4502 d93d 5140 c43d 5b57 3a3d 2a7a 2bbc
00000300: 8ae3 1d3d 4a83 99bc 60c3 23bc 13f8 2ebc
00000310: 4cbf 993d c4bd e7bd 0614 613d a87a bcbc
00000320: 3afa 063c ae52 423c e352 ca3c f029 93bc
00000330: 927a 89b9 304e 9fbd 2ad0 97bd eb96 4abd
00000340: fb39 a8bd 9bbd 303b ddc2 28bd a0c0 96bc
00000350: 6e29 8abc 117e b53b d639 7fbd 6515 3dbd
00000360: dbb3 e5bc 11cb f3bc 6949 18bd 594e 993d
00000370: 8970 a3bc b0db 99bd b0cc d73d e089 853d
00000380: 8a13 df3c 8634 773d c057 303d 6d83 32bd
00000390: 2f16 37bd ad6f eabd 3b3b bfbd 7b00 863d
000003a0: 5855 97bd 9785 a8bc 22ad 2abd 0cde b6bd
000003b0: 41b9 dbbd 32c9 a8bc 66f7 843d a7f0 aebc
000003c0: 17f5 adbd 26f2 123d 4e54 76bd e084 8a3d
000003d0: f85a 2e3d 1b48 fdbc 29fd b4bd d282 5e3d
000003e0: 0709 c3bd 869e 0c3d 8a2c 42bd 21af 6cbd
000003f0: 6a70 8ebc ec3f 0a3d 57ca 9f3c fd5e ca3d
0.06448674 0.07492648 0.025530754 -0.039936397 0.059183974 0.056607764 0.0017772296 0.0018918257
-0.09508093 -0.0019934764 -0.0046728044 -0.014885472 0.017615218 0.054512344 -0.024954379 -0.12556313
0.10003989 -0.018235127 -0.016319262 -0.023117067 -0.08441487 -0.051964756 -0.044256024 -0.084905066
-0.10057119 0.09641088 0.06683002 -0.11830367 -0.09971184 0.04280336 -0.050954223 0.025149941
-0.0235621 -0.07178628 -0.09753627 -0.026971271 -0.106976666 -0.1257194 0.09761096 0.06688239
-0.11634809 0.013663817 -0.050549433 -0.039769094 0.05586971 -0.06009355 0.05829641 -0.048315655
-0.034036458 -0.060518324 0.087668 -0.00052436435 0.056501348 0.064834826 0.008981839 -0.071010925
0.025798347 -0.10605439 0.06824895 0.08248907 -0.11369221 -0.09049981 -0.068580315 -0.1253292
0.07840859 -0.030619284 -0.07511796 -0.11427281 -0.021650473 0.023804368 0.021715287 -0.054752726
0.08505019 0.04797362 -0.04529057 -0.05891181 0.032241035 0.030927777 -0.1463592 -0.050482534
0.08738761 0.046695765 -0.087415375 -0.017588511 -0.08608617 0.077815875 -0.06824528 -0.01394456
0.05752263 -0.09020267 -0.03809798 0.06832263 -0.05871505 -0.0062427153 0.011871083 -0.013110915
0.049968358 0.019074379 0.06450607 0.06553063 -0.079313196 0.083317965 -0.073538974 0.05383165
-0.021220988 -0.092367984 -0.108789474 0.056088448 -0.0038738109 -0.10810627 -0.07061181 0.011426813
0.07604854 -0.055808228 -0.066321604 0.069687374 -0.11304613 -0.0090328 0.0407684 0.056611158
-0.03604059 -0.08551741 -0.05078809 0.08900993 -0.095429115 -0.09407452 0.023617812 -0.07036303
-0.07575408 0.091739655 0.11982421 0.07945819 -0.024562497 -0.015923548 -0.084759735 -0.016920473
0.049346086 0.016115451 -0.06314065 0.035881247 0.07358042 -0.09513076 0.036856238 -0.09297869
0.0059647346 -0.016553827 0.0134288175 -0.0025018246 0.016836977 -0.07057788 0.09693287 0.041846108
-0.010977372 -0.09458198 -0.08468558 -0.037822086 -0.010415688 0.056484096 0.0026480118 -0.13046907
-0.027680147 -0.10724654 0.009097637 0.06140628 -0.077964574 0.035354733 -0.0662886 0.10687363
0.08030913 0.04937573 -0.0284141 -0.077544525 0.026772724 -0.03356635 -0.026192784 0.07729919
0.03660233 0.071778946 -0.02128606 0.08383802 -0.09101302 0.08468335 0.10753462 0.069452144
0.011669496 0.0871462 0.016506834 -0.05970834 0.10596136 0.0958258 0.045493465 -0.010466138
0.038547076 -0.018739361 -0.0099953115 -0.010679263 0.0750719 -0.11315492 0.054950736 -0.023007706
0.00823837 0.011860533 0.024697727 -0.017964333 -0.00026221998 -0.07778585 -0.07412751 -0.049460333
-0.08214184 0.0026968482 -0.04120146 -0.018402398 -0.016865458 0.00553871 -0.062311016 -0.04616298
-0.028039863 -0.029759916 -0.037179384 0.07485647 -0.019951122 -0.07512605 0.10537088 0.06520438
0.027230997 0.060352825 0.043052435 -0.04358237 -0.04469889 -0.11447082 -0.09337469 0.065430604
-0.07389325 -0.020571513 -0.04166902 -0.08929071 -0.10728694 -0.02060375 0.064925 -0.021354986
-0.08494013 0.035875462 -0.060138993 0.06763625 0.042567223 -0.030918172 -0.08837349 0.05432398
-0.09523206 0.034330867 -0.047405757 -0.057784203 -0.017387588 0.033752367 0.019505663 0.09881399

transformer_encoder.layers.0.linear2.weight f4 [80, 271]
00000000: 6dd3 b73c e396 483d 7b31 5b3d 1f79 98bd
00000010: 26d9 9abc 349a 8abc 8377 99bd 7404 783d
00000020: 9267 c33c b084 10bb e942 6a3d 317f 193d
00000030: d8ba 0f3d a49c 063d 1060 65bd dd1a 243c
00000040: 67c6 c0bc 6066 9ab9 eaa9 1839 846f be3b
00000050: 3b75 e6bc 6216 be3c 55c8 cf3c 9362 6dbc
00000060: 8a77 70bc 7910 1ebd 07ed 50bd 95a9 633d
00000070: 9bf4 4a3d 6d1e b53d 0c13 3bbd 6e9c b33c
00000080: 567e d3bd 9f50 b4bd a881 97bc caad 5dbb
00000090: 4c0e 28bb 6f0f 90bb 2ed0 653b ae29 29bd
000000a0: 7e76 a4bc 5437 d63c be2b b6bc b83f 203d
000000b0: 0114 53bd 73b8 093d 8630 e3bc e5fd ab3d
000000c0: 3dd5 0ebd c7a3 663d d830 4a3c b87b 0c3d
000000d0: 7e57 cabb 190f 413c 03c8 f03c 7ad3 2e3a
000000e0: 8330 753c 1f5a 933d 2e75 cebb d589 383d
000000f0: 609b 613d 5a1c 92bc e96c 243c de11 2e3d
00000100: 3510 41bd ee9a 8b3d f113 41bd ebc2 cfbc
00000110: e438 1abd 354d 833c ef58 963d 06e2 ff3c
00000120: a348 b9bc bd57 9c3c efa0 ce3c b3e4 0abd
00000130: 0e4d 45bd eec9 27bd d4fd 443b 7346 ba3c
00000140: 6552 0e3d 1784 803a 6e0b 01bd d80f 8dbc
00000150: 17ef d1bc fef2 a33d 1b0f 2f3d 2077 ec3c
00000160: ba26 18bd 7b87 41bd be30 00bd e564 a03b
00000170: b557 1bbc 1b6b 193c c3ad aebd 55c3 923d
00000180: 6a7f 0e3d c413 703d 5999 9d3c db01 53bd
00000190: 00dc b93a bfba 243c 5b0b 32bc 71c6 743d
000001a0: 3b76 9a3c 9b6c b3bc fe51 5c3c 8c40 14bc
000001b0: 11f4 543d 87d3 51ba 4a8d 6bbc 7261 043d
000001c0: 6aa5 4a3d c65f b43c f26e 063e bf24 40bd
000001d0: 40bd ab3a efd4 4c3d 1cb5 2a3d 020c 9bbd
000001e0: e3e0 743b b83d c73b 02b3 adbd cfac 4f3d
000001f0: 5786 b6bc 0722 34bc 4fcb 2abd fb3b 7e3c
00000200: c11d 44bd 3248 47bd fb97 dabd c812 a03d
00000210: 566c bebc d984 2c3c 761a 1abc 5212 993d
00000220: b3ba b9bc b6cb c9bc b785 15bc 3de2 723d
00000230: 93e2 87bd 7a69 8ebc ca8c dabb f6d7 783d
00000240: d29b acbd 66fe 173d 276a 89bc 62b5 d0bc
00000250: 537b 56bd 5271 823d 5200 0abc 8818 4c3b
00000260: 10f7 09bc 4612 b5bc d919 143b 59b9 2c3d
00000270: 1a80 25bd 1e1f a23c 5d27 2cbd 6d9f 4cbd
00000280: 7946 d9bc b76c a63d 087b 85bc 517a d23c
00000290: 59f6 17bd 1e92 a0bc cef0 833b 973e df3c
000002a0: 075f 6ebb 1f05 093c 4c6d 73bb 568e 913d
000002b0: e18a 6b3d 2fde 193d 1e42 6f3c bc37 ee3b
000002c0: a99d b4bc 255c 1cbd 55d8 0cbd 3887 ffbc
000002d0: e27d 73bc ff61 383d df0a ee3b b28d 123d
000002e0: cc4e ecbd 1496 43bc 94fc ebbb 73f4 213d
000002f0: 8cbc d23b bd70 3abc f39d 45bd 2635 6f3c
00000300: 5a15 51bc ec40 4cbc dba3 81bd a21d 233c
00000310: baf5 b6bd 7463 97bd 6c08 44bd d94d 26bc
00000320: 2b90 aabc cfd3 6d3d fedd 873d 291c 1e3d
00000330: 07a9 5b3c 3690 8cbd 451f 283d 0d00 c1bc
00000340: f261 c73c ff9c 24bc 87bb 4b3c 5250 133d
00000350: 5555 63bb 629a 79bd 9527 253c 38bf 9a3c
00000360: e56e 5ebb 8bff 4f3c 465e 71bd b4e0 f8bb
00000370: a5fe 44bd 12e8 19bd d3b8 8abd c901 463c
00000380: 6bc5 8e3c 9836 103d 7575 c13b 8c23 9e3c
00000390: 7594 783d 9f17 263d 3493 673d b761 af3c
000003a0: d34f 13bd 1e9e f0bc 55bf 82bd 63ba 64bd
000003b0: fd9e 1bbd 309f c33c cba3 29bd 4100 a6bb
000003c0: e25a 71bd 281d 503d 4da0 0d3c f304 973d
000003d0: 0831 1abc eb0f bd3c 2380 c7bc 1113 29bd
000003e0: f188 14bc 3903 213d 862f 713c a28d 1c3c
000003f0: a579 343d 007e 363d 21d1 3bbd 793e 7ebd
0.022439683 0.04897202 0.053513985 -0.07444977 -0.018902373 -0.016919233 -0.07493498 0.06055112
0.023853097 -0.0022051744 0.057192717 0.037474815 0.035090297 0.032864228 -0.055999815 0.01001617
-0.023532106 -0.00029449444 0.00014559148 0.0058116335 -0.028132072 0.023204032 0.02536408 -0.014488834
-0.014676938 -0.03858993 -0.051007297 0.055581648 0.04954968 0.08843694 -0.04567246 0.021925177
-0.10326831 -0.0880444 -0.018494442 -0.003382551 -0.0025643287 -0.004396371 0.0035066712 -0.041299514
-0.020076033 0.02614943 -0.022237655 0.039123267 -0.05153275 0.03362317 -0.027733099 0.08398036
-0.03487133 0.056308534 0.012340747 0.034297675 -0.0061749807 0.011783385 0.029392248 0.00066690857
0.014965179 0.071949236 -0.00630059 0.045053322 0.055079818 -0.017835785 0.010035732 0.04249751
-0.047134597 0.0681666 -0.04713816 -0.025361499 -0.03765191 0.016028026 0.073411815 0.031235706
-0.022617644 0.019084806 0.025223223 -0.03390951 -0.04816919 -0.04096406 0.003005852 0.02273867
0.034746546 0.0009804991 -0.03150504 -0.017219469 -0.025626702 0.080053315 0.042739015 0.028865397
-0.037146308 -0.047248345 -0.031296484 0.00489484 -0.00948136 0.009363915 -0.08529236 0.07166163
0.03478948 0.0586126 0.01923816 -0.05151544 0.0014179945 0.010054289 -0.010866965 0.05975956
0.018855205 -0.021902373 0.013447283 -0.009048592 0.051990572 -0.00080042373 -0.014376948 0.032319494
0.049474157 0.022018325 0.1312826 -0.046910044 0.0013102666 0.050007757 0.041676626 -0.0757065
0.0037365488 0.0060803555 -0.08481409 0.050701912 -0.022280855 -0.010994441 -0.041697796 0.01551723
-0.047879938 -0.048652835 -0.10673519 0.07816082 -0.023245018 0.01052972 -0.009405723 0.074741974
-0.022672033 -0.02463327 -0.009126118 0.05929779 -0.066350125 -0.01738428 -0.0066696154 0.06075283
-0.08428158 0.037107848 -0.01677425 -0.025477115 -0.052363705 0.063692704 -0.008422928 0.0031142551
-0.008420721 -0.02210344 0.0022598414 0.04216895 -0.04040537 0.019790228 -0.042029727 -0.049956728
-0.026522862 0.081262045 -0.016294017 0.02569309 -0.03710017 -0.019600924 0.004026509 0.027251525
-0.0036372559 0.008363037 -0.0037144003 0.071072266 0.057505492 0.037565406 0.014603166 0.0072698276
-0.022047834 -0.038173813 -0.034385998 -0.031192407 -0.014861556 0.04501533 0.0072644795 0.035779662
-0.11538467 -0.011937637 -0.0072017405 0.039539766 0.006431168 -0.011379418 -0.048246335 0.014600074
-0.012761438 -0.01246665 -0.06330081 0.0099557955 -0.08933587 -0.07392016 -0.047859594 -0.010150396
-0.020820698 0.058063325 0.066341385 0.038601074 0.0134069985 -0.068634436 0.041045446 -0.023559595
0.024338696 -0.010047196 0.012434847 0.03596527 -0.0034688313 -0.060938247 0.010080238 0.018890008
-0.003394061 0.012695204 -0.058927797 -0.007595146 -0.04809441 -0.037574835 -0.06773534 0.012085387
0.01742812 0.035208315 0.0059038945 0.01930406 0.060688455 0.04054987 0.05653687 0.021408899
-0.0359648 -0.029372271 -0.0638415 -0.055841815 -0.03799342 0.023879617 -0.04141597 -0.0050659482
-0.058924563 0.050809056 0.008644176 0.07373991 -0.009411104 0.02307888 -0.024353093 -0.04127795
-0.0090658525 0.039309714 0.014720803 0.009555252 0.04406132 0.044553757 -0.045853738 -0.062071297

transformer_encoder.layers.0.linear2.bias f4 [80]
00000000: 4daa ddbc 5bc4 a4bc 9e91 423c 3909 083d
00000010: 52ce 6ebc bd4b 9a3d 830e 433d 7628 13bd
00000020: d90a 683d 6c7f 7c3c 4579 00bd bac7 c3bb
00000030: 7279 9d38 2527 02bd 1bdc d43c 7f81 bbbc
00000040: f622 46bd 9f17 59bc 523f 8a3c ab21 33bd
00000050: 7cc1 12bd ab67 563c 6479 3e3c 75dc 5f3c
00000060: 515d 8c3d f413 ef3c a1d7 5d3d d753 96bc
00000070: 928f 353d 902d 0a3d c427 3dbd 791c cebc
00000080: bf6a 093d f3be f53c 7f2a 023d 128e 81bb
00000090: 377d c33c 9bc2 50bb fffb d23c e002 dfbc
000000a0: 28aa 59bd 5e96 eb3a d2b7 33bc 86e1 133d
000000b0: f1b0 d53c 8f28 cd3c 693a 263d 6062 433d
000000c0: 7d5c a4bc 250b 043d a7cd 8c3c 2a18 d1bc
000000d0: d582 8a3c 824f c1bb 76d2 abbb 274c 523d
000000e0: b32e bf3c c4a5 e9bc 1e1c f0bb 5159 f53c
000000f0: 7b87 5d3d 57c9 1e3d 67e8 9d3c 8dde 04bc
00000100: 7e2c a73c cdc0 163d 683f 7b3c a3d4 453d
00000110: 6528 4b3d c6d7 743d 36f0 fcbc 82b5 3d3d
00000120: b2a4 353d 03c4 aebb 5d85 003d 58cd a1bc
00000130: 49c2 99bd 1f4b ef3c 85e2 91bc 03e5 c1bb
-0.027058745 -0.02011316 0.011875538 0.03321192 -0.014575558 0.07533977 0.04762126 -0.03592726
0.05665097 0.015411239 -0.03136565 -0.005974737 7.508964e-05 -0.031775612 0.02598386 -0.022888897
-0.048373185 -0.013250261 0.016875897 -0.04373328 -0.035829052 0.01308624 0.0116256215 0.013663401
0.06853736 0.02918432 0.054160718 -0.018350525 0.044326372 0.033734858 -0.0461805 -0.025160061
0.033549067 0.029998278 0.03177881 -0.0039537037 0.023863418 -0.0031854275 0.025754927 -0.02722305
-0.05314079 0.001797389 -0.010969119 0.036103748 0.026085349 0.025043754 0.040583048 0.04770124
-0.020063633 0.03223719 0.017187906 -0.025524218 0.016908089 -0.0058993706 -0.0052435948 0.051342156
0.023337698 -0.028521426 -0.0073275706 0.029949816 0.054084282 0.03876623 0.019275857 -0.008109701
0.020406958 0.036804963 0.015334941 0.04829849 0.04959907 0.05977609 -0.03087626 0.046315677
0.04434652 -0.005333425 0.031377185 -0.019751236 -0.0750776 0.029210625 -0.017808208 -0.005917193
