model_results/Queensland/Transformer_PSO_Model/2025-08-26_17-49-29/best_model.pth (torch, 205877 bytes, 27 tensors)

encoder.weight f4 [44, 10]
0.18430714 0.055394247 -0.01832371 0.15858397 -0.12061592 -0.16687645 -0.17889519 -0.009734833
-0.098471515 0.27925578 -0.15571144 0.12156449 0.3233548 -0.15594754 -0.032177396 0.062424447
-0.036146227 0.30676138 0.07096363 -0.008980428 0.2238763 0.20454009 0.32134405 -0.12061696
0.14696378 0.15542074 0.09109446 -0.29090634 -0.14864148 -0.06748181 -0.038712118 0.063964486
0.016004743 0.3112832 -0.19988866 -0.12782769 0.17069948 0.10059369 0.21012308 0.31868523
0.23507488 -0.24331023 -0.088500485 0.031548683 0.058843814 -0.0901558 0.07157126 -0.09683904
0.16926879 -0.1449734 -0.06389978 -0.027168207 0.11263725 0.09070322 0.105243415 -0.0025163128
0.28366068 -0.23128605 -0.0063172164 0.17574927 -0.2371376 0.024816366 -0.009404764 0.2759148
0.25719312 0.24711993 -0.26930287 -0.09647206 0.1221902 0.2329129 -0.22488032 -0.2551383
0.14323291 -0.12698026 -0.3568468 -0.30897015 0.18097103 0.17223854 -0.24795914 -0.18836099
0.14511266 0.22991328 0.25353688 0.044701714 0.09146909 0.0298425 -0.1891783 -0.048496973
-0.26936138 -0.08711421 0.06685809 -0.29206434 -0.10781156 0.15392575 -0.056454327 -0.17843594
0.251678 0.046619803 -0.09275592 0.08580178 -0.21736553 -0.36883488 0.21896768 0.0205294
-0.10280569 -0.132137 -0.3000123 -0.23903245 0.10110835 0.19480005 0.2956147 0.09977093
0.21396685 -0.107779615 -0.15499939 -0.33205938 -0.20476052 0.09492912 -0.26131302 -0.029123152
0.10577685 -0.20125973 0.09029525 -0.090050854 -0.14754514 0.08731072 0.16380718 0.04229928
0.12643294 -0.09243875 -0.26086462 -0.0578936 0.14605044 0.25775304 -0.24023736 0.033224545
0.052248523 -0.28655127 -0.27223337 -0.024865579 0.25221533 -0.012033323 0.22124635 0.023259873
0.077151686 0.103057876 -0.20266706 -0.102128945 0.027447307 -0.27924937 0.016534535 -0.20641285
-0.08074194 0.28098106 0.22271948 0.2947731 -0.24368694 0.083749294 0.27638832 -0.19425328
-0.19294786 -0.067442186 0.26669753 0.1628962 -0.1768417 0.15187016 0.08338363 0.27201945
-0.28923097 0.30831134 0.05814789 -0.27030814 0.2639833 0.27427322 0.18108623 -0.15116964
0.06096942 0.22414039 -0.32489517 0.20266965 0.024640648 0.04384173 0.011712127 -0.29937238
-0.15520763 -0.2984327 0.23346134 -0.20237243 -0.0013854869 -0.0051251072 0.21205468 0.09094158
0.17746955 0.12465208 0.14403614 -0.30040634 -0.06380829 0.26117358 -0.071532436 0.24806769
0.11766304 0.23111795 0.30146077 -0.17591985 0.16266479 0.19640252 -0.061518464 -0.09886258
0.13915949 -0.16413797 0.06322803 0.15539895 0.2415507 0.27525273 -0.27555314 -0.20867842
0.15429197 0.06048372 -0.28927615 -0.115778945 0.007910312 -0.2477552 0.21541332 0.010990054
0.07264872 -0.27874666 0.2565344 0.17507519 0.31831172 -0.10825803 0.13461779 -0.12430022
-0.24857278 -0.014692978 -0.29580423 -0.16656525 -0.19336009 0.0025822765 0.007512498 0.09253936
-0.26169196 0.23199208 0.015411762 0.37477493 0.11577248 0.11537879 0.33843175 -0.13470025
0.18690847 -0.044265807 0.009744382 0.018781474 -0.09882684 -0.10693741 0.22623293 0.110580884
00000000: 03bb 3c3e 14e5 623d 9b1b 96bc d663 223e
00000010: 7b05 f7bd a9e1 2abe 4d30 37be d97e 1fbc
00000020: 6fab c9bd 9dfa 8e3e d272 1fbe cef6 f83d
00000030: c38e a53e b6b0 1fbe 72cc 03bd c7b0 7f3d
00000040: 110e 14bd d40f 9d3e 6155 913d a522 13bc
00000050: d43f 653e f572 513e 3587 a43e 0606 f7bd
00000060: ac7d 163e 9d26 1f3e bb8f ba3d adf1 94be
00000070: 7935 18be e733 8abd 9990 1ebd d0ff 823d
00000080: 611c 833c 8360 9f3e 9daf 4cbe 43e5 02be
00000090: d8cb 2e3e 1104 ce3d 812a 573e b62a a33e
000000a0: 78b7 703e 5126 79be be3f b5bd 3139 013d
000000b0: 3606 713d 9ba3 b8bd f493 923d 8c53 c6bd
000000c0: cc54 2d3e e873 14be e3dd 82bd dc8f debc
000000d0: 5cae e63d 9cc2 b93d dc89 d73d b9e8 24bb
000000e0: f93b 913e 40d6 6cbe a700 cfbb 9ef7 333e
000000f0: 33d4 72be b14b cb3c 7016 1abc b444 8d3e
00000100: d1ae 833e 020d 7d3e 11e2 89be 2593 c5bd
00000110: db3e fa3d b880 6e3e 0747 66be 7da1 82be
00000120: a6ab 123e 1d07 02be a0b4 b6be 5631 9ebe
00000130: 7850 393e 4d5f 303e 00e9 7dbe b4e1 40be
00000140: 6a98 143e 636e 6b3e 96cf 813e 2519 373d
00000150: 2554 bb3d 4278 f43c f5b7 41be c3a4 46bd
00000160: bce9 89be ef68 b2bd e5ec 883d 7589 95be
00000170: 4fcc dcbd b69e 1d3e a73c 67bd e9b7 36be
00000180: f0db 803e 68f4 3e3d d1f6 bdbd d8b8 af3d
00000190: 1295 5ebe edd7 bcbe 1039 603e 462d a83c
000001a0: ca8b d2bd ec4e 07be 369b 99be ecc4 74be
000001b0: e511 cf3d aa79 473e cf5a 973e b454 cc3d
000001c0: 201a 5b3e 8fbb dcbd 29b8 1ebe b003 aabe
000001d0: beac 51be 336a c23d d2ca 85be ad93 eebc
000001e0: 88a1 d83d 0817 4ebe b7ec b83d 956c b8bd
000001f0: 1316 17be f6cf b23d 12bd 273e 0342 2d3d
00000200: a377 013e 8750 bdbd 0c90 85be d721 6dbd
00000210: 3f8e 153e 35f8 833e c800 76be 7616 083d
00000220: 8c02 563d d9b6 92be 2c62 8bbe e6b2 cbbc
00000230: 5e22 813e 6a27 45bc 678e 623e 7d8b be3c
00000240: b401 9e3d 0210 d33d f487 4fbe fb28 d1bd
00000250: 2dd9 e03c c6f9 8ebe 6f73 873c e45d 53be
00000260: 085c a5bd c0dc 8f3e 9310 643e 80ec 963e
00000270: 1289 79be c084 ab3d c582 8d3e 55ea 46be
00000280: 2094 45be 211f 8abd 948c 883e 43ce 263e
00000290: fe15 35be da83 1b3e 09c5 aa3d 2246 8b3e
000002a0: 1516 94be fcda 9d3e 7b2c 6e3d d465 8abe
000002b0: d228 873e 8a6d 8c3e ab6e 393e 37cc 1abe
000002c0: 12bb 793d 0f85 653e a958 a6be a288 4f3e
000002d0: 2fdb c93c 6393 333d 39e4 3f3c 5647 99be
000002e0: c0ee 1ebe 2ccc 98be 7d10 6f3e b83a 4fbe
000002f0: 3a99 b5ba 84f0 a7bb dd24 593e 943f ba3d
00000300: 94ba 353e 9749 ff3d 367e 133e dcce 99be
00000310: ecad 82bd 8bb8 853e 997f 92bd 7505 7e3e
00000320: 52f9 f03d 2faa 6c3e 1159 9a3e 5524 34be
00000330: 9991 263e be1d 493e c9fa 7bbd 7778 cabd
00000340: d37f 0e3e c913 28be b37d 813d e720 1f3e
00000350: 1159 773e eded 8c3e 4d15 8dbe ccaf 55be
00000360: b7fe 1d3e c7bd 773d 011c 94be 831d edbd
00000370: 419a 013c 8ab3 7dbe 4f95 5c3e a10f 343c
00000380: dac8 943d e2b7 8ebe 7a58 833e e946 333e
00000390: c1f9 a23e 63b6 ddbd 3fd9 093e 1d91 febd
000003a0: dd89 7ebe d1ba 70bc a773 97be 1590 2abe
000003b0: 3000 46be 693b 293b 672b f63b 4785 bd3d
000003c0: 7dfc 85be 558f 6d3e 9d81 7c3c 80e2 bf3e
000003d0: 1f1a ed3d b74b ec3d ed46 ad3e ddee 09be
000003e0: ef64 3f3e 1050 35bd e7a6 1f3c 9bdb 993c
000003f0: ba65 cabd 0002 dbbd 9ba9 673e 3b78 e23d

encoder.bias f4 [44]
0.27900314 0.3536428 0.27580872 0.30584952 0.3096792 -0.04298012 0.07615358 0.1415466
0.15067515 -0.20444383 0.21734035 -0.27379882 0.10525394 0.13196056 0.25284916 -0.23374586
-0.053217765 -0.2479866 0.20272304 0.100472145 0.25711712 0.06272079 0.29281175 0.14286919
0.23316169 -0.19393682 0.08535152 0.25305858 -0.14769307 0.069757804 0.05941919 -0.35155016
0.33358416 -0.18655936 0.14683029 -0.049314775 0.14678991 0.22697556 -0.06208226 -0.13748318
0.13492349 -0.08636265 0.33722582 -0.09678271
00000000: 80d9 8e3e ab10 b53e cd36 8d3e 4f98 9c3e
00000010: 468e 9e3e ec0b 30bd 68f6 9b3d 98f1 103e
00000020: 964a 1a3e b959 51be 788e 5e3e 5c2f 8cbe
00000030: 618f d73d ab20 073e 7275 813e 135b 6fbe
00000040: dffa 59bd 33f0 7dbe a196 4f3e 57c4 cd3d
00000050: dba4 833e c273 803d 6ceb 953e 4d4c 123e
00000060: f0c1 6e3e 6097 46be c7cc ae3d e590 813e
00000070: da3c 17be 2edd 8e3d 8961 733d 62fe b3be
00000080: 8bcb aa3e 6b09 3fbe ae5a 163e 4afe 49bd
00000090: 1850 163e 486c 683e f849 7ebd 64c8 0cbe
000000a0: 6229 0a3e e7de b0bd dda8 ac3e 0336 c6bd

transformer_encoder.layers.0.self_attn.in_proj_weight f4 [132, 44]
-0.08856369 0.069509976 0.055866625 -0.12691674 -0.10804119 -0.17586513 0.15832621 -0.059640065
-0.042948183 0.14571431 -0.16785495 -0.05481737 -0.06845284 0.16368033 0.012897672 0.03926429
-0.1388637 0.00815629 -0.112924494 -0.0058385716 0.04297476 -0.14106324 0.092661396 -0.05090194
-0.06266434 -0.0126639055 -0.036226638 0.013968129 -0.1374251 0.059769742 -0.11779239 -0.14055061
-0.10222309 0.08873697 -0.014614807 0.19385588 -0.032837 0.11427905 -0.10649077 0.19670965
-0.004330209 0.06957553 -0.19132991 -0.0063796225 0.07892606 0.071767606 0.04834083 0.059957568
-0.07451567 -0.10558765 0.08409821 0.08673823 -0.17984986 -0.10483634 -0.13732347 0.11214949
-0.13009351 0.10763998 0.14362761 0.031867262 -0.064694874 0.090643115 -0.05162902 -0.09153392
-0.03861477 -0.056900065 0.16395862 0.14403282 0.041208733 0.05015298 -0.07661944 -0.048464328
-0.06113696 -0.11093203 -0.11061105 0.026422447 0.13062245 -0.059112243 -0.03522071 -0.16532847
0.10090375 -0.091076404 -0.16846903 0.1709728 0.033781044 -0.0799935 -0.10808112 0.07083443
0.10187198 0.029379172 0.10559966 0.09586613 -0.16082224 0.048396252 -0.17429478 -0.17726213
0.009058461 0.061499275 -0.07435284 0.15510204 0.17513132 0.17002024 -0.16250515 0.16950725
-0.020919763 0.09431018 -0.09067646 0.05814906 0.06526473 -0.15043701 0.014843295 -0.0827001
-0.049760457 0.09838068 -0.027669564 0.03151556 0.18414614 0.0328977 -0.114364035 0.07808338
-0.040800784 0.06544423 0.07318385 0.184838 -0.16592795 0.13957345 -0.14311542 0.15843529
-0.1724426 -0.13438098 -0.01284424 -0.11701059 0.112930134 0.11342606 0.0073675625 0.039983876
0.13951036 0.11432828 0.002412889 0.10668776 -0.15246525 0.01225739 0.0745836 0.07152994
-0.025504574 -0.036397796 -0.09769571 0.15143536 -0.17606696 0.16211064 0.12407652 0.13021527
-0.011290984 -0.03295689 -0.15021658 -0.046934884 -0.020752285 0.17036358 -0.16040969 -0.050555833
-0.16405836 -0.051711615 0.13500237 -0.17383188 0.05454356 -0.16820908 0.021317922 0.16458406
-0.14593133 0.11834492 0.11061426 0.086080045 0.1681105 0.13426788 -0.15075791 0.030613668
0.0119147245 -0.09841655 -0.17223491 -0.045699254 0.05930798 -0.10501987 0.14643441 -0.15327024
0.13497704 -0.18257456 0.051315747 0.13149188 -0.10016123 -0.059473064 -0.18762894 -0.04218106
0.048788086 0.10329427 -0.14614706 -0.084056616 -0.086864024 -0.0030168947 -0.054803465 0.09260069
0.011076103 -0.085031755 0.021879613 0.059142556 -0.0883764 -0.017130578 -0.021733962 -0.10876979
0.015380043 -0.09562949 -0.012417882 0.15426143 -0.09099043 -0.068234034 0.024448756 0.021233803
-0.004852062 -0.067542635 0.0972423 0.16943373 -0.1561532 -0.040884946 -0.15946077 0.1505602
0.0035987915 0.08883979 -0.082352094 -0.12940656 0.032319225 -0.012008415 -0.1132467 -0.1399808
0.016258363 -0.112288356 -0.041569285 -0.069093205 0.13503166 0.15896496 0.10572072 0.027422624
-0.15543793 -0.051426772 0.119850636 0.14582168 -0.14174262 0.1692176 -0.09293285 -0.09560677
-0.1759139 -0.018009076 -0.05782481 -0.14371477 0.016999291 0.021044198 -0.10172306 0.076352976
00000000: e160 b5bd 3f5b 8e3d 67d4 643d 76f6 01be
00000010: b344 ddbd fd15 34be 4420 223e 2449 74bd
00000020: 6fea 2fbd 2236 153e 2be2 2bbe 2e88 60bd
00000030: 0131 8cbd d19b 273e c250 533c 98d3 203d
00000040: 4932 0ebe f6a1 053c f544 e7bd 7d51 bfbb
00000050: 4d06 303d e272 10be 42c5 bd3d 8d7e 50bd
00000060: 2956 80bd 457c 4fbc 6262 14bd 94da 643c
00000070: 2ab9 0cbe 1ed1 743d 233d f1bd 80ec 0fbe
00000080: 575a d1bd bbbb b53d f272 6fbc 2882 463e
00000090: 1780 06bd 220b ea3d d517 dabd 416e 493e
000000a0: 6de4 8dbb 9e7d 8e3d fdeb 43be 270c d1bb
000000b0: fca3 a13d e5fa 923d 0901 463d 1196 753d
000000c0: ac9b 98bd 563e d8bd af3b ac3d d0a3 b13d
000000d0: 902a 38be 6fb4 d6bd 869e 0cbe a2ae e53d
000000e0: 3c37 05be 5a72 dc3d 1e13 133e 3f87 023d
000000f0: bf7e 84bd 19a3 b93d f478 53bd 2376 bbbd
00000100: 852a 1ebd 0b10 69bd c5e4 273e 577d 133e
00000110: 7dca 283d 366d 4d3d a7ea 9cbd 8882 46bd
00000120: c06a 7abd 5530 e3bd 0c88 e2bd e373 d83c
00000130: e4c1 053e ae1f 72bd 9743 10bd de4b 29be
00000140: a0a6 ce3d 4486 babd 2583 2cbe 7e13 2f3e
00000150: fe5d 0a3d a2d3 a3bd a259 ddbd a411 913d
00000160: 42a2 d03d 97ac f03c a244 d83d 7655 c43d
00000170: 96ae 24be 263b 463d 557a 32be 3484 35be
00000180: f069 143c aae6 7b3d 4d46 98bd 12d3 1e3e
00000190: a055 333e c919 2e3e c067 26be 4f93 2d3e
000001a0: ec5f abbc b225 c13d 94b4 b9bd b52d 6e3d
000001b0: 84a9 853d 290c 1abe 4b31 733c ac5e a9bd
000001c0: 9fd1 4bbd cf7b c93d 48ab e2bc 7616 013d
000001d0: ce90 3c3e bdbf 063d b137 eabd 2eea 9f3d
000001e0: b91e 27bd a007 863d 6ae1 953d 2c46 3d3e
000001f0: 04e9 29be 58ec 0e3e d98c 12be dc3c 223e
00000200: cb94 30be 2b9b 09be a670 52bc 40a3 efbd
00000210: ea47 e73d ec4b e83d 986b f13b 22c6 233d
00000220: cedb 0e3e f224 ea3d 8f21 1e3b 1d7f da3d
00000230: da1f 1cbe 38d3 483c 49bf 983d 4a7e 923d
00000240: f8ee d0bc db15 15bd b014 c8bd df11 1b3e
00000250: e64a 34be 5500 263e d51b fe3d 2757 053e
00000260: d2fd 38bc cefd 06bd 60d2 19be cb3e 40bd
00000270: b200 aabc ca73 2e3e 7042 24be a213 4fbd
00000280: eafe 27be 8fcf 53bd 103e 0a3e fc00 32be
00000290: 1169 5f3d 003f 2cbe eca2 ae3c b988 283e
000002a0: 066f 15be d25e f23d bb89 e23d bc4a b03d
000002b0: 2925 2c3e 857d 093e 4860 1abe 84c9 fa3c
000002c0: fa35 433c 9e8e c9bd 595e 30be 242f 3bbd
000002d0: edec 723d a814 d7bd e7f2 153e e0f2 1cbe
000002e0: 6c37 0a3e d3f4 3abe 7630 523d cfa5 063e
000002f0: 5521 cdbd 079a 73bd cd21 40be 0cc6 2cbd
00000300: 04d6 473d f28b d33d 93a7 15be e025 acbd
00000310: c4e5 b1bd 18b7 45bb 9979 60bd 6ea5 bd3d
00000320: 8b78 353c 2125 aebd e03c b33c 773f 723d
00000330: b0fe b4bd 6d55 8cbc 6c0b b2bc b2c2 debd
00000340: 93fc 7b3c 65d9 c3bd 5f74 4bbc b5f6 1d3e
00000350: 3159 babd 49be 8bbd c248 c83c 83f2 ad3c
00000360: 0cfe 9ebb cb53 8abd f926 c73d 0980 2d3e
00000370: a0e6 1fbe f976 27bd af49 23be 742c 1a3e
00000380: b4d9 6b3b a3f1 b53d 37a8 a8bd 2783 04be
00000390: 2a61 043d f1be 44bc e3ed e7bd 2057 0fbe
000003a0: 4230 853c 70f7 e5bd 8e44 2abd bd80 8dbd
000003b0: bd45 0a3e b6c7 223e 1b84 d83d 69a5 e03c
000003c0: 1f2b 1fbe e1a4 52bd 4074 f53d 4752 153e
000003d0: fa24 11be 6147 2d3e 9453 bebd 7bcd c3bd
000003e0: c622 34be c587 93bc b5d9 6cbd f729 13be
000003f0: 1942 8b3c e264 ac3c 2e54 d0bd f35e 9c3d

transformer_encoder.layers.0.self_attn.in_proj_bias f4 [132]
-0.006315222 -0.0029501787 -0.005768004 0.0032300898 -0.0026850665 0.0058672423 0.0025338281 0.0064464123
0.014529223 -0.015475522 -0.0010018552 -0.0013217285 0.00281156 0.0021617096 0.00060427765 -0.00081086584
0.0012242094 0.0007603509 0.0006890643 -0.0034840177 -0.0015566936 0.00028831998 -0.002929827 0.015170262
-0.0015301093 -0.0042861323 -0.011089803 0.00040382883 -0.0058824723 0.0045059198 -0.0019358019 -0.0015038411
-0.005372802 0.0073642815 -0.01011962 0.005820063 -0.0023602336 0.0041437782 0.0057750945 -0.0062815226
-0.00032420686 0.0044433065 -0.009748175 0.0057756393 -0.008822588 -7.185817e-05 0.003494759 -0.008481539
0.006150959 0.0033860288 -0.0022102678 0.0020817467 -0.0008897799 0.0015017736 -0.002071945 0.004487289
-0.011024734 -0.0078247525 0.0032697546 0.0018718007 0.00048110753 3.6569323e-05 -0.0013003935 -3.223776e-05
-0.008786901 0.016075443 0.01891715 -0.012729057 0.012117917 0.010287432 -0.009317925 -0.011676765
0.01483263 -0.0040720324 -0.0052151037 0.013073133 0.011574783 -0.005835331 -0.0014776288 -0.003075217
0.0043516373 -0.00029145973 0.0053556715 0.0047102603 -0.0054029445 -0.0024603128 0.0066682985 -0.0062707486
0.07117518 -0.3018501 -0.24116006 -0.21596757 0.23476084 0.20081979 -0.26053 -0.295427
-0.13157976 0.28028336 0.26391312 -0.21822482 0.31061885 -0.19981986 0.3482177 -0.17023507
-0.21992823 0.20634577 -0.26983792 0.22728252 -0.23073295 0.30744117 -0.13062473 -0.16611135
0.18599276 0.10163442 0.11166189 -0.16950393 -0.106260024 0.17421389 -0.22250801 -0.2936629
0.21518333 0.11145169 0.23256905 -0.13719408 -0.05376818 -0.21688205 0.19037572 -0.07886545
-0.19714208 0.16570899 -0.15819092 0.16612755
00000000: ecef cebb c957 41bb 8601 bdbb eaaf 533b
00000010: f1f7 2fbb ff41 c03b 950e 263b 6d3c d33b
00000020: fa0b 6e3c 0b8d 7dbc af50 83ba d93d adba
00000030: 2642 383b 78ab 0d3b 6368 1e3a 4990 54ba
00000040: a775 a03a 4952 473a 53a2 343a 1e54 64bb
00000050: f809 ccba a729 9739 5702 40bb b18c 783c
00000060: f38d c8ba af72 8cbb 01b2 35bc fdb8 d339
00000070: c1c1 c0bb 65a6 933b bcba fdba 891c c5ba
00000080: 540e b0bb 1250 f13b c3cc 25bc 3ab6 be3b
00000090: 26ae 1abb 88c8 873b 013d bd3b 3bd5 cdbb
000000a0: 4ffa a9b9 2899 913b cfb6 1fbc 9341 bd3b
000000b0: 9e8c 10bc 90b2 96b8 5408 653b 27f6 0abc
000000c0: fc8d c93b 23e8 5d3b 24da 10bb ea6d 083b
000000d0: 1e40 69ba 29d7 c43a 78c9 07bb 1c0a 933b
000000e0: 16a1 34bc 6433 00bc 6149 563b 3657 f53a
000000f0: 293d fc39 0362 1938 f771 aaba 0837 07b8
00000100: eff6 0fbc a6b0 833c 24f8 9a3c 898d 50bc
00000110: 3a8a 463c 9e8c 283c 36aa 18bc e74f 3fbc
00000120: 8f04 733c af6e 85bb 76e3 aabb b230 563c
00000130: 29a4 3d3c 4e36 bfbb ffac c1ba 9489 49bb
00000140: 2e98 8e3b 10cf 98b9 a17e af3b 8758 9a3b
00000150: 2f0b b1bb 333d 21bb be81 da3b da7a cdbb
00000160: 4bc4 913d 198c 9abe aaf2 76be 9a26 5dbe
00000170: 2565 703e b4a3 4d3e 3064 85be 3542 97be
00000180: d8bc 06be 4d81 8f3e 9f1f 873e 5476 5fbe
00000190: 6f09 9f3e 949d 4cbe 9749 b23e 1a52 2ebe
000001a0: de34 61be 4e4c 533e 3228 8abe c0bc 683e
000001b0: 4245 6cbe ee68 9d3e 7dc2 05be 1819 2abe
000001c0: e374 3e3e b525 d03d fdae e43d 7092 2dbe
000001d0: db9e d9bd 2065 323e 24d9 63be fc5a 96be
000001e0: 0559 5c3e c940 e43d 9526 6e3e 9b7c 0cbe
000001f0: 063c 5cbd 5416 5ebe daf1 423e 3684 a1bd
00000200: 9ddf 49be 9eaf 293e cdfc 21be 571d 2a3e

transformer_encoder.layers.0.self_attn.out_proj.weight f4 [44, 44]
-0.031365827 0.10086022 0.064910725 -0.060187105 -0.07438614 -0.03858208 -0.037803397 -0.020950662
0.0069087367 0.06259257 0.113778085 -0.11377335 -0.13064025 -0.042179096 0.051062208 -0.0072329636
0.02621439 0.108236685 -0.05162776 0.02247821 0.06835803 -0.052765813 0.124668054 -0.06615882
-0.17835648 -0.1564162 -0.04233227 0.016887018 -0.104215264 0.073108554 -0.085754916 0.026428089
0.050679695 -0.13377419 0.12754396 0.048960563 0.03658657 -0.06761853 -0.14812353 0.049291346
-0.028650597 0.12621887 0.15710352 -0.0102617815 -0.26686755 0.09782924 0.034871478 0.03346292
-0.13052954 0.047718443 -0.09269076 -0.11500842 0.14756444 0.06407868 0.07563316 0.13429968
0.048765637 0.025782159 0.089637995 -0.10549138 -0.08379287 -0.0767928 0.05752268 0.07711063
0.11064424 -0.066531345 -0.040238842 0.029727526 0.04313413 0.050684404 -0.15588012 0.13136159
-0.04544477 -0.16878732 -0.041034564 -0.06152975 0.03329189 -0.0877685 0.08548861 0.1302124
-0.08276687 -0.029150074 0.061170243 0.020643352 0.063219056 -0.06452391 0.041393347 -0.021962484
-0.1760343 -0.06526807 0.15347336 -0.11360182 0.06910547 0.101779915 0.124365866 -0.063902736
0.02232418 -0.056107294 -0.0031792389 0.012787096 0.13865258 0.056340076 0.06916114 0.10108608
0.03770713 -0.11095753 0.032297008 0.034599677 0.116717875 0.06557646 0.076240554 0.026779639
-0.0023250962 -0.13698865 -0.11806885 -0.071199805 0.029795572 -0.10982396 -0.115133785 -0.023583096
0.1188934 0.035725795 0.029504037 0.14522874 -0.042036124 -0.007200409 0.06037393 0.013761878
-0.046591714 -0.13597354 -0.083115794 -0.12557213 0.32265365 -0.37140432 -0.5402224 -0.49670678
0.3301371 0.42167357 -0.56158924 -0.2867634 -0.5641154 0.5435712 0.3237885 -0.5070129
0.5577489 -0.21650027 0.31207946 -0.37476853 -0.3811434 0.4750071 -0.40495017 0.38876066
-0.43312517 0.55574393 -0.46575934 -0.3879661 0.46993953 0.32563674 0.35360658 -0.30269608
-0.21789292 0.4479871 -0.46001163 -0.25178057 0.22451892 0.49374318 0.25267687 -0.29618382
-0.30307406 -0.43711182 0.2497814 -0.2914647 -0.41477808 0.3992143 -0.4206992 0.42565808
0.32573232 -0.54501235 -0.44314015 -0.42840803 0.50594026 0.29410958 -0.3233257 -0.28934547
-0.33235425 0.3309098 0.5007421 -0.39725536 0.44006935 -0.3967383 0.38860762 -0.4101919
-0.3271073 0.3562299 -0.5683073 0.3103135 -0.48869222 0.51708925 -0.1721243 -0.36326566
0.39747036 0.16132161 0.42608115 -0.1515557 -0.40933254 0.40106043 -0.38758665 -0.39595085
0.31413367 0.4009961 0.40757164 -0.27279997 -0.22339955 -0.42824623 0.266473 -0.4412068
-0.32669526 0.23986511 -0.2801197 0.38452217 -0.09410785 -0.05778347 0.06995323 -0.07613789
-0.0014728362 -0.01946594 0.025152063 -0.013765535 -0.013178401 0.09206282 -0.17846818 0.075270414
-0.060676884 0.057983905 0.0078975875 -0.07505514 -0.049745135 0.08322007 0.09905577 -0.11817214
-0.059668288 0.04777415 0.14731328 -0.10584567 0.007814166 0.021216687 0.10153187 0.022412965
0.14471489 -0.060794752 0.008520959 0.0032985744 0.05978291 -0.114956744 -0.11436282 -0.032412294
00000000: 7479 00bd ce8f ce3d eaef 843d c186 76bd
00000010: c357 98bd 3e08 1ebd bcd7 1abd b9a0 abbc
00000020: af62 e23b 8930 803d 7c04 e93d 0102 e9bd
00000030: 8fc6 05be fdc3 2cbd 9b26 513d 7f02 edbb
00000040: 8fbf d63c 32ab dd3d a177 53bd 3924 b83c
00000050: 4bff 8b3d f720 58bd f751 ff3d 477e 87bd
00000060: 15a3 36be 912b 20be 9a64 2dbd a556 8a3c
00000070: d06e d5bd f0b9 953d 46a0 afbd b87f d83c
00000080: 8395 4f3d 1afc 08be e29a 023e df8a 483d
00000090: cddb 153d 957b 8abd b2ad 17be b9e5 493d
000000a0: a8b4 eabc 853f 013e bfdf 203e 0821 28bc
000000b0: dda2 88be b25a c83d 65d5 0e3d 6a10 093d
000000c0: 89a9 05be 6a74 433d a7d4 bdbd 8989 ebbd
000000d0: 221b 173e af3b 833d 8fe5 9a3d db85 093e
000000e0: 7abe 473d 1b35 d33c 2094 b73d dd0b d8bd
000000f0: 999b abbd 8b45 9dbd e79c 6b3d 2eec 9d3d
00000100: 7399 e23d 9641 88bd 7cd1 24bd 2487 f33c
00000110: 6aad 303d 739a 4f3d 0a9f 1fbe a783 063e
00000120: 4c24 3abd 95d6 2cbe dc13 28bd 9e06 7cbd
00000130: 145d 083d f9bf b3bd a714 af3d 6656 053e
00000140: ad81 a9bd 23cc eebc a68d 7a3d 3f1c a93c
00000150: fe78 813d 1d25 84bd 128c 293d abea b3bc
00000160: 5642 34be 44ab 85bd 1f28 1d3e 12a8 e8bd
00000170: 2b87 8d3d fd71 d03d 88b3 fe3d 70df 82bd
00000180: 33e1 b63c c3d0 65bd c75a 50bb f880 513c
00000190: f1fa 0d3e dac4 663d 5ba4 8d3d 3806 cf3d
000001a0: cb72 1a3d b43d e3bd de49 043d 64b8 0d3d
000001b0: c809 ef3d f34c 863d 0224 9c3d f960 db3c
000001c0: a460 18bb c146 0cbe 15ce f1bd 34d1 91bd
000001d0: d815 f43c 62eb e0bd 43cb ebbd 5631 c1bc
000001e0: 627e f33d 3655 123d 73b2 f13c d8b6 143e
000001f0: 122e 2cbd 69f1 ebbb a74a 773d 8079 613c
00000200: f4d6 3ebd a63c 0bbe 9d38 aabd fb95 00be
00000210: dc32 a53e b528 bebe 044c 0abf 5a50 febe
00000220: bb07 a93e 99e5 d73e 50c4 0fbf a7d2 92be
00000230: de69 10bf 7b27 0b3f 9bc7 a53e 99cb 01bf
00000240: a2c8 0e3f 3fb2 5dbe e1c8 9f3e a9e1 bfbe
00000250: 3a25 c3be 2134 f33e a155 cfbe a30b c73e
00000260: 95c2 ddbe 3c45 0e3f 0278 eebe 7ea3 c6be
00000270: ea9b f03e dcb9 a63e ec0b b53e fbfa 9abe
00000280: 521f 5fbe 915e e53e a586 ebbe 62e9 80be
00000290: 4ae8 653e e8cb fc3e dd5e 813e 68a5 97be
000002a0: 862c 9bbe 1fcd dfbe b2c6 7f3e dc3a 95be
000002b0: cb5d d4be d165 cc3e e365 d7be dbef d93e
000002c0: 63c6 a63e ee85 0bbf 44e3 e2be 4c58 dbbe
000002d0: 4d85 013f 8895 963e f28a a5be 1725 94be
000002e0: 562a aabe 026d a93e a230 003f 0e65 cbbe
000002f0: c550 e13e 4821 cbbe 94f7 c63e ac04 d2be
00000300: 9c7a a7be c463 b63e 967c 11bf 69e1 9e3e
00000310: de35 fabe f65f 043f 5a41 30be f5fd b9be
00000320: 3c81 cb3e 7e31 253e 4f27 da3e 6b31 1bbe
00000330: 0994 d1be cb57 cd3e c271 c6be 12ba cabe
00000340: 21d6 a03e 5c4f cd3e 3bad d03e 70ac 8bbe
00000350: dac2 64be 1743 dbbe 266f 883e dce5 e1be
00000360: 9a44 a7be 339f 753e d96b 8fbe 17e0 c43e
00000370: 9ebb c0bd 5cae 6cbd a443 8f3d 2fee 9bbd
00000380: 2f0c c1ba 0977 9fbc b30b ce3c d788 61bc
00000390: 38ea 57bc 6f8b bc3d 5dc0 36be 6027 9a3d
000003a0: 5388 78bd 8880 6d3d e264 013c 82b6 99bd
000003b0: 8ec1 4bbd 496f aa3d c0dd ca3d 3c04 f2bd
000003c0: bc66 74bd d4ae 433d 4bd9 163e 9dc5 d8bd
000003d0: fd06 003c 9ece ad3c f1ef cf3d 659b b73c
000003e0: 2430 143e eb03 79bd 7e9b 0b3c e52c 583b
000003f0: edde 743d 716e ebbd 0e37 eabd c1c2 04bd

transformer_encoder.layers.0.self_attn.out_proj.bias f4 [44]
0.39026058 0.37358716 0.19381276 0.560191 0.44563028 -0.46732292 0.28187457 0.48202074
0.2635812 -0.07151363 -0.14579111 -0.34224412 -0.22769104 0.28404155 0.3636558 0.34405693
0.44217128 -0.39619106 -0.04803436 -0.28833193 0.11657867 -0.20453511 0.4508435 0.3088132
0.42191964 -0.3982931 -0.2554163 0.4449299 -0.3088933 0.39274395 -0.17700228 -0.014323001
0.53422195 0.05994644 0.038742643 0.55479354 -0.41007861 -0.25364953 -0.4166441 -0.16014448
0.25797954 0.05324421 0.49456745 -0.20344336
00000000: 3cd0 c73e d146 bf3e da76 463e ad68 0f3f
00000010: a729 e43e f344 efbe dd51 903e 6ccb f63e
00000020: 1df4 863e bd75 92bd 444a 15be 9f3a afbe
00000030: d727 69be e56d 913e 1831 ba3e 3b28 b03e
00000040: 4664 e23e 8ed9 cabe adbf 44bd 3ea0 93be
00000050: ccc0 ee3d a771 51be f6d4 e63e c41c 9e3e
00000060: da05 d83e 13ed cbbe edc5 82be dacd e33e
00000070: 4327 9ebe bc15 c93e 1640 35be 05ab 6abc
00000080: c5c2 083f 668a 753d 9bb0 1e3d f306 0e3f
00000090: d3f5 d1be 5ade 81be 6052 d5be eafc 23be
000000a0: e515 843e 9a16 5a3d f237 fd3e 7553 50be

transformer_encoder.layers.0.linear1.weight f4 [180, 44]
-0.14411913 -0.06513919 0.09020064 -0.061059978 -0.1310976 0.052819017 0.00096974685 0.09292606
-0.0749271 -0.062471442 0.13525626 0.010991421 0.19946736 -0.06392611 0.09215953 0.071820945
-0.11706592 0.07573213 0.0731407 -0.058010798 0.115922056 0.14972642 -0.05557158 -0.13791914
-0.07098281 -0.026370386 -0.1636236 -0.032735143 -0.013206559 0.10436913 0.0426033 0.09369806
0.010049597 -0.091831975 -0.019108793 -0.001674984 -0.045407854 -0.03596 -1.1330983e-05 -0.0327122
-0.12944762 0.10277933 -0.11467097 -0.17941064 -0.06953659 -0.14265393 0.01938784 -0.09102247
-0.038550433 0.07151947 -0.062100075 -0.07063595 -0.009103849 -0.054559905 -0.08373206 0.12887652
-0.08357446 -0.046653125 0.10454532 -0.09700177 -0.15922324 0.046793796 -0.09460671 0.09320469
-0.15173028 -0.10625346 0.036555633 -0.121715195 0.10789272 -0.022862468 -0.102800205 0.04607175
-0.10978374 0.03000806 -0.021962395 0.21387722 -0.033778902 -0.1299637 -0.108650625 -0.08275716
-0.0026734094 -0.0055893115 0.056893814 -0.059977327 0.040592417 -0.20615117 0.036534667 -0.06934339
-0.16090655 0.018921474 -0.0012970448 0.11178794 0.11900905 0.09272017 -0.13041839 0.0021879664
-0.009246566 -0.13152868 -0.11035074 -0.15099055 0.04003125 -0.037367903 0.07843819 -0.15880394
-0.017845806 0.08676478 0.01817504 -0.09575555 -0.124951825 -0.04826471 0.056901313 0.007053398
-0.080718964 -0.01914071 0.055911757 -0.09023966 -0.00040672589 0.06663499 0.045711987 0.07444293
0.1174134 -0.09733674 -0.07056381 0.07556291 0.08899684 -0.10768405 -0.018052822 0.10244225
-0.14248602 0.0224812 -0.09859327 0.17056924 0.09634322 -0.062528074 -0.07305854 0.09971904
-0.0030475347 0.13382997 0.015614707 -0.16450171 -0.19214343 0.14107488 -0.012683526 0.02663902
0.0955336 0.00043776684 0.034235083 0.042227756 -0.06635685 0.08257783 -0.15922093 0.06341828
0.020377023 0.054416616 -0.004594159 0.01485672 0.14001678 0.08827297 0.0818581 -0.048931073
0.053561278 0.08165887 -0.09141375 0.13021582 0.08433518 -0.18377735 0.061638232 0.06546969
0.03178026 0.19235343 -0.14925794 0.04648418 0.10648501 0.15002452 0.009815264 -0.07573249
0.08552238 -0.21195546 -0.010488717 -0.096290566 0.094885685 -0.0018260442 -0.13648674 -0.005635579
0.06447084 -0.028601587 0.05628928 -0.09387189 0.18556415 -0.108410366 0.06423117 -0.020729344
0.0717852 -0.068350546 0.08890977 0.03201112 -0.07126228 -0.046201658 0.097101144 0.016977575
-0.20861456 0.0133441575 0.100014776 0.11445835 -0.20676047 0.05845654 -0.034254275 -0.03774062
-0.0023584885 0.10503063 -0.05610163 0.020089336 0.09763016 -0.003845971 0.14259942 -0.14062689
0.0042211455 0.14333053 0.01397012 0.19417858 0.028146595 -0.0099079 -0.00059809384 0.04836657
-0.060710467 0.11093978 0.010349092 0.1064137 -0.13093007 0.06846129 0.1545838 0.102169655
-0.06467226 -0.06265296 -0.17590928 -0.14145945 0.111820936 0.07739615 -0.12639816 -0.1532919
0.021756826 -0.07474464 -0.017872224 0.118140996 -0.14865153 -0.071123324 -0.1076758 -0.18289983
0.050294187 -0.03424929 -0.06014345 0.07171278 -0.073972136 0.04976458 -0.10390279 0.108899936
00000000: f793 13be b267 85bd 1dbb b83d 071a 7abd
00000010: 733e 06be c158 583d 9c36 7e3a 0550 be3d
00000020: 6173 99bd 0ee2 7fbd 9e80 0a3e 5c15 343c
00000030: 2c41 4c3e b1eb 82bd 23be bc3d dc16 933d
00000040: 42c0 efbd 7219 9b3d cbca 953d bb9c 6dbd
00000050: 8b68 ed3d e251 193e 069f 63bd ad3a 0dbe
00000060: 6f5f 91bd b506 d8bc f28c 27be 4915 06bd
00000070: 5360 58bc 7cbf d53d cc80 2e3d c5e4 bf3d
00000080: 11a7 243c 6712 bcbd 0b8a 9cbc 238b dbba
00000090: 96fd 39bd cb4a 13bd 341a 3eb7 3afd 05bd
000000a0: eb8d 04be f87d d23d 9dd8 eabd 6cb7 37be
000000b0: 3369 8ebd df13 12be 3fd3 9e3c fd69 babd
000000c0: 0fe7 1dbd cd78 923d a65c 7ebd 95a9 90bd
000000d0: 4f28 15bc 357a 5fbd b77b abbd 35f8 033e
000000e0: 1629 abbd 5917 3fbd db1b d63d dda8 c6bd
000000f0: 6b0b 23be daaa 3f3d 2ac1 c1bd 1ae2 be3d
00000100: 2f5f 1bbe 6a9b d9bd 5cbb 153d d145 f9bd
00000110: dcf6 dc3d 124a bbbc ea88 d2bd bbb5 3c3d
00000120: 4cd6 e0bd 77d3 f53c 7bea b3bc a102 5b3e
00000130: bf5b 0abd 3415 05be 3884 debd 967c a9bd
00000140: 5e34 2fbb 8b26 b7bb 7d09 693d c9aa 75bd
00000150: 3c44 263d 4b19 53be 60a5 153d e803 8ebd
00000160: b0c4 24be 3501 9b3c 9a01 aaba 13f1 e43d
00000170: 04bb f33d 13e4 bd3d 668c 05be fc63 0f3b
00000180: e97e 17bc 74af 06be 92ff e1bd 449d 1abe
00000190: cff7 233d 160f 19bd 34a4 a03d 809d 22be
000001a0: 5e31 92bc bcb1 b13d d2e3 943c 7c1b c4bd
000001b0: bee6 ffbd 37b1 45bd 5a11 693d 3120 e73b
000001c0: fc4f a5bd facc 9cbc ba03 653d 92cf b8bd
000001d0: d33d d5b9 ed77 883d 7e3c 3b3d 8975 983d
000001e0: 7076 f03d 7c58 c7bd c283 90bd bac0 9a3d
000001f0: fa43 b63d 7589 dcbd 83e3 93bc 3ecd d13d
00000200: dbe7 11be 7e2a b83c 45eb c9bd b4a9 2e3e
00000210: 984f c53d b80e 80bd b79f 95bd 7f39 cc3d
00000220: 26b9 47bb b90a 093e d4d4 7f3c 2373 28be
00000230: 3fc1 44be ef75 103e 90ce 4fbc 133a da3c
00000240: 1fa7 c33d 1284 e539 163a 0c3d 03f7 2c3d
00000250: 1ae6 87bd 911e a93d d00a 23be 71e1 813d
00000260: b7ed a63c f5e3 5e3d 998a 96bb 9a69 733c
00000270: 8f60 0f3e 75c8 b43d 38a5 a73d f36b 48bd
00000280: 1263 5b3d c43c a73d 2237 bbbd 4c57 053e
00000290: ecb7 ac3d 2130 3cbe 5f78 7c3d f914 863d
000002a0: 052c 023d 4cf8 443e 13d7 18be 3266 3e3d
000002b0: d014 da3d 07a0 193e 33d0 203c a319 9bbd
000002c0: 5c26 af3d da0a 59be ded8 2bbc fd33 c5bd
000002d0: 6d53 c23d e057 efba 2ec3 0bbe aaaa b8bb
000002e0: 4a09 843d e04d eabc 978f 663d e83f c0bd
000002f0: 8704 3e3e 4106 debd a28b 833d 96d0 a9bc
00000300: 1e04 933d 5ffb 8bbd 5316 b63d 181e 033d
00000310: f5f1 91bd f33d 3dbd f7dc c63d 8e14 8b3c
00000320: 0e9f 55be 74a1 5a3c 8cd4 cc3d 2469 ea3d
00000330: 04b9 53be 2070 6f3d 364e 0cbd e995 1abd
00000340: df90 1abb 4d1a d73d d3ca 65bd 6492 a43c
00000350: 52f2 c73d b00c 7cbb 9505 123e 7f00 10be
00000360: 8951 8a3b 3dc5 123e eee2 643c c0d6 463e
00000370: b093 e63c bf54 22bc 66c9 1cba 061c 463d
00000380: 8aab 78bd 6534 e33d 3d8f 293c 6def d93d
00000390: 8812 06be 6f35 8c3d 374b 1e3e 533e d13d
000003a0: e472 84bd 3250 80bd 9021 34be bfda 10be
000003b0: 6002 e53d df81 9e3d 856e 01be 8df8 1cbe
000003c0: 5f3b b23c b813 99bd c568 92bc e8f3 f13d
000003d0: 1b38 18be 1ba9 91bd 2185 dcbd 184a 3bbe
000003e0: 4701 4e3d fc48 0cbd fa58 76bd 26de 923d
000003f0: b47e 97bd f2d5 4b3d fcca d4bd ee06 df3d

transformer_encoder.layers.0.linear1.bias f4 [180]
-0.09691059 -0.057440963 -0.11118433 -0.067486115 0.082127325 0.12673254 -0.047483977 0.10937682
-0.08427545 0.05631373 -0.063030824 0.09473113 0.048059843 0.03140988 0.03823644 0.05408419
0.08444023 -0.11670237 0.14342627 -0.070701495 -0.021011643 -0.07916129 0.09094077 -0.05077968
0.12784289 -0.038446054 -0.016674139 0.116767846 0.000120633376 -0.10603211 0.1777797 -0.053113412
-0.058139157 0.09323837 0.05333147 -0.115349956 -0.061161563 0.11781777 -0.09219345 0.17254645
0.17996204 -0.04346957 0.14328317 -0.03761114 -0.08783521 -0.101697534 -0.054815844 -0.008741145
-0.007797596 0.032274775 -0.13881673 0.17070627 -0.03460325 0.19501643 0.022596264 0.08948521
0.007556738 -0.043113466 0.091867134 0.12859787 -0.111418 0.12168554 -0.16867302 0.07728502
0.05624103 0.041769978 0.03414756 0.09449825 -0.11130859 -0.05663785 -0.115641855 0.08395073
-0.021171698 0.041344315 -0.11861129 0.032052908 0.053938314 0.04468869 -0.029222943 0.048709106
-0.0042411895 -0.027023057 0.13658461 0.0067053093 0.09807702 0.19587104 0.11641579 0.11180101
-0.09792469 0.07907318 -0.07892572 0.08215298 0.15781082 -0.015264943 0.18282518 -0.08706779
0.084305294 0.014804905 -0.10679815 -0.12560207 0.1189882 -0.02815287 0.09838326 -0.110469446
0.07964013 -0.09040923 0.17115186 0.07570461 -0.109742925 0.07630063 -0.09256002 0.13321649
-0.08950811 0.15137097 0.1535909 -0.048553467 0.14205125 0.12055987 0.16644964 -0.0076646395
-0.07146774 0.13439748 0.021724664 0.093817316 0.07008184 0.15126108 0.15066838 0.14065318
-0.12842153 0.070315965 -0.07881612 0.08587603 0.12698504 0.074985 0.088297755 -0.120254144
0.016691517 0.01794508 -0.033546414 -0.07751366 0.07317335 -0.111222155 0.15443888 -0.08698142
0.09000817 -0.057763834 0.15425287 -0.12105387 -0.050332148 0.08992003 -0.15072222 0.13861883
-0.0034767913 0.09175397 0.07201295 0.12849952 -0.12709956 -0.10509747 -0.011342638 -0.12014298
0.073473394 0.060481068 0.0665973 -0.000516546 -0.081578754 -0.04487359 -0.022532973 -0.027779918
-0.11210683 0.08864585 0.09382993 -0.007984226 0.021708205 -0.0230951 -0.10988333 0.09772657
0.12995975 -0.017452188 0.011058269 0.12303805
00000000: 0f79 c6bd 3747 6bbd 9cb4 e3bd 2936 8abd
00000010: 5f32 a83d 2dc6 013e 8f7e 42bd f400 e03d
00000020: 9b98 acbd 3aa9 663d 4e16 81bd 6502 c23d
00000030: 66da 443d a5a7 003d d09d 1c3d 6287 5d3d
00000040: 00ef ac3d a701 efbd 56de 123e f2cb 90bd
00000050: 9c20 acbc 501f a2bd 283f ba3d 5bfe 4fbd
00000060: 3fe9 023e 9c79 1dbd 3498 88bc fb23 ef3d
00000070: 8dfc fc38 5d27 d9bd e20b 363e 738d 59bd
00000080: 5323 6ebd c2f3 be3d 1972 5a3d 993c ecbd
00000090: 8c84 7abd 714a f13d ebcf bcbd 04b0 303e
000000a0: f847 383e 260d 32bd d3b8 123e 240e 1abd
000000b0: f2e2 b3bd cc46 d0bd 9486 60bd 0537 0fbc
000000c0: fa82 ffbb 8e32 043d f925 0ebe a0cd 2e3e
000000d0: 23bc 0dbd 63b2 473e cd1b b93c 0644 b73d
000000e0: 839e f73b bf97 30bd d624 bc3d 29af 033e
000000f0: 1f2f e4bd 4536 f93d 9fb8 2cbe 9c47 9e3d
00000100: ff5c 663d ff16 2b3d 50de 0b3d 4c88 c13d
00000110: c2f5 e3bd 17fd 67bd a3d5 ecbd 5cee ab3d
00000120: 4570 adbc a858 293d 7aea f2bd e949 033d
00000130: 6cee 5c3d 7d0b 373d f464 efbc 3383 473d
00000140: adf9 8abb 755f ddbc d6dc 0b3e 36b8 db3b
00000150: 9bdc c83d 6b92 483e 676b ee3d eef7 e43d
00000160: bd8c c8bd 1ff1 a13d cfa3 a1bd d23f a83d
00000170: 2999 213e d019 7abc 8636 3b3e 9950 b2bd
00000180: 41a8 ac3d 4690 723c fdb8 dabd d49d 00be
00000190: 16b0 f33d d9a0 e6bc 2a7d c93d ce3d e2bd
000001a0: 5d1a a33d 7928 b9bd 6f42 2f3e 050b 9b3d
000001b0: e6c0 e0bd 8143 9c3d 1c90 bdbd e769 083e
000001c0: 0750 b7bd fe00 1b3e ef46 1d3e 00e0 46bd
000001d0: e275 113e 18e8 f63d c671 2a3e a827 fbbb
000001e0: ae5d 92bd 7e9f 093e ecf7 b13c 4b23 c03d
000001f0: 1187 8f3d 2fe4 1a3e d048 1a3e 6307 103e
00000200: ef80 03be d101 903d 596a a1bd c6df af3d
00000210: 5e08 023e bc91 993d 74d5 b43d ce47 f6bd
00000220: a6bc 883c 8f01 933c f767 09bd 7bbf 9ebd
00000230: e9db 953d 71c8 e3bd 3a25 1e3e 5123 b2bd
00000240: 3456 b83d c599 6cbd 77f4 1d3e 17eb f7bd
00000250: 1529 4ebd fe27 b83d ed56 1abe 18f2 0d3e
00000260: e1da 63bb 81e9 bb3d 877b 933d 6195 033e
00000270: 6326 02be 583d d7bd 79d6 39bc 860d f6bd
00000280: 3879 963d ffba 773d 2a64 883d d168 07ba
00000290: c312 a7bd 5fcd 37bd 1297 b8bc b692 e3bc
000002a0: 4498 e5bd f58b b53d e829 c03d 45d0 02bc
000002b0: 68d5 b13c ef31 bdbc 830a e1bd de24 c83d
000002c0: 2b14 053e e4f7 8ebc be2d 353c 60fb fb3d

transformer_encoder.layers.0.linear2.weight f4 [44, 180]
0.05597214 0.013505676 0.019300304 -0.053392436 -0.05047538 -0.021525396 0.0141735235 -0.045870308
0.031818166 -0.03659786 0.011490079 -0.05740288 0.008096037 0.015545833 -0.019101625 0.07336669
-0.011238539 0.09490988 0.08784913 -0.0061229565 -0.107989006 -0.005122255 -0.050178427 0.002429447
-0.09084121 0.05042728 -0.073250614 0.01567991 -0.032228526 -0.033875078 0.010963905 0.020257507
-0.017259795 0.0072547933 0.0028885927 0.013685539 -0.013867385 -0.0029333709 -0.053911444 0.047046583
-0.04090248 -0.022310887 -0.07293436 -0.052936774 -0.020245355 0.037745778 0.0151151195 -0.11220675
-0.090675406 -0.008407317 0.047329184 -0.028154248 -0.084067896 -0.036905315 0.010479073 -0.045811694
0.11844566 -0.055825077 -0.0455935 0.03412886 -0.03749094 0.0481137 -0.057570692 0.011991195
-0.010886003 0.06490828 -0.05573887 0.11404191 -0.028147329 -0.031929705 -0.04421802 -0.044009034
-0.015295879 -0.12468262 0.0467577 -0.013988273 -0.040031154 -0.0026369174 0.0019796977 -0.021867078
-0.054557767 -0.03884686 -0.0457287 0.022207178 0.037492428 0.06835086 0.003489019 -0.022306932
0.035077926 -0.028473115 -0.049463414 0.034288634 -0.0211756 0.102753945 -0.04629229 0.06649141
-0.07897809 0.048254613 -0.061990913 -0.029558817 -0.036478993 -0.0690963 0.00058707234 0.023183499
-0.06257775 -0.011118203 -0.0037629695 0.0015772098 -0.05944532 -0.047085904 0.06129899 0.14605826
0.027347978 0.017362623 -0.084328406 0.03698689 -0.029719824 -0.022363355 -0.012850086 -0.0681508
-0.003376872 -0.04889106 0.05330301 -0.03041455 0.03727554 0.13889535 -0.081578724 0.0774019
0.011147453 -0.005551885 -0.041496813 -0.0075646476 0.020680463 -0.018960578 -0.09218903 -0.002544583
-0.086374715 -0.039995156 -0.018255752 -0.08383355 0.013871359 -0.008399278 0.0026960326 0.040956717
-0.053242613 0.022913387 0.026108459 -0.0054327482 0.026534991 -0.0498741 -0.036817037 -0.01922226
-0.039108556 0.026530223 -0.01181446 0.042786878 0.022856135 -0.04402312 -0.009741383 0.005623177
-0.05295223 -0.044132847 0.15340695 0.092454664 -0.07238131 0.011165031 0.010742231 -0.09910236
-0.059098203 -0.012746084 0.044086043 -0.07557302 -0.02056684 -0.055865012 -0.052792337 -0.029276043
-0.05245673 -0.1687446 -0.052690703 -0.0036058922 -0.020357821 0.018660413 -0.003467706 0.0068911593
0.019236978 0.0036641364 -0.007581851 0.00037084456 -0.049862076 -0.017609414 -0.005904419 -0.02932676
-0.008738816 0.012123487 -0.015153081 0.02014029 0.057886925 0.0051160525 -0.020677337 0.0028252362
-0.024044836 0.006625773 0.05514598 -0.013189293 0.028373474 -0.008812394 0.035963137 -0.014697446
-0.02420872 -0.021954177 -0.0037528393 -0.029726276 -0.017214587 -0.02929433 -0.033882093 -0.011622091
-0.0010994144 0.015959127 0.00035971985 0.00087078736 0.010686789 0.0039336346 0.004386035 -0.02756747
-0.018227933 -0.00042279996 0.017444976 0.075859755 -0.052506067 -0.0037249567 -3.3383236e-05 -2.8846309e-05
-0.021711592 -0.0031737005 0.0025511715 -0.006766753 0.008164131 0.002956821 0.0032002195 0.0044505275
-0.014186636 0.038496125 -0.017619077 -0.010367263 -0.0036754953 -0.034049276 -0.0015851662 -0.004039963
0.008648539 0.0056443233 -0.014654505 -0.004808041 0.09066749 -0.06996165 0.01448139 -0.038633145
00000000: 0b43 653d e946 5d3c ac1b 9e3c 07b2 5abd
00000010: 46bf 4ebd 0756 b0bc 1138 683c 81e2 3bbd
00000020: c453 023d a3e7 15bd e240 3c3c 481f 6bbd
00000030: 3ea5 043c f3b3 7e3c 037b 9cbc 4641 963d
00000040: d921 38bc 1c60 c23d 3fea b33d 15a3 c8bb
00000050: 5729 ddbd 97d8 a7bb e587 4dbd 5b37 1f3b
00000060: f50a babd d68c 4e3d 6b04 96bd 2873 803c
00000070: 0f02 04bd 98c0 0abd f3a1 333c 12f3 a53c
00000080: 6a64 8dbc 9eb9 ed3b 8b4e 3d3b 5039 603c
00000090: 0734 63bc cc3d 40bb 3fd2 5cbd ebb3 403d
000000a0: 5c89 27bd 52c5 b6bc 9c5e 95bd 3bd4 58bd
000000b0: 96d9 a5bc 519b 1a3d 68a5 773c a7cc e5bd
000000c0: 07b4 b9bd d8be 09bc 3fdc 413d bda3 e6bc
000000d0: ca2b acbd 072a 17bd 6bb0 2b3c 0ba5 3bbd
000000e0: a393 f23d d6a8 64bd 40c0 3abd b4ca 0b3d
000000f0: 1a90 19bd df12 453d 3fcf 6bbd b876 443c
00000100: 355b 32bc a2ee 843d 714e 64bd ce8e e93d
00000110: 3a95 e6bc b9c8 02bd f41d 35bd d142 34bd
00000120: 919b 7abc 9a59 ffbd 0185 3f3d 122f 65bc
00000130: b5f7 23bd 22d0 2cbb d1bd 013b 9622 b3bc
00000140: f777 5fbd e31d 1fbd 044e 3bbd d4eb b53c
00000150: a991 193d 89fb 8b3d 07a8 643b 07bd b6bc
00000160: dfad 0f3d 7340 e9bc 269a 4abd 3d72 0c3d
00000170: 7478 adbc a970 d23d fc9c 3dbd a62c 883d
00000180: 44bf a1bd a1a6 453d 2fea 7dbd 5525 f2bc
00000190: ff6a 15bd 5c82 8dbd c2e5 193a 52eb bd3c
000001a0: c328 80bd 2029 36bc 279c 76bb 61ba ce3a
000001b0: f07c 73bd 26dd 40bd a614 7b3d 4c90 153e
000001c0: de08 e03c 0f3c 8e3c 5fb4 acbd 917f 173d
000001d0: fd76 f3bc 5b33 b7bc 2b89 52bc a692 8bbd
000001e0: 834e 5dbb fe41 48bd 4254 5a3d ef27 f9bc
000001f0: 3dae 183d 953a 0e3e bf12 a7bd e384 9e3d
00000200: cfa3 363c 96ec b5bb 90f8 29bd dde0 f7bb
00000210: 136a a93c 3753 9bbc 9acd bcbd 05c3 26bb
00000220: 3ae5 b0bd f6d1 23bd 168d 95bc edb0 abbd
00000230: b244 633c 209d 09bc ecaf 303b 3bc2 273d
00000240: ed14 5abd dbb4 bb3c 68e1 d53c 3205 b2bb
00000250: e95f d93c c948 4cbd 76cd 16bd 0078 9dbc
00000260: 4b30 20bd e955 d93c 7091 41bc 4b41 2f3d
00000270: ca3c bb3c 9651 34bd 529a 1fbc a142 b83b
00000280: 70e4 58bd a5c4 34bd b616 1d3e df58 bd3d
00000290: a73c 94bd 89ed 363c 2f00 303c 2ef6 cabd
000002a0: f510 72bd f3d4 50bc 9193 343d 07c6 9abd
000002b0: ca7b a8bc b6d2 64bd c73c 58bd 50d4 efbc
000002c0: dedc 56bd 62cb 2cbe 35d2 57bd d550 6cbb
000002d0: 72c5 a6bc b9dd 983c 7442 63bb 3ccf e13b
000002e0: de96 9d3c 0222 703b 2d71 f8bb ea6d c239
000002f0: 2d3c 4cbd 9e41 90bc db79 c1bb ac3e f0bc
00000300: 402d 0fbc 97a1 463c a144 78bc 40fd a43c
00000310: d71a 6d3d 8fa4 a73b 8563 a9bc 9927 393b
00000320: adf9 c4bc 031d d93b c0e0 613d e817 58bc
00000330: 7d6f e83c dc61 10bc 154e 133d 8ecd 70bc
00000340: 5e51 c6bc 3fd9 b3bc 32f2 75bb 8584 f3bc
00000350: 9b05 8dbc aafa efbc f3c7 0abd 956a 3ebc
00000360: 3a1a 90ba b7bc 823c c898 bc39 8d45 643a
00000370: a417 2f3c b8e5 803b bab8 8f3b 2dd5 e1bc
00000380: bf52 95bc 40ab ddb9 c4e8 8e3c 5c5c 9b3d
00000390: 9a10 57bd 671e 74bb fa04 0cb8 fafa f1b7
000003a0: 82dc b1bc dcfd 4fbb 8e31 273b a3bb ddbb
000003b0: d9c2 053c 39c7 413b c6ba 513b bbd5 913b
000003c0: 106f 68bc 1dae 1d3d e255 90bc 74db 29bc
000003d0: 94e0 70bb 4177 0bbd 5ac5 cfba aa61 84bb
000003e0: 9ab2 0d3c 04f4 b83b 7319 70bc c58c 9dbb
000003f0: e1af b93d 0e48 8fbd 5a43 6d3c ca3d 1ebd

transformer_encoder.layers.0.linear2.bias f4 [44]
0.016371392 -0.007960815 0.008878049 -0.03327619 -0.009973647 -0.0036572288 0.03579237 0.0076816953
-0.012737312 -0.019798456 0.016804395 -0.008898406 0.0009011195 0.0045903567 0.012680267 0.028331148
0.02515623 0.011974976 -0.0120252445 0.023570888 -0.0230791 -0.015665242 -0.00092448195 -0.019163184
0.0017263411 -3.5636258e-05 -0.010832603 -0.039217643 -0.016033124 0.011854534 -0.007718813 0.004068071
0.041953605 0.008393483 -0.0059627024 0.040318757 0.011072889 -0.012034682 -0.0043802187 0.0080566835
0.005051971 0.015014377 0.03745348 -0.005512404
00000000: 4c1d 863c 146e 02bc 3d75 113c 9d4c 08bd
00000010: 8268 23bc 1eae 6fbb 059b 123d bbb6 fb3b
00000020: 29b0 50bc 5f30 a2bc 5fa9 893c 9fca 11bc
00000030: 1b39 6c3a b46a 963b e5c0 4f3c b916 e83c
00000040: 7014 ce3c b132 443c 8805 45bc bc17 c13c
00000050: 6110 bdbc 6554 80bc ef58 72ba 1cfc 9cbc
00000060: 6546 e23a 2478 15b8 3b7b 31bc aea2 20bd
00000070: e657 83bc 8539 423c 19ee fcbb 744d 853b
00000080: 8bd7 2b3d d284 093c c662 c3bb 4825 253d
00000090: 106b 353c 1d2d 45bc f087 8fbb 2e00 043c
000000a0: 018b a53b ddfe 753c d268 193d 65a1 b4bb

transformer_encoder.layers.0.norm1.weight f4 [44]
0.36304358 0.51634645 0.5760313 0.2799772 0.29053745 0.9330807 0.68368155 1.1599559
0.6894136 1.0975322 1.2504404 0.91832376 1.2593713 1.2000856 0.61519474 0.43315947
0.3069287 0.95923877 1.1597536 0.5018893 0.6456098 0.9144654 0.58768743 1.1316416
0.6108103 0.97266716 1.1292622 0.27620247 1.0032305 0.28537416 1.1932878 1.2748059
0.29608694 1.2096394 1.1981422 0.2539265 1.0366195 0.4792713 1.0689336 1.1987692
0.6838001 0.75289 0.29081535 1.1108265
00000000: d9e0 b93e 482f 043f ca76 133f 2c59 8f3e
00000010: 53c1 943e 60de 6e3f c105 2f3f 6f79 943f
00000020: 697d 303f ef7b 8c3f 6e0e a03f 4417 6b3f
00000030: 1433 a13f 689c 993f 677d 1d3f 14c7 dd3e
00000040: c225 9d3e ac90 753f ce72 943f d17b 003f
00000050: af46 253f 681a 6a3f af72 163f a2d9 903f
00000060: 105e 1c3f b700 793f aa8b 903f 696a 8d3e
00000070: db69 803f 901c 923e a8bd 983f d72c a33f
00000080: b598 973e 77d5 9a3f b95c 993f a702 823e
00000090: f3af 843f 0c63 f53e d1d2 883f 4571 993f
000000a0: 860d 2f3f 66bd 403f c0e5 943e 902f 8e3f

transformer_encoder.layers.0.norm1.bias f4 [44]
0.6419722 0.5614642 0.52243274 0.7198912 0.67959726 -0.38587084 0.49830857 -0.42110747
0.4901998 -0.48414743 -0.3817788 -0.43507594 -0.42074853 -0.35685623 0.5468129 0.6087059
0.6617999 -0.52218324 -0.3618198 -0.6815422 0.44240212 -0.42842537 0.55731905 -0.4973438
0.5573682 -0.42635024 -0.510637 0.64297545 -0.46383253 0.6442067 -0.41389444 -0.3902905
0.71732527 -0.42843422 -0.43964905 0.6971346 -0.40632182 -0.68872917 -0.42176494 -0.37109348
0.41744086 0.38709474 0.6510124 -0.42072672
00000000: 4a58 243f 1ebc 0f3f 27be 053f ca4a 383f
00000010: 16fa 2d3f dd90 c5be 4d22 ff3e 669b d7be
00000020: 78fb fa3e 2ce2 f7be 8378 c3be 46c2 debe
00000030: 5a6c d7be dcb5 b6be eefb 0b3f 26d4 1b3f
00000040: b86b 293f cdad 05bf 7240 b9be 8d79 2ebf
00000050: 8882 e23e 925a dbbe 76ac 0e3f d9a3 febe
00000060: afaf 0e3f 944a dabe 1bb9 02bf 0a9a 243f
00000070: 757b edbe bbea 243f f9e9 d3be 28d4 c7be
00000080: a1a2 373f bb5b dbbe ae19 e1be 6a77 323f
00000090: 6a09 d0be 8e50 30bf 93f1 d7be f7ff bdbe
000000a0: cfba d53e 4831 c63e c0a8 263f 7e69 d7be

transformer_encoder.layers.0.norm2.weight f4 [44]
0.60697305 0.6834433 0.6990523 0.42922705 0.46438465 0.98318803 0.76824814 1.1043254
0.8321739 1.0276423 1.1604705 0.9743305 1.155466 1.1089932 0.75436735 0.6517562
0.6001755 0.94582015 1.1179928 0.757349 0.7472028 0.96799886 0.7366954 1.0479119
0.7185834 1.0041502 1.0648371 0.5778324 0.98830605 0.56163675 1.0973567 1.1777896
0.39449942 1.1274115 1.125576 0.4086316 1.0480928 0.7405103 1.0432109 1.1381599
0.7455226 0.7796822 0.49271116 1.0596497
00000000: 9662 1b3f 24f6 2e3f 17f5 323f a6c3 db3e
00000010: d3c3 ed3e 36b2 7b3f e9ab 443f 895a 8d3f
00000020: 5909 553f c889 833f 4c8a 943f b96d 793f
00000030: 4fe6 933f 7df3 8d3f 381e 413f 7fd9 263f
00000040: 1aa5 193f 4521 723f 631a 8f3f a0e1 413f
00000050: af48 3f3f c6ce 773f 1298 3c3f fa21 863f
00000060: 15f5 373f fe87 803f 954c 883f d3ec 133f
00000070: a001 7d3f 6dc7 0f3f 2f76 8c3f cfc1 963f
00000080: d4fb c93e 054f 903f e012 903f 2938 d13e
00000090: e827 863f 1592 3d3f ef87 853f 39af 913f
000000a0: 92da 3e3f 4199 473f a344 fc3e 9aa2 873f

transformer_encoder.layers.0.norm2.bias f4 [44]
0.5501703 0.46790168 0.41750988 0.5732021 0.47596842 -0.42130938 0.45419773 -0.345832
0.43718073 -0.4128014 -0.36996472 -0.42982927 -0.3891903 -0.31458443 0.49009043 0.5230841
0.5258459 -0.49832994 -0.3523044 -0.5864689 0.38461164 -0.45482516 0.49857008 -0.40869033
0.4982346 -0.4078423 -0.44621137 0.49390253 -0.4625326 0.48868585 -0.40382707 -0.33654666
0.54871863 -0.3581419 -0.365858 0.5195972 -0.39873534 -0.6155833 -0.41446415 -0.34162703
0.39336956 0.375877 0.486872 -0.3765111
00000000: f6d7 0c3f cf90 ef3e dbc3 d53e 5fbd 123f
00000010: 22b2 f33e ddb5 d7be 9b8c e83e e410 b1be
00000020: 27d6 df3e b55a d3be 046c bdbe 9512 dcbe
00000030: f343 c7be 3611 a1be 22ed fa3e d7e8 053f
00000040: d69d 063f 1a25 ffbe 3e61 b4be d322 16bf
00000050: d1eb c43e d8de e8be 9444 ff3e dc3f d1be
00000060: 9b18 ff3e b5d0 d0be d175 e4be cbe0 fc3e
00000070: 13d1 ecbe 0835 fa3e 6cc2 cebe d84f acbe
00000080: d378 0c3f 605e b7be bd51 bbbe 5204 053f
00000090: 0a27 ccbe de96 1dbf a534 d4be bde9 aebe
000000a0: bc67 c93e f372 c03e 4947 f93e 10c6 c0be
