model_results/New South Wales/ANN_PSO_Model/2025-08-23_11-10-29/best_model.pth (torch, 12853 bytes, 13 tensors)

layers.0.weight f4 [32, 10]
000000 78 cd 17 3f b2 55 93 be 07 58 8c 3f e0 43 e2 c1
       0.59297895 -0.28776318 1.0964364 -28.283142
000010 38 96 19 41 e8 ed 3f c0 7c 0e 6e 41 97 e7 7e 40
       9.5991745 -2.9988956 14.878536 3.9828851
000020 6a 8c 00 c0 70 5e a4 3f c0 f0 e5 3d 1c c4 e7 3d
       -2.0085702 1.284132 0.1122756 0.11316702
000030 eb d2 ed be 1c f7 de c0 8e 8e 9b 40 ba 5b 2d bf
       -0.4644998 -6.9676647 4.8611517 -0.6771809
000040 0e 20 29 40 01 96 82 3f 82 9a a4 bf 07 82 7e bf
       2.6425815 1.0202028 -1.2859652 -0.99417156
000050 d8 fd bb 3d 1f 95 a8 be 16 33 d6 be 0a a4 42 c1
       0.09179276 -0.3292627 -0.4183585 -12.165049
000060 ff c5 15 41 d2 5d 89 3f 7e 53 0c c0 e9 4c 9a c0
       9.360839 1.0731757 -2.192596 -4.8218884
000070 87 c4 29 3d 39 2e 0b 3f ec 5f 98 3e 73 ba 74 3f
       0.04144719 0.54367405 0.29760683 0.95597
000080 08 32 18 c0 5d 4a 06 40 a9 29 a5 bf 87 0c 6d 40
       -2.3780537 2.0982888 -1.2903339 3.7038896
000090 14 24 e4 bf 73 e5 e7 c0 de 01 bc 40 c5 6c 13 c0
       -1.782351 -7.246759 5.875228 -2.3035138
0000a0 a0 ce 84 bc d5 ed e6 3c 37 27 88 3f df f4 9b 3d
       -0.016211808 0.028189579 1.0636967 0.07615065
0000b0 b3 21 5e 3f 3e 45 10 bc 25 fb 8c be 7f 28 ad be
       0.8677017 -0.008805571 -0.27535358 -0.3381996
0000c0 09 ca 17 be ec fa 9a bd 63 78 33 bf 87 4e 7f bf
       -0.14823164 -0.07567391 -0.7010557 -0.997292
0000d0 87 85 0b 3f 30 18 b8 c1 f8 05 6f 41 dd 44 a7 c0
       0.5450062 -23.01181 14.938957 -5.227156
0000e0 99 8d c2 40 38 f2 8a c0 f3 4b e1 bd 66 37 bb 3f
       6.079785 -4.3420677 -0.11000814 1.4626281
0000f0 06 1c 5d be 6f 51 91 3f b6 77 04 c0 bd e6 11 41
       -0.21592721 1.1352977 -2.0698066 9.118833
000100 03 af 08 c1 e7 5a c1 c0 2f cc c5 40 79 05 a6 40
       -8.542727 -6.0423465 6.1811748 5.188168
000110 46 69 6b c0 4c 88 06 c0 04 9a 1b bf bd 31 2e be
       -3.6783004 -2.102069 -0.60781884 -0.17011161
000120 d3 7b 02 be 3e c8 3a 42 3f 50 a4 c1 8e f6 73 40
       -0.12742548 46.69555 -20.539183 3.8119235
000130 78 6a 9a c0 6b ad 5e 41 dc 08 1b 3f e0 ac 33 3f
       -4.8254967 13.917338 0.60560393 0.7018566
000140 5a 35 0b c0 fd 9a bd 3f 26 77 1d c0 25 41 d4 40
       -2.1751313 1.4812924 -2.4603972 6.632952
000150 62 74 85 c0 f6 c0 2b c0 af 19 99 c0 79 f2 08 c1
       -4.170457 -2.6836524 -4.784385 -8.559197
000160 85 a8 48 40 4a 55 25 bf 48 f4 67 bf 7e 6b 65 3f
       3.1352856 -0.64583266 -0.9060712 0.89617145
000170 c1 06 fd bf 82 a6 b8 40 64 09 e0 c0 b9 df d0 3e
       -1.9767686 5.7703257 -7.0011463 0.40795687
000180 f7 a2 b9 c0 14 68 2a c1 02 ba 81 40 d2 d4 ac bf
       -5.801143 -10.65041 4.053956 -1.3502448
000190 f0 46 07 bf be a5 45 bf fb eb 5b 3f 28 74 8e c0
       -0.5284262 -0.7720603 0.8590695 -4.451679
0001a0 aa 14 70 c1 3c 40 12 c0 4e 9a a0 41 48 e6 85 41
       -15.005045 -2.2851706 20.075344 16.737442
0001b0 e4 1b 54 bf 84 1c c5 bf cb 47 df 3f 3c f5 41 bf
       -0.8285506 -1.5399327 1.7443784 -0.7576482
0001c0 ae c0 2d 3f aa f6 de c1 38 78 95 41 91 91 85 3f
       0.6787213 -27.870441 18.6837 1.0435048
0001d0 89 d8 2a 3f 2d b0 f8 c0 5d ae af bd 72 16 c3 3f
       0.66736656 -7.771506 -0.08578179 1.5241225
0001e0 65 71 dc 3f 99 60 8a bf ab d9 5f 3f 31 ab d6 c1
       1.7222105 -1.0810729 0.8744151 -26.83359
0001f0 2b 3c 99 41 46 0a bc bf 49 c7 3b 40 27 39 ac c0
       19.154379 -1.4690635 2.9340384 -5.3819766
000200 27 86 89 be 69 ed b7 3f 2e 02 81 3e 24 84 18 c0
       -0.26860163 1.4369327 0.25196975 -2.3830652
000210 d9 f0 1b 40 4d 85 01 c1 ac f6 45 c0 26 a4 be c0
       2.4365752 -8.095044 -3.0931807 -5.9575377
000220 c5 24 4b 41 54 02 e4 40 e0 22 d0 bf 1d 07 e4 3c
       12.696477 7.125284 -1.6260643 0.027835423
000230 bf 65 84 bd 0c 40 ed 3f bb 1f 10 c0 7d aa 0c c0
       -0.06464719 1.853517 -2.2519367 -2.1979058
000240 38 d1 03 c1 74 f9 f7 40 99 4a 14 41 24 c6 c6 40
       -8.238579 7.749201 9.268212 6.211687
000250 31 fa 80 40 07 7a 0a c0 ca 2a 63 bb 45 43 24 bf
       4.030541 -2.163698 -0.0034662955 -0.64165145
000260 47 92 df be 29 4e 18 42 44 4d 9e c1 99 d0 d6 40
       -0.43666288 38.07633 -19.787727 6.7129636
000270 0e 0b 21 c1 fe 53 b5 3f eb 54 eb be 3e 5d 39 bf
       -10.065199 1.4166257 -0.45963225 -0.724079
000280 c9 1b be be c2 b1 01 40 e0 6d db be c9 33 be c1
       -0.37130573 2.0264745 -0.42857265 -23.775286
000290 64 cd 81 40 78 b2 ac be a6 fb 73 41 28 3a 23 41
       4.056322 -0.3372991 15.248938 10.201698
0002a0 7b 3f be 3e 35 fb e3 bf 82 2e 78 3f 1c 24 61 3f
       0.37157807 -1.7811037 0.96945965 0.87945724
0002b0 39 f4 58 bf 48 d6 e1 c1 29 6a 11 41 b1 7a 23 41
       -0.84747654 -28.22963 9.088418 10.217454
0002c0 d3 c5 f9 40 23 af 24 3e 17 4b b3 3f 65 90 77 3f
       7.8053985 0.16082434 1.4007291 0.96704704
0002d0 75 35 82 bd 2e 9a f2 3f a3 42 1f c0 69 47 34 41
       -0.06357852 1.8953302 -2.4884422 11.267434
0002e0 83 a7 87 c1 b6 ed d7 3f 93 b8 9b 40 f8 8d b4 40
       -16.956793 1.6869419 4.866281 5.64233
0002f0 31 63 96 bf e8 28 20 c0 34 68 f8 3e 5d 35 a8 3c
       -1.1749021 -2.5024967 0.48517 0.020533258
000300 7d 10 66 3f 6d 32 f5 c1 f9 4e 48 41 9c e7 23 c0
       0.8986891 -30.649622 12.51928 -2.5610113
000310 88 50 5d 41 c0 19 b8 3f 5a cf aa bf b1 00 dc 3e
       13.832161 1.4382858 -1.3344529 0.42969278
000320 08 75 89 3d d9 34 5c bf 00 a9 e2 bd ba ee db 40
       0.06711775 -0.8601814 -0.110673904 6.8728914
000330 3b 2e ee c0 c0 8c 3c be 83 38 55 41 bd 88 02 41
       -7.4431434 -0.18413067 13.326297 8.158383
000340 79 d2 b9 40 eb 45 7f c0 5d 37 b9 bf 0b 5f 50 40
       5.8069425 -3.9886425 -1.447002 3.255801
000350 6a 91 22 bf 35 1e 54 c1 55 9b 93 c0 9c 9e 8d bf
       -0.63503134 -13.257375 -4.6127114 -1.1064029
000360 93 9d db 40 59 95 97 40 60 7d 2c 3e 60 c5 38 c0
       6.862985 4.736981 0.16844702 -2.8870468
000370 36 6d 0f bf e5 69 fa 3d 6e 3e 9b 3d c0 9a 92 3e
       -0.5602602 0.12227229 0.07580267 0.2863369
000380 00 07 15 bf fc 70 74 3f 67 d2 9e be 52 3b da be
       -0.58213806 0.954849 -0.310199 -0.42623383
000390 77 45 a0 bd f1 b8 57 3d d9 65 bf be f9 57 f0 3c
       -0.07825749 0.05266661 -0.3738239 0.029338824
0003a0 e5 a4 09 bf b3 1d d6 c1 3f ed 42 41 38 be 7b 40
       -0.53767234 -26.764502 12.182921 3.933485
0003b0 de e9 cd 3e f7 f8 10 c1 36 29 f9 3e 57 df 0c 40
       0.4021749 -9.060782 0.48664254 2.2011316
0003c0 5f 57 b6 3f 61 9b cd bf 71 a8 c6 3f 3d d6 b2 c1
       1.4245414 -1.6063043 1.5520154 -22.354609
0003d0 2a 06 9e 41 55 62 8e c0 ed 3c 8f 40 4b 58 65 c0
       19.75301 -4.4495034 4.476187 -3.583514
0003e0 47 ad 85 3e 8d 8c 55 3f f7 76 02 be 10 43 0b 3e
       0.26108763 0.8341759 -0.12740694 0.13599801
0003f0 9d 4a ba bf 5c f9 06 41 ab f5 1a c1 16 10 a5 bf
       -1.455402 8.435879 -9.684978 -1.2895534

layers.0.bias f4 [32]
000000 ea c9 50 c0 8f 2e 09 be 3d 6a ad bf fb 73 0a 40
       -3.2623239 -0.13396667 -1.3548046 2.163329
000010 d2 16 56 bd c2 fe 27 c0 02 d3 17 c0 8f 9a d2 40
       -0.052267857 -2.6249242 -2.372254 6.581367
000020 72 21 c5 bf c1 ae a4 bf d6 1b 86 3f 2b bf 8d 40
       -1.5400832 -1.2865831 1.0477245 4.429586
000030 03 f2 61 3d 09 77 e0 bf 89 09 c5 3f 9b 4c c1 40
       0.05516244 -1.7536327 1.5393535 6.0406013
000040 5b 0c a9 c0 0a f1 58 3e 9e 61 82 c0 8e 7d a8 3f
       -5.282758 0.21185699 -4.074416 1.3163316
000050 d1 cc 44 40 cb b1 81 bf 3e 89 08 bd 8c 45 01 3f
       3.075001 -1.0132383 -0.03333401 0.50496745
000060 36 b5 87 bf 70 85 6f bf 3a ac a1 bd e7 38 4f c0
       -1.0602176 -0.93562984 -0.07894178 -3.237848
000070 d0 58 6d 40 e1 db 94 c0 b6 8f e9 bd ea 86 c2 3f
       3.7085457 -4.6518407 -0.11404364 1.5197423

layers.1.weight f4 [32]
000000 52 19 1a 40 e9 74 27 3f 38 31 53 3f 69 ee 09 40
       2.4077954 0.65412766 0.82496977 2.1551764
000010 16 e0 30 3e 9b 15 0b 40 b0 cf 58 40 a9 3e 58 40
       0.17272982 2.1731937 3.3876762 3.3788245
000020 86 96 39 40 34 a7 44 40 2b 32 13 40 24 d7 03 40
       2.8998122 3.0727053 2.299937 2.0600061
000030 7d 77 fd 3f aa a3 09 40 e0 74 0c 40 ff 71 20 40
       1.980209 2.1506143 2.1946335 2.5069578
000040 44 bb f9 3f 76 1c 15 40 02 d2 34 40 03 3b 17 40
       1.9510274 2.329862 2.8253179 2.3629768
000050 e9 6d 1c 40 ac 62 ff 3f 03 ef 24 3e d5 33 fc 3f
       2.4442084 1.9951987 0.161068 1.9703318
000060 a3 47 00 40 a3 34 37 40 dd da d2 3f 88 5d 16 40
       2.0043724 2.8625877 1.6473042 2.3494587
000070 ae 02 19 40 61 ff 34 40 ba 40 0d 40 ab 06 4d 40
       2.3907886 2.828087 2.2070756 3.203532

layers.1.bias f4 [32]
000000 85 91 3a 3f fd 2f b0 bf d1 9a e8 bf c8 88 82 be
       0.72878295 -1.3764645 -1.8172246 -0.2549498
000010 b2 ad 82 bf c5 86 04 c0 d5 dd af bf 64 ba b2 c0
       -1.0209258 -2.0707257 -1.3739573 -5.585253
000020 a9 9a 22 c0 b1 93 05 c0 c0 ac e3 bf 0d d5 79 3f
       -2.5406897 -2.0871394 -1.7787094 0.97590715
000030 74 f8 4b 3f 53 22 a7 be 21 21 08 bf 59 e3 a1 c0
       0.79675984 -0.32643375 -0.5317555 -5.0590024
000040 69 33 01 bf 76 60 20 3f dc 89 88 bf 48 f5 63 3e
       -0.5046907 0.6264719 -1.0667071 0.22261536
000050 50 43 30 bf 7c d4 5c bf 4c ee 07 bf 49 aa 23 c0
       -0.6885271 -0.86261725 -0.5309799 -2.5572684
000060 2a 56 81 3f 5e 66 99 bf 7d 03 6e 3f 64 92 b8 bf
       1.010442 -1.1984365 0.9297407 -1.4419675
000070 66 c4 50 bf 98 2e d6 bf df 44 1d c0 c5 99 a4 bf
       -0.8154968 -1.6732969 -2.4573286 -1.2859427

layers.1.running_mean f4 [32]
000000 9b e0 24 46 53 aa 75 45 aa cc 05 46 c3 63 01 c5
       10552.151 3930.6453 8563.166 -2070.235
000010 a5 12 00 45 32 b6 57 46 17 c5 31 c6 58 44 9b c6
       2049.1653 13805.549 -11377.272 -19874.172
000020 6c 78 db c5 04 2e 09 c6 d8 5f 71 c6 9e 0f 9c 46
       -7023.0527 -8779.504 -15447.961 19975.809
000030 a4 29 9e 46 cd b9 36 c5 e3 90 ff c5 ae ff 9e c6
       20244.82 -2923.6125 -8178.111 -20351.84
000040 5e ed 96 45 ad 33 23 46 3e 1d 91 c6 df 88 50 46
       4829.671 10444.919 -18574.621 13346.218
000050 17 bc ed c5 1a 0f 83 c5 56 84 41 c4 c9 00 35 46
       -7607.511 -4193.8877 -774.06775 11584.196
000060 2a dc a2 46 1b f8 2d c6 74 1c 82 46 96 00 ea c5
       20846.082 -11134.026 16654.227 -7488.073
000070 35 da 13 46 50 9b 41 c6 2a 77 cd 45 20 5e 1f c5
       9462.552 -12390.828 6574.8955 -2549.8828

layers.1.running_var f4 [32]
000000 74 d8 7f 49 c3 80 a7 49 36 54 19 49 db e3 fa 49
       1.04794325e+06 1.3721844e+06 628035.4 2.0552914e+06
000010 31 d9 de 49 59 11 1c 49 56 46 17 4b 79 65 91 48
       1.8255741e+06 639253.56 9.913942e+06 297771.78
000020 90 85 3d 4a de 84 b0 49 83 22 c2 48 04 6a b1 49
       3.105124e+06 1.4460438e+06 397588.1 1.4533765e+06
000030 ae f1 b0 49 29 89 87 49 61 48 a5 49 db c9 13 4a
       1.4495258e+06 1.1103091e+06 1.3539961e+06 2.4213668e+06
000040 da c4 fc 49 92 9d 41 49 b6 39 b9 4a af 1a 66 49
       2.0706832e+06 793049.1 6.069467e+06 942506.94
000050 91 36 2b 49 08 53 b4 4a 92 bb 36 48 5e ec 80 48
       701289.06 5.908868e+06 187118.28 264034.94
000060 09 d4 c3 49 d5 4c db 49 f8 41 34 49 1c 08 10 4a
       1.6042251e+06 1.7965066e+06 738335.5 2.359815e+06
000070 8b 4d 54 4a 3d bd 88 4a 9b 7b 58 49 ce d8 01 4b
       3.4783708e+06 4.4806705e+06 886713.7 8.509646e+06

layers.4.weight f4 [32, 32]
000000 b0 19 e3 bf a2 c4 1d bf 38 e2 41 c0 2b 72 9f bf
       -1.7742214 -0.6162816 -3.0294323 -1.2456716
000010 ee 4e 71 3e 6f b5 c5 bf d8 00 24 3f a9 5c 84 40
       0.23565266 -1.5445994 0.6406379 4.136311
000020 ff aa 61 bf b0 d1 5f bf 48 f6 3d 40 84 e6 e1 c0
       -0.88151544 -0.8742933 2.9681568 -7.059389
000030 53 d9 9b c0 ec b6 36 c0 f7 14 33 3f fd 60 5b 40
       -4.870279 -2.8549147 0.69953865 3.4277947
000040 d8 b4 45 3e e4 53 d8 bf bc c4 f4 3e be a1 57 bf
       0.19307268 -1.6900601 0.47806346 -0.84231174
000050 9b 87 12 bf e9 d0 74 bf 6a 0d 1e 3d 01 07 38 c0
       -0.5723817 -0.9563127 0.03858701 -2.8754275
000060 e7 b3 98 c0 3d 35 01 be 61 d8 20 bf c4 a8 cb bd
       -4.7719607 -0.12617965 -0.6283017 -0.09944299
000070 2b 43 9f be b9 f0 a6 be 5a b8 ea 3f 22 a1 ad bf
       -0.31105933 -0.32605532 1.833751 -1.3564799
000080 37 cb 35 bf 84 08 5e 3d 22 91 5b bf 24 4d f8 bf
       -0.71013206 0.05420734 -0.8576833 -1.9398541
000090 f4 31 48 bd 15 a2 3d c0 97 2c d6 c0 ea 80 a4 40
       -0.048875764 -2.9630177 -6.692943 5.1407366
0000a0 a8 a6 ee c0 dc c2 9f c0 a2 c3 68 c0 d4 11 01 bf
       -7.457844 -4.9925365 -3.6369405 -0.5041783
0000b0 d0 4d 8b bf 54 93 ab bf 2b e7 19 c0 66 46 82 40
       -1.0883121 -1.3404336 -2.4047344 4.0710936
0000c0 bf 3a 65 bf 0a ea 07 bf 17 09 9b c0 a6 21 07 bf
       -0.89542764 -0.5309149 -4.8448596 -0.5278572
0000d0 1a 2e a6 bf 01 1d 3f bf 40 7b 04 bb 63 0e 17 c0
       -1.2982819 -0.7465363 -0.0020215064 -2.360253
0000e0 80 a4 f2 be 2e 16 7d c0 11 a0 18 bf 26 c0 56 bf
       -0.4739113 -3.9544787 -0.5961924 -0.83886945
0000f0 d0 66 4c bf 82 d5 b0 c0 01 99 78 c0 95 b9 87 c0
       -0.7984438 -5.526063 -3.8843386 -4.241404
000100 73 b6 63 c0 b4 d0 0e c0 63 7e 04 c0 61 83 ef 3f
       -3.5580108 -2.2314882 -2.070214 1.8711969
000110 0b 24 3b 3d 68 b2 51 c1 a8 1b 0d 3e 23 7b 66 3f
       0.04568867 -13.106056 0.13780081 0.9003164
000120 63 43 dd bf a1 c0 09 bf d2 31 40 3f 07 7d 26 c0
       -1.728619 -0.53809553 0.7507602 -2.601381
000130 a4 24 0a c0 08 98 99 c0 99 76 f5 3f 62 4e dc 3e
       -2.1584864 -4.7998085 1.9176818 0.4302855
000140 76 ef 42 c0 e5 2d 98 bf 30 da 47 40 a3 3f 9e c0
       -3.0458655 -1.1889006 3.122692 -4.945268
000150 e1 80 81 3f 83 14 d0 c0 87 21 73 3e e0 9b 3c c1
       1.0117456 -6.502504 0.23743258 -11.788055
000160 f3 f6 33 c0 42 ea 60 bf 72 96 f0 bf a6 1a d2 c0
       -2.8119476 -0.8785745 -1.8795912 -6.565753
000170 98 da bf c0 64 0a ef 3e 24 5d 8c c0 9e 17 84 3f
       -5.995434 0.46687615 -4.3863697 1.0319707
000180 7e d4 a1 bf 76 13 9b bf 75 2b 25 c0 ca e1 6a 3f
       -1.2642972 -1.2115314 -2.5807774 0.91750777
000190 a1 21 27 3e 0f 3f c5 c0 96 30 3e bf 86 95 81 40
       0.16321422 -6.1639476 -0.74292886 4.0495024
0001a0 5f 36 da bf 66 4c 9c be c3 1c f4 3e 7d c3 13 be
       -1.7047843 -0.30527037 0.47678193 -0.14430042
0001b0 3d f6 69 be 96 83 27 bf f9 6f be 3e 25 96 9a 40
       -0.22847839 -0.6543516 0.37194803 4.830828
0001c0 68 07 be c0 7b 95 0d bf c5 2c cc bf ac b3 13 c0
       -5.938404 -0.55306214 -1.5951163 -2.3078413
0001d0 c0 bf ca 3f 2a 0d df c0 8e 7e fe 3d b7 11 1b c0
       1.5839767 -6.970357 0.12426482 -2.4229562
0001e0 75 78 e9 3e 6d 1f 02 be 89 49 b3 be 05 3f b4 c0
       0.45599714 -0.127073 -0.3501704 -5.632693
0001f0 b8 70 da c0 cc 48 e4 bf 58 bd 9f 3f 93 56 a1 3e
       -6.8262596 -1.7834716 1.2479658 0.31511363
000200 69 d5 ff bf a2 31 9e be a5 1b ad bf c5 2a 22 c0
       -1.9987003 -0.30897242 -1.3524061 -2.5338604
000210 97 a1 d0 3c f5 97 68 c0 6e 59 7e bf b1 db ba 40
       0.025467677 -3.6342747 -0.9935521 5.839318
000220 aa d4 a8 bf 3b b4 d0 bf dd 9d 13 c0 38 db 34 c0
       -1.31899 -1.6305002 -2.3065102 -2.82588
000230 5d ff 0d c0 f2 5d 4f c0 2d f5 00 c0 b1 ef ad 3f
       -2.2187111 -3.240109 -2.0149643 1.3588773
000240 b1 07 2b bf 9a a3 4f c0 64 9d b5 bf 08 6f c0 bf
       -0.6680861 -3.2443604 -1.4188657 -1.5033884
000250 2d d4 0b c0 37 62 85 bf 1b 77 8a bc b4 16 be c0
       -2.1848252 -1.0420598 -0.016902497 -5.9402714
000260 1a c4 3f c0 ad d9 f6 bf f2 38 36 c0 b7 c5 c6 bf
       -2.996344 -1.9285179 -2.8472257 -1.5529088
000270 94 3f 60 bf 69 3c d1 bf f0 83 ee c0 c9 a5 88 bf
       -0.8759701 -1.6346561 -7.4536057 -1.0675594
000280 e6 84 ee bf 28 99 90 be fe cc 11 c0 95 77 4a bf
       -1.8634307 -0.2824185 -2.2781367 -0.7908872
000290 6f dd 81 3d 52 a0 8a c0 dd 07 4f bf 3c bd c5 40
       0.06341063 -4.3320704 -0.80871373 6.17935
0002a0 b5 7a 03 c1 38 44 00 c1 0a c4 ab c0 bf 76 d9 bc
       -8.217458 -8.016655 -5.3676805 -0.02654588
0002b0 24 38 27 bf 30 7e e4 bf ae 7a 83 bf e0 6a 28 40
       -0.6532004 -1.7851009 -1.0271814 2.6315231
0002c0 0b 0e d1 be d9 50 d5 be fe d4 9c bf c2 f8 47 bf
       -0.40831026 -0.41663244 -1.22525 -0.7811395
0002d0 9e 3e 06 bf 34 14 73 bf 5d de 8e 3e d1 70 a9 c0
       -0.52439296 -0.949527 0.27904025 -5.2950215
0002e0 5f a8 5b 3c 2a 6d de bf b7 19 36 bf 11 e7 2a c0
       0.013406842 -1.7377064 -0.7113299 -2.6703532
0002f0 58 6e c1 bf 0f 07 3f c0 77 cb 17 c1 fc 8e c6 bf
       -1.5111799 -2.9848058 -9.487174 -1.5512385
000300 21 cd 21 be dd 35 86 bf b3 13 27 c0 5a 6d 16 c0
       -0.15800907 -1.0485188 -2.6105773 -2.3504243
000310 34 71 83 be d6 da f0 c0 a1 af ce bf c2 d8 ac 40
       -0.25672305 -7.5267134 -1.6147348 5.4014597
000320 51 dd 12 c1 3c eb 1e c1 6a 05 51 c0 f9 90 f5 be
       -9.179032 -9.93243 -3.2659554 -0.47962168
000330 1f dc b6 bd ee 65 5c bd 39 27 26 c0 de 01 2d 40
       -0.089287035 -0.053808145 -2.596144 2.703239
000340 2e 1d f3 bf 8e 80 a0 bf 50 30 26 c0 1f 4a 72 be
       -1.899328 -1.2539232 -2.5966988 -0.23661087
000350 00 40 1d 3e c6 e1 51 c0 1b 9b a5 3e a8 eb 1a c1
       0.15356445 -3.279405 0.323449 -9.682533
000360 2e d9 9f be 97 1b 80 c0 af 32 3a 3c a1 4e 01 c0
       -0.31220382 -4.003368 0.011364623 -2.0204241
000370 90 83 bc bf 8a 07 91 c0 df bb 1e c1 cf 9f 26 c0
       -1.472765 -4.5321703 -9.920867 -2.603504
000380 8a 06 fc bf 15 d5 04 bf 86 49 8b bf 08 d9 e6 bf
       -1.9689496 -0.5188764 -1.0881813 -1.8034983
000390 6e 73 c4 3e 8d b9 22 c0 4a 88 85 bf 12 0a b4 40
       0.38369316 -2.5425751 -1.0432217 5.6262293
0003a0 bb 90 2c c0 1f 60 31 c0 44 e4 17 c0 b6 76 0d c0
       -2.6963336 -2.7714918 -2.3733072 -2.2103705
0003b0 b9 69 1e c0 10 f0 fd bf 76 a4 36 c0 d4 e3 20 40
       -2.4752028 -1.9838886 -2.853788 2.5139055
0003c0 2d e1 31 c0 28 35 2c c0 21 15 ec bf a7 0b ee bf
       -2.7793686 -2.6907444 -1.8443948 -1.8597306
0003d0 7c a4 a4 bf bc ec 2e c0 be 15 bc 3e e9 f1 a5 c0
       -1.2862697 -2.7331991 0.36735338 -5.18578
0003e0 f9 34 47 c0 a0 44 cf bf fe ba 1c c0 6c 08 42 c0
       -3.1126082 -1.6192818 -2.448913 -3.031764
0003f0 63 fe db bf 59 51 09 c0 18 2e a8 c0 45 64 94 bf
       -1.7187008 -2.14559 -5.2556267 -1.15931

layers.4.bias f4 [32]
000000 51 db 92 3f 68 88 7f 3f c9 8b d3 3f b0 05 bc be
       1.147318 0.99817514 1.6527034 -0.3672309
000010 3b 17 0b 41 15 6f 94 40 7b 56 1f 40 e6 5a 4c 40
       8.6931715 4.63856 2.4896533 3.193048
000020 47 94 94 40 59 d8 88 3f 39 d6 7a 40 80 5c 74 40
       4.6431003 1.0691024 3.919325 3.8181458
000030 5e 26 8e 3f d6 cd 03 bf 41 9d a5 40 76 1c 90 3e
       1.1105459 -0.51485956 5.175446 0.28146714
000040 11 29 4f 40 b6 1d 9e 40 f5 19 7a bf 9f 8b 5c 3e
       3.2368815 4.941127 -0.9769586 0.21537636
000050 a4 e7 b0 c0 da d1 c1 40 6d c3 bb bf 01 2b 72 3e
       -5.5282764 6.0568666 -1.4669014 0.23649217
000060 8d cc 0d c0 ec 74 83 c0 7d 04 a9 3f 2a d1 95 40
       -2.2156098 -4.1080227 1.3204495 4.6817827
000070 41 a8 a9 40 a1 a4 11 40 aa a7 94 40 da 26 65 40
       5.301789 2.2756732 4.645467 3.5804963

layers.5.weight f4 [32]
000000 32 04 9e 40 dc 1c e1 40 1b 2b 10 40 32 fd ae 40
       4.938012 7.034773 2.252631 5.4684076
000010 3b f2 e7 40 0a 5c 09 41 25 70 ab 40 1a 7c 03 41
       7.248319 8.58497 5.3574395 8.217798
000020 b4 65 d2 40 65 93 c6 40 56 a6 d8 40 68 fd e6 40
       6.574915 6.2054925 6.7703047 7.2184334
000030 a4 84 ec 40 04 69 b5 40 8b 67 e8 40 b8 15 b5 40
       7.3911915 5.6690693 7.2626395 5.658901
000040 5b 58 d8 40 ff 11 de 40 6a e6 83 40 f4 b2 c7 40
       6.7607856 6.939697 4.1218767 6.240595
000050 02 63 c9 40 65 2d d1 40 16 a9 dc 40 84 ec b8 40
       6.293336 6.5367913 6.8956404 5.7788715
000060 1f 2b 08 41 fd bf 8e 40 19 4d cf 40 0d 64 f8 40
       8.510528 4.460936 6.4781613 7.762213
000070 9c 41 f2 40 97 52 b9 40 60 85 d0 40 08 88 d2 40
       7.570509 5.791332 6.516281 6.5791054

layers.5.bias f4 [32]
000000 f2 41 7b 3e 02 9d 33 c1 6c 69 58 40 b6 9e 50 bf
       0.24536875 -11.225832 3.3814344 -0.81492174
000010 ef 54 0f c1 16 dc 2d c1 f6 52 9e c0 72 50 20 c1
       -8.958236 -10.866232 -4.947627 -10.01964
000020 24 26 02 c1 4b ff 8a c0 c4 b1 16 c1 ee 7e f8 c0
       -8.134312 -4.3436637 -9.4184 -7.7654943
000030 64 6b 14 c1 45 f0 79 3d 5d e9 0e c1 3b a6 8e bf
       -9.276218 0.061020155 -8.931973 -1.114448
000040 1d 30 30 c1 59 ea 1a c1 6d ca 02 40 79 16 6a c0
       -11.011746 -9.682214 2.043605 -3.6576216
000050 d3 50 b6 c0 c0 e8 2a c1 e9 7e 35 c1 c7 bf 52 c0
       -5.697366 -10.681824 -11.343484 -3.2929552
000060 4a 76 2b c1 a7 03 5f 3f 1d 32 fa c0 48 c6 25 c1
       -10.716379 0.8711495 -7.8186173 -10.3609085
000070 42 4b 19 c1 97 b4 a5 c0 76 91 20 c1 79 12 d6 c0
       -9.5808735 -5.1782947 -10.035513 -6.689755

layers.5.running_mean f4 [32]
000000 90 4a fa c1 36 e4 f8 c1 60 8d 18 c2 e5 40 ba c1
       -31.286407 -31.111431 -38.13806 -23.281687
000010 eb 8a f0 c1 1f 82 9c c1 8c ef d7 c1 71 5e 14 c2
       -30.067831 -19.563536 -26.991966 -37.092228
000020 10 23 2a c2 e4 8a 10 c2 fa dc 19 c2 67 51 14 c2
       -42.53424 -36.135635 -38.465797 -37.079494
000030 73 e5 0f c2 9b 39 e9 c1 0a 21 ce c1 21 91 d0 c1
       -35.97407 -29.153128 -25.766132 -26.070864
000040 2f 42 dc c1 20 c7 e3 c1 18 f8 f1 c1 2b 47 0e c2
       -27.532316 -28.472229 -30.24614 -35.5695
000050 8e 2d 48 c2 c5 e9 16 c2 78 1f 16 c2 b7 6f f8 c1
       -50.044487 -37.72829 -37.53073 -31.054548
000060 6b 8d 00 c2 38 3b 0f c2 07 ac 3d c2 27 f4 01 c2
       -32.138103 -35.80783 -47.417995 -32.48843
000070 da ae e2 c1 70 55 05 c2 fc dc 03 c2 6e b7 e9 c1
       -28.335377 -33.333435 -32.965805 -29.214565

layers.5.running_var f4 [32]
000000 be ed b5 44 c4 6b be 43 7b 00 2e 45 7e 4d 8c 44
       1455.4294 380.84192 2784.03 1122.4216
000010 24 b2 44 44 47 79 85 43 96 9d d5 43 6a dc 34 44
       786.78345 266.94748 427.23114 723.444
000020 03 a7 98 44 4a 79 a2 44 e1 e0 fe 43 e6 77 43 44
       1221.2191 1299.7903 509.75687 781.8734
000030 53 22 2b 44 32 db ba 44 0d a2 e2 43 d0 c9 bc 44
       684.5363 1494.8499 453.26602 1510.3066
000040 fb d8 90 43 47 dc 0c 44 cc 11 9b 44 3c 73 a7 44
       289.69516 563.44183 1240.5562 1339.6011
000050 ca 7a 82 44 ac e3 d9 43 81 14 c3 43 e9 dc 9c 44
       1043.8372 435.7787 390.1602 1254.9034
000060 93 61 c1 43 26 5d fe 44 9d b2 45 44 50 42 f1 43
       386.7623 2034.9109 790.79083 482.51807
000070 57 5d 12 44 30 90 4d 44 76 73 ea 43 70 63 c0 43
       585.45844 822.2529 468.90204 384.77686

output_layer.weight f4 [1, 32]
000000 e4 23 33 40 c7 53 b5 41 56 8b 26 40 08 14 53 40
       2.7990656 22.665907 2.6022544 3.2980976
000010 f2 3d 98 41 8b 2c b7 41 31 dc cf 40 c7 95 b6 41
       19.030247 22.89675 6.495629 22.823133
000020 bd 47 7b 41 f4 8c d8 40 09 a4 88 41 f6 6a 72 41
       15.705014 6.767206 17.080095 15.1511135
000030 d6 06 a0 41 56 80 5a 40 96 73 8c 41 1b 1d 61 40
       20.003338 3.414083 17.556438 3.5174015
000040 29 39 a3 41 d2 9f 9c 41 a7 e8 2d 40 ea e0 da 40
       20.40291 19.578037 2.717325 6.8399553
000050 aa 3d 02 41 c7 f2 a6 41 0e 99 b2 41 1e 1d a4 40
       8.140055 20.868544 22.324734 5.1285543
000060 6a d8 b8 41 5d 24 21 40 bc 73 44 41 61 94 a4 41
       23.10567 2.5178444 12.278255 20.57245
000070 c3 f7 a3 41 db 85 03 41 14 15 98 41 62 40 2b 41
       20.495977 8.22018 19.010292 10.703218
