model_results/New South Wales/ANN_PSO_Model/2025-09-01_19-08-21 - Transformed ($)/best_model.pth (torch, 420853 bytes, 19 tensors)

layers.0.weight f4 [128, 11]
0.52287924 -0.162801 0.8279164 -2.7403402 -1.8702812 1.3623661 1.3269112 2.443372
-1.2821182 0.21715795 0.088041626 -0.054657392 0.13530728 -0.38376892 -2.4462104 0.67612135
1.5374624 -6.9378214 -5.6877127 -0.66030204 -0.5568262 0.26471928 -0.003025547 0.2816327
-0.86239624 1.9062427 3.2051613 -1.4363481 -1.5325277 -0.9750352 1.990216 0.007903054
0.08680379 0.010958217 0.22279766 -0.24712676 -8.969889 3.7291217 0.038472947 -1.6486642
-2.0223897 0.77216727 0.15378997 -0.5662139 0.012972531 0.054345984 0.020527693 2.8690732
-0.5109967 -0.50633717 -0.91144407 0.010836888 -1.2898675 0.5629849 -2.7173889 0.2857099
-0.035340615 0.09960603 -1.3337363 -1.2875433 -1.0567132 4.2209888 5.5475187 -0.0329692
1.3304025 0.36731714 0.09274153 0.33061442 0.71345556 -2.7157874 2.8048522 -1.6244805
3.7278466 4.1951957 0.045233045 0.30393055 0.29330793 -0.13790704 -1.1798053 -1.193387
0.44654527 1.9429318 1.8444641 -4.2332306 -3.503571 0.47004914 0.086716495 0.024679214
-0.18709156 -0.0024812582 -0.3757137 2.4895635 3.1414812 -1.8978444 -2.0243893 -2.3230345
2.0868704 -1.0776474 -0.033392675 0.048781592 0.37939858 -0.7543393 1.7971413 1.9129003
-0.5884983 -0.9819448 -1.2005965 2.2362008 -1.1993852 -0.005030288 0.9627821 -0.028371938
-0.3175987 2.5045173 0.030023836 0.7911444 -2.4520392 -2.0674925 0.6843192 -0.9004407
0.19204901 0.18370669 0.5707288 -1.9475932 4.728287 -2.186085 0.54267424 0.5533111
0.62760377 0.27111405 0.3013381 -0.058654435 0.08082222 -0.18015963 0.104997404 -2.6866336
-3.8342156 2.4606562 -4.9541545 -3.9288158 -2.7116303 -1.1049604 -0.036699682 0.17583592
0.13849686 0.80165994 -4.2375517 1.1658405 -0.8657423 2.6770647 3.5069516 -0.31365225
0.25904113 0.36904648 -0.29746372 -0.710884 1.3588557 0.11124314 -0.52211285 1.1343952
-2.19492 0.45301807 -0.18352473 0.12844487 0.04678698 -0.33348215 -0.6773 0.065257795
1.9758885 2.0903637 1.085394 -3.5935378 -4.272309 1.24749 -0.5312504 -0.050693363
0.033875246 0.090468295 -0.49810624 0.35902676 0.32882014 1.194605 -7.185004 -5.6420484
0.33725217 -0.9332043 0.17370601 0.34685233 0.8465444 -0.19474746 -1.2913163 0.8221196
-0.52337563 5.160283 5.0418324 -0.07941061 -0.68680006 0.1569638 -0.06934634 0.5161426
-1.4280708 5.131597 -3.6336865 0.20330815 0.65831757 0.47906604 1.2819543 -0.42769518
-0.026621308 -0.06861484 -0.5749176 0.43359658 -5.4523697 2.8606603 0.074352056 -1.6403877
-1.2800499 -0.002887221 0.12878709 -0.99632424 0.021962414 -0.09739576 0.07191395 1.7479606
-9.364424 -0.5185697 2.8478658 4.90511 -0.12525576 -0.09588083 -1.1893584 -0.063180275
-0.36341053 0.6249187 -7.044288 3.6120026 0.91167367 -0.38763443 0.028868867 -1.5010751
-0.38542724 0.03673303 0.21408209 1.1074892 0.2096781 -3.0067098 1.4200275 -0.70452183
5.1327767 4.496513 -0.89360213 -0.4722056 0.20032524 0.08601054 -0.119106255 0.14820851
00000000: 6adb 053f 4eb5 26be 54f2 533f bc61 2fc0
00000010: 6065 efbf 0362 ae3f 3ad8 a93f 3560 1c40
00000020: 731c a4bf a75e 5e3e 2b4f b43d 6ee0 5fbd
00000030: fe8d 0a3e 5c7d c4be b68e 1cc0 4a16 2d3f
00000040: 91cb c43f a202 dec0 be01 b6c0 8e09 29bf
00000050: 298c 0ebf 4989 873e 4148 46bb 2932 903e
00000060: 00c6 5cbf c3ff f33f 5d21 4d40 41da b7bf
00000070: de29 c4bf e89b 79bf 66bf fe3f d07b 013c
00000080: 2fc6 b13d 188a 333c 1225 643e cc0e 7dbe
00000090: aa84 0fc1 eea9 6e40 cf95 1d3d 6e07 d3bf
000000a0: d56e 01c0 c1ac 453f 1e7b 1d3e 65f3 10bf
000000b0: bd8a 543c e599 5e3d b129 a83c e59e 3740
000000c0: aed0 02bf 509f 01bf 6654 69bf 348d 313c
000000d0: 611a a5bf c71f 103f b3e9 2dc0 9148 923e
000000e0: 52c1 10bd 3ffe cb3d dfb7 aabf 38ce a4bf
000000f0: 6142 87bf 5712 8740 4685 b140 b60a 07bd
00000100: a14a aa3f fe10 bc3e 45ef bd3d 4b46 a93e
00000110: 06a5 363f 76cf 2dc0 b382 3340 faee cfbf
00000120: 0a95 6e40 0b3f 8640 4946 393d c99c 9b3e
00000130: 752c 963e 8137 0dbe dc03 97bf e8c0 98bf
00000140: 95a1 e43e fdb1 f83f 6617 ec3f a076 87c0
00000150: 823a 60c0 48aa f03e 6b98 b13d 102c ca3c
00000160: ee94 3fbe 9b9c 22bb 8c5d c0be 0255 1f40
00000170: 070e 4940 91ec f2bf 988f 01c0 99ac 14c0
00000180: 498f 0540 5af0 89bf c2c6 08bd 35cf 473d
00000190: 8840 c23e 611c 41bf ba08 e63f ebd9 f43f
000001a0: d3a7 16bf bc60 7bbf 25ad 99bf ea1d 0f40
000001b0: 7485 99bf 1dd5 a4bb e378 763f 446c e8bc
000001c0: 4c9c a2be 034a 2040 8cf4 f53c 7088 4a3f
000001d0: 36ee 1cc0 cc51 04c0 8b2f 2f3f 4883 66bf
000001e0: 7fa8 443e 9b1d 3c3e 481b 123f bc4a f9bf
000001f0: 214e 9740 d1e8 0bc0 b3ec 0a3f cca5 0d3f
00000200: a4aa 203f 76cf 8a3e fd48 9a3e a23f 70bd
00000210: 1f86 a53d c47b 38be e108 d73d cef1 2bc0
00000220: ca63 75c0 647b 1d40 6f88 9ec0 b871 7bc0
00000230: 5a8b 2dc0 586f 8dbf 6852 16bd 550e 343e
00000240: 1fd2 0d3e 9639 4d3f 069a 87c0 433a 953f
00000250: 4aa1 5dbf 0755 2b40 e571 6040 0797 a0be
00000260: 0aa1 843e a9f3 bc3e 2a4d 98be 7efc 35bf
00000270: fcee ad3f 72d3 e33d 30a9 05bf dd33 913f
00000280: 9279 0cc0 fcf1 e73e e8ed 3bbe 0d87 033e
00000290: b4a3 3f3d 2cbe aabe 8863 2dbf e1a5 853d
000002a0: eae9 fc3f 85c8 0540 31ee 8a3f 86fc 65c0
000002b0: c1b6 88c0 c1ad 9f3f 0700 08bf d8a3 4fbd
000002c0: c5c0 0a3d 7147 b93d c807 ffbe 5bd2 b73e
000002d0: 1d5b a83e d1e8 983f 8eeb e5c0 a98b b4c0
000002e0: 51ac ac3e 7ae6 6ebf fddf 313e a196 b13e
000002f0: 22b7 583f e16b 47be da49 a5bf 6e76 523f
00000300: f2fb 05bf 0a21 a540 b156 a140 08a2 a2bd
00000310: 21d2 2fbf 1ebb 203e 7405 8ebd ec21 043f
00000320: 06cb b6bf 0b36 a440 528e 68c0 0330 503e
00000330: 8087 283f 2548 f53e 1417 a43f ddfa dabe
00000340: ee14 dabc f085 8cbd cd2d 13bf 5f00 de3e
00000350: d079 aec0 0f15 3740 e445 983d 39f8 d1bf
00000360: add8 a3bf 8837 3dbb c3e0 033e 1b0f 7fbf
00000370: 85ea b33c 6e77 c7bd 9f47 933d 2cbd df3f
00000380: aed4 15c1 fcc0 04bf 6f43 3640 a9f6 9c40
00000390: 0c43 00be 2b5d c4bd e53c 98bf a964 81bd
000003a0: f210 babe acfa 1f3f cf6a e1c0 0d2b 6740
000003b0: 7263 693f 0578 c6be 677e ec3c 3b23 c0bf
000003c0: b856 c5be 6075 163d 5638 5b3e 35c2 8d3f
000003d0: dbb5 563e ef6d 40c0 76c3 b53f 8b5b 34bf
000003e0: b53f a440 6fe3 8f40 1cc3 64bf efc4 f1be
000003f0: 0f22 4d3e 4b26 b03d fbed f3bd f9c3 173e

layers.0.bias f4 [128]
-0.06377368 -0.045452625 0.18395364 0.23708676 -0.14878206 -0.047793277 0.010705717 -0.13476756
-0.16318548 0.032927576 -0.05459157 0.21719503 -0.033888225 0.23063196 -0.22119051 0.14301881
0.07404591 -0.031352993 -0.00045182733 -0.099540465 0.25132117 0.15794848 -0.24889353 -0.19228554
-0.07585497 0.16173916 0.081816256 -0.057967592 -0.09401863 -0.15022795 0.27043635 0.042054944
0.15500495 -0.053390887 0.20765825 0.11248145 0.19436482 0.26082212 0.092006005 -0.011459428
0.2038725 -0.2418967 -0.21096753 0.25796652 0.1680575 -0.030332549 -0.21169382 0.019366954
0.28782842 -0.28103268 0.16297661 -0.10585247 -0.2893145 -0.14257878 0.053161707 0.15610644
0.005037398 -0.21245696 0.28863716 -0.2587578 -0.08277821 0.12826474 -0.010625246 0.11548407
0.040938012 -0.24363445 -0.16286473 0.19690308 0.24293613 -0.051031623 -0.27353337 0.11031889
-0.26182678 -0.2310685 -0.19158852 -0.13974449 0.11529154 0.1876879 0.26365635 -0.22789128
-0.24636492 0.15912914 0.041214854 0.27872932 0.1933085 0.2240635 0.17560208 0.24824916
-0.01580708 0.29626054 -0.14207369 0.27913174 -0.058036998 0.1731609 0.20703493 0.013640258
-0.14140704 -0.11761312 0.23099773 0.15614562 -0.21306318 0.08328403 0.13567474 -0.07683964
0.18454896 -0.12332109 0.080610804 -0.08878862 0.065009065 -0.23012282 0.16773838 -0.16351153
-0.10144865 -0.15404807 -0.0011661799 -0.077654704 -0.039298773 0.21318913 0.20763062 -0.20158459
0.05927549 -0.06352694 -0.02360914 0.06773682 -0.19714719 -0.26068524 0.25236073 -0.10648637
00000000: c69b 82bd 882c 3abd 585e 3c3e dfc6 723e
00000010: 535a 18be e2c2 43bd 0867 2f3c 8200 0abe
00000020: 181a 27be 11df 063d 699b 5fbd 6068 5e3e
00000030: 61ce 0abd c92a 6c3e c47f 62be 8673 123e
00000040: 62a5 973d ff6b 00bd 3de3 ecb9 dfdb cbbd
00000050: 2bad 803e 3fbd 213e f2dd 7ebe 80e6 44be
00000060: da59 9bbd f39e 253e 488f a73d 6d6f 6dbd
00000070: d78c c0bd 5bd5 19be a276 8a3e ce41 2c3d
00000080: 9eb9 1e3e 67b0 5abd 5da4 543e ad5c e63d
00000090: 9207 473e 7a8a 853e a56d bc3d 53c0 3bbc
000000a0: f4c3 503e c5b3 77be df07 58be 3014 843e
000000b0: 4417 2c3e f77b f8bc 44c6 58be 72a7 9e3c
000000c0: 3f5e 933e 84e3 8fbe 57e3 263e 2ec9 d8bd
000000d0: 0821 94be 2c00 12be 17c0 593d 5eda 1f3e
000000e0: c210 a53b 518e 59be 40c8 933e e77b 84be
000000f0: 9f87 a9bd d557 033e 8315 2ebc e982 ec3d
00000100: 9eae 273d 4f7b 79be 03c6 26be f6a0 493e
00000110: 40c4 783e 8906 51bd 910c 8cbe dfee e13d
00000120: 290e 86be 399d 6cbe c82f 44be 2e19 0fbe
00000130: f91d ec3d 4231 403e f7fd 863e 555c 69be
00000140: 1647 7cbe c0f2 223e e8d0 283d 9cb5 8e3e
00000150: aaf2 453e e770 653e 08d1 333e 0735 7e3e
00000160: d97d 81bc 76af 973e c47b 11be 5bea 8e3e
00000170: 34b8 6dbd 1751 313e f700 543e 647b 5f3c
00000180: 02cd 10be 26df f0bd ab8a 6c3e a3e4 1f3e
00000190: 3c2d 5abe d190 aa3d 52ee 0a3e 1a5e 9dbd
000001a0: 67fa 3c3e c58f fcbd 4717 a53d cfd6 b5bd
000001b0: 7923 853d 51a5 6bbe 9cc3 2b3e 916f 27be
000001c0: 4fc4 cfbd c7be 1dbe 81da 98ba 6e09 9fbd
000001d0: c0f7 20bd 404e 5a3e 1f9d 543e 316c 4ebe
000001e0: dbca 723d 6a1a 82bd f567 c1bc 9ab9 8a3d
000001f0: f4e0 49be 8978 85be 6d35 813e 8715 dabd

layers.1.weight f4 [128]
0.6023717 1.0544094 1.3025721 1.4892856 2.5260289 0.9070585 0.7761322 0.8823431
1.1274518 1.6018729 1.2161876 1.6689018 1.5882483 0.81650025 0.77331555 1.765285
1.1450961 0.61619943 1.889529 1.9334686 2.4576957 1.2748235 0.99230736 2.7366838
1.3589058 1.2514439 1.9486948 1.266668 1.9313077 1.2447407 1.6227387 1.075674
1.6506611 1.1132296 1.7795541 1.5690258 1.6707553 1.1757107 1.9770355 1.9180033
0.98908466 0.9959786 1.4000164 1.1604882 1.3612229 1.0074253 1.4219968 1.4790331
1.2644498 1.5907015 0.97801465 0.8527714 1.3760381 0.8901122 1.1709844 1.0332431
1.089628 0.48933047 0.917445 1.283529 0.8269671 1.676859 1.0762844 1.8303381
1.2748567 1.0969207 1.9574265 1.0654194 1.8431288 1.0471566 1.9587922 1.9810206
1.234614 1.9189686 1.2511662 1.027779 2.114477 1.4708899 1.1086466 1.4439938
1.2684102 1.5442789 1.1059338 1.038436 0.7898317 2.1509056 1.387997 1.5519524
1.0910014 0.8984163 1.8334068 1.0130513 1.8606126 0.707164 0.9702933 1.79101
1.5180533 0.3317931 0.87999195 1.5456085 1.8393768 1.212597 1.8529866 1.6166955
1.4156085 0.96233696 1.475144 1.6923292 1.6612982 1.0399163 1.2299806 1.9580095
0.91803765 1.0293208 1.5660721 1.1354445 0.7546587 1.3731076 0.9560925 1.737239
1.237705 0.84700316 0.96042633 1.1727273 1.5648181 1.6374216 0.98398346 0.98549414
00000000: 0835 1a3f e3f6 863f afba a63f e9a0 be3f
00000010: 75aa 2140 fc34 683f 9ab0 463f 3de1 613f
00000020: 5750 903f 2c0a cd3f 09ac 9b3f 939e d53f
00000030: b84b cb3f 2906 513f 02f8 453f dcf4 e13f
00000040: 8292 923f 3fbf 1d3f 16dc f13f e67b f73f
00000050: e34a 1d40 6b2d a33f db07 7e3f d425 2f40
00000060: a0f0 ad3f 502f a03f d56e f93f 2d22 a23f
00000070: 1735 f73f aa53 9f3f e7b5 cf3f b0af 893f
00000080: dd48 d33f 4f7e 8e3f 6ec8 e33f d6d5 c83f
00000090: 4fdb d53f b07d 963f 800f fd3f 2281 f53f
000000a0: a734 7d3f 74f8 7e3f bd33 b33f e18a 943f
000000b0: 8d3c ae3f 50f3 803f fe03 b63f f550 bd3f
000000c0: 7ed9 a13f 1b9c cb3f 2b5f 7a3f 3a4f 5a3f
000000d0: 0422 b03f 65de 633f d1e2 953f 4f41 843f
000000e0: ee78 8b3f 8689 fa3e addd 6a3f ae4a a43f
000000f0: 1eb4 533f 51a3 d63f b0c3 893f 8548 ea3f
00000100: 812e a33f e667 8c3f f48c fa3f aa5f 883f
00000110: a5eb eb3f 3a09 863f b4b9 fa3f 1592 fd3f
00000120: d507 9e3f c3a0 f53f 3726 a03f 438e 833f
00000130: 9753 0740 1f46 bc3f 22e8 8d3f cad4 b83f
00000140: 445b a23f eeaa c53f 3d8f 8d3f 79eb 843f
00000150: 6932 4a3f 70a8 0940 e3a9 b13f 60a6 c63f
00000160: efa5 8b3f 9cfe 653f 13ad ea3f aaab 813f
00000170: 8e28 ee3f b308 353f 2465 783f d13f e53f
00000180: 924f c23f c9e0 a93e 2747 613f 80d6 c53f
00000190: b370 eb3f 6136 9b3f aa2e ed3f e1ef ce3f
000001a0: a932 b53f b75b 763f 85d1 bc3f 3e9e d83f
000001b0: 6ba5 d43f fa1b 853f 0170 9d3f 0ea0 fa3f
000001c0: 8404 6b3f c9c0 833f 0d75 c83f 3f56 913f
000001d0: 5031 413f fdc1 af3f 7ac2 743f d95d de3f
000001e0: 1e6d 9e3f 33d5 583f 80de 753f ee1b 963f
000001f0: f64b c83f 0897 d13f 57e6 7b3f 5849 7c3f

layers.1.bias f4 [128]
-0.5412774 -0.68047535 -0.5508345 -0.28563347 -0.21344706 -1.0307605 -0.62978095 -0.5567225
-0.7362486 -0.47538388 -0.47583827 -0.487457 -0.8886659 -0.34211156 -0.5954132 -0.7278057
-0.7957766 -0.5456087 -0.5570988 -0.06731156 -0.51198417 -1.0505923 -0.4852798 -0.13918164
-0.9034661 -0.8883605 -0.5074829 -0.54464227 -0.3282114 -0.89619046 -0.07148674 -0.0021458382
-0.7131987 -0.64446944 -0.67943966 -0.13817093 -0.32407817 -0.59968966 -0.5952316 -0.2900857
-0.64559895 -0.09639484 -0.3589986 -0.8911983 -0.696561 -1.2226397 -0.20301633 -0.91533744
-0.86445314 -0.7276089 -0.8469588 -0.41530716 -0.31258917 -0.42114893 -0.56352556 -0.13953188
0.033535667 -0.88010854 -0.5598225 -0.55384356 -1.186543 -0.5790312 -0.91334283 -0.40005395
0.095504686 -0.8835404 0.058508545 -1.0139858 -0.38428545 -0.32331926 -0.2513266 -0.116862856
-1.0154021 -0.01067184 -0.5717633 0.15182804 -0.64474624 -0.3806424 -0.81115645 0.05354416
-0.49551973 -0.63619757 -0.5435825 -0.78927296 -0.12450874 -0.17896886 -0.50069964 -0.96195674
-0.82799226 -0.045520477 -0.73767245 -0.371537 -0.7313062 -0.25643 -0.18463701 -0.6601989
-0.4047712 -0.61277163 -0.29841116 -0.7539151 -0.46783042 -0.33762914 -0.61034197 -0.62493014
-0.10358685 -1.0505073 -0.80836535 -0.01382155 -0.35971048 -0.3983646 -0.5787545 -0.11830548
-0.69814366 -0.6858424 -0.16230801 -0.038927563 -0.7324932 -0.84542215 -0.83501875 -0.6977578
-0.56282824 -0.28076932 -0.5436615 -0.011885553 -0.07411206 -0.831646 -0.6651456 -0.43804115
00000000: 2891 0abf a233 2ebf 7d03 0dbf 8d3e 92be
00000010: de91 5abe f6ef 83bf 5339 21bf 5e85 0ebf
00000020: ca7a 3cbf 8465 f3be 13a1 f3be f793 f9be
00000030: 9c7f 63bf 3f29 afbe 006d 18bf 7951 3abf
00000040: 04b8 4bbf 03ad 0bbf 079e 0ebf a5da 89bd
00000050: 6511 03bf cf79 86bf 9876 f8be a285 0ebe
00000060: 8e49 67bf 986b 63bf 66ea 01bf ad6d 0bbf
00000070: 530b a8be bd6c 65bf a467 92bd 31a1 0cbb
00000080: 3194 36bf f3fb 24bf c2ef 2dbf ae7c 0dbe
00000090: 93ed a5be 4385 19bf 1961 18bf 1d86 94be
000000a0: f945 25bf a86a c5bd aace b7be 9225 64bf
000000b0: d251 32bf 757f 9cbf 83e3 4fbe 8e53 6abf
000000c0: cd4c 5dbf 9444 3abf 4bd2 58bf 24a3 d4be
000000d0: b00b a0be d5a0 d7be 3643 10bf 72e1 0ebe
000000e0: b25c 093d cb4e 61bf 8750 0fbf b1c8 0dbf
000000f0: a4e0 97bf 643b 14bf d6d0 69bf dfd3 ccbe
00000100: f697 c33d b42f 62bf a8a6 6f3d 49ca 81bf
00000110: 10c1 c4be 1a8a a5be e1ad 80be cb55 efbd
00000120: b2f8 81bf f1d8 2ebc 145f 12bf cf78 1b3e
00000130: 170e 25bf 90e3 c2be f3a7 4fbf 1f51 5b3d
00000140: c3b4 fdbe d8dd 22bf 3928 0bbf cb0d 4abf
00000150: 70fe febd 9d43 37be da2d 00bf cc42 76bf
00000160: 4df7 53bf ae73 3abd 1ad8 3cbf 193a bebe
00000170: e236 3bbf cb4a 83be 7c11 3dbe cc02 29bf
00000180: 2c3e cfbe 9ade 1cbf 59c9 98be 9400 41bf
00000190: 7887 efbe badd acbe 5f3f 1cbf 6cfb 1fbf
000001a0: 5825 d4bd 0677 86bf 08f1 4ebf c873 62bc
000001b0: f92b b8be 72f6 cbbe 4129 14bf 254a f2bd
000001c0: 8bb9 32bf 5e93 2fbf 1234 26be 8272 1fbd
000001d0: ad84 3bbf 966d 58bf cac3 55bf 41a0 32bf
000001e0: 8315 10bf ffc0 8fbe 662d 0bbf 9fbb 42bc
000001f0: 10c8 97bd c1e6 54bf fb46 2abf ee46 e0be

layers.1.running_mean f4 [128]
-810.34247 -55.594807 2879.155 3589.1772 -916.6401 -533.4835 4095.791 -394.65045
2651.0632 1642.6667 443.10037 -3381.0115 -4718.85 2338.88 100.027596 1387.9551
-357.92822 1633.806 -4519.4478 2534.4302 -9502.224 3467.1204 2621.985 -2386.8767
-2085.6648 954.2494 -330.81485 -1473.9008 5586.939 3466.8318 -1198.8508 -204.52432
7310.456 1786.2087 -3639.1226 1169.9883 -2444.6 615.29486 -4225.2524 997.0925
-264.6179 315.53793 -3242.7627 -1978.1982 -2279.4038 3896.2053 -486.93057 1060.2582
-2176.3794 -5721.64 1246.9258 -973.60486 -3637.476 -1094.9509 2089.5881 106.88006
-273.2884 -413.0149 -393.73666 934.7553 4028.494 1151.3558 1604.6906 2972.0742
-1396.3019 5385.0107 424.6147 -689.77344 99.774704 2995.2646 4475.6616 -1149.2289
780.3757 -374.23093 1025.5192 -933.20056 -4321.2505 -1212.1262 1832.7875 -2685.0837
-2160.6497 -3287.443 790.1789 2445.9895 -3.8581934 5149.551 -404.98303 -3025.627
-788.874 -485.1589 1810.8164 1611.8428 2392.5881 918.8838 -126.147125 -4031.103
329.19907 380.34128 228.4268 1157.7118 -3766.4104 2435.127 -3373.2405 1540.9727
406.2499 -2921.533 -2337.6938 -3472.7676 3996.2524 1489.5035 1466.7997 2969.5623
2116.9524 751.8088 138.51424 369.84424 221.03032 1208.009 3671.9824 4526.0156
1246.8994 1362.5398 593.8783 -603.6571 131.05504 -2038.1138 586.5368 168.07338
00000000: eb95 4ac4 1561 5ec2 7bf2 3345 d652 6045
00000010: f728 65c4 f25e 05c4 a8fc 7f45 4253 c5c3
00000020: 03b1 2545 5655 cd44 d98c dd43 2f50 53c5
00000030: cd76 93c5 142e 1245 210e c842 907e ad44
00000040: d0f6 b2c3 cb39 cc44 953b 8dc5 e266 1e45
00000050: e578 14c6 edb1 5845 c3df 2345 072e 15c5
00000060: a35a 02c5 f68f 6e44 4d68 a5c3 d33c b8c4
00000070: 8397 ae45 4fad 5845 3adb 95c4 3a86 4cc3
00000080: a673 e445 ae46 df44 f671 63c5 a03f 9244
00000090: 9ac9 18c5 dfd2 1944 050a 84c5 ec45 7944
000000a0: 174f 84c3 dbc4 9d43 34ac 4ac5 5846 f7c4
000000b0: 7676 0ec5 4983 7345 1d77 f3c3 4388 8444
000000c0: 1206 08c5 1fcd b2c5 a0dd 9b44 b666 73c4
000000d0: 9e57 63c5 6ede 88c4 6999 0245 97c2 d542
000000e0: eaa4 88c3 e881 cec3 4bde c4c3 57b0 6944
000000f0: e7c7 7b45 63eb 8f44 1996 c844 30c1 3945
00000100: a989 aec4 1648 a845 ae4e d443 8071 2cc4
00000110: a68c c742 3c34 3b45 4bdd 8b45 53a7 8fc4
00000120: 0b18 4344 8f1d bbc3 9d30 8044 d64c 69c4
00000130: 010a 87c5 0a84 97c4 3319 e544 57d1 27c5
00000140: 650a 07c5 1777 4dc5 738b 4544 d5df 1845
00000150: a4ec 76c0 68ec a045 d47d cac3 081a 3dc5
00000160: f037 45c4 5794 f2c3 205a e244 f87a c944
00000170: 6989 1545 90b8 6544 544b fcc2 a6f1 7bc5
00000180: 7b99 a443 af2b be43 436d 6443 c7b6 9044
00000190: 9166 6bc5 0832 1845 d9d3 52c5 209f c044
000001a0: fd1f cb43 8798 36c5 1a1b 12c5 480c 59c5
000001b0: 0ac4 7945 1d30 ba44 9759 b744 ff98 3945
000001c0: 3d4f 0445 c3f3 3b44 a583 0a43 10ec b843
000001d0: c307 5d43 4a00 9744 b87f 6545 2070 8d45
000001e0: c8dc 9b44 4651 aa44 3678 1444 0eea 16c4
000001f0: 170e 0343 a4c3 fec4 5ba2 1244 c912 2843

layers.1.running_var f4 [128]
481674.53 541303.56 180164.42 151610.45 2.470329e+06 319505.84 1.6962891e+06 6.3366325e+06
102447.35 183533.7 696354.94 2.9890888e+06 1.3467545e+06 1.2412712e+06 1.1083326e+06 261797.58
542457.7 319831.0 1.1724752e+06 369153.66 474391.5 96373.16 1.1508455e+06 5.292644e+06
382450.34 273263.38 187990.53 696511.1 45153.164 665679.0 657706.4 770894.9
70208.92 261910.2 1.2469256e+06 535586.7 754705.9 304347.34 1.4392456e+06 168364.3
313139.25 819976.4 128626.5 147617.05 1.0512165e+06 417314.06 115554.22 104565.55
801974.7 971092.06 446130.22 343707.44 384375.22 569903.6 93836.89 389161.34
215546.88 1.7095148e+06 679308.25 162670.12 880373.25 218736.7 178662.5 223140.05
1.00594894e+06 431352.78 2.1359995e+06 225347.25 150761.62 507796.06 59654.73 1.6039319e+06
82719.73 3.2742118e+06 151024.3 454124.8 99274.914 1.659525e+06 256423.75 370317.88
3.4142238e+06 1.830864e+06 55078.504 453609.3 430770.9 33147.035 61995.98 567733.0
1.01969144e+06 1.0246767e+06 214858.94 352739.7 72447.336 442858.8 4.653235e+06 1.579017e+06
252067.08 428398.47 901639.7 54768.027 1.6133721e+06 62850.38 2.0445445e+06 166255.38
281345.6 1.6944072e+06 1.6595168e+06 1.731453e+06 9537.46 1.1076568e+06 858131.25 439024.72
128519.82 460583.53 907237.94 405889.06 787810.3 238651.48 350789.4 102273.44
1.5868056e+06 792031.75 634301.9 870591.2 257124.38 1.4569324e+06 265676.7 187275.98
00000000: 5131 eb48 7927 0449 1bf1 2f48 9d0e 1448
00000010: e4c6 164a 3b02 9c48 0911 cf49 f160 c14a
00000020: ad17 c847 6d3b 3348 2f02 2a49 8370 364a
00000030: 1466 a449 ba85 9749 654b 8749 65a9 7f48
00000040: 9b6f 0449 e02a 9c48 da1f 8f49 3540 b448
00000050: f0a2 e748 943a bc47 ec7b 8c49 c884 a14a
00000060: 4bbe ba48 ec6d 8548 a295 3748 f20b 2a49
00000070: 2a61 3047 f084 2249 a692 2049 ee34 3c49
00000080: 7620 8947 8dc5 7f48 6d36 9849 2bc2 0249
00000090: 1e41 3849 6b9b 9448 6db0 af49 136b 2448
000000a0: 68e6 9848 8630 4849 4039 fb47 4328 1048
000000b0: 8452 8049 42c4 cb48 1cb1 e147 c63a cc47
000000c0: 6bcb 4349 4115 6d49 47d6 d948 6ed3 a748
000000d0: e7ae bb48 fa22 0b49 7246 b747 2b05 be48
000000e0: b87e 5248 56ae d049 c4d8 2549 88db 1e48
000000f0: 54ef 5649 2d9c 5548 a079 2e48 03e9 5948
00000100: cf97 7549 199f d248 fe5e 024a d010 5c48
00000110: 683a 1348 82f2 f748 bb06 6947 dfca c349
00000120: dd8f a147 8fd7 474a 137c 1348 9abd dd48
00000130: 75e5 c147 2894 ca49 f069 7a48 bcd1 b448
00000140: 3f63 504a 807e df49 8126 5747 2a7d dd48
00000150: 5d56 d248 097b 0147 fb2b 7247 509b 0a49
00000160: b7f2 7849 4b2a 7a49 bcd2 5148 763c ac48
00000170: ab7f 8d47 5a3d d848 6601 8e4a 48c0 c049
00000180: c528 7648 cf2d d148 7b20 5c49 07f0 5547
00000190: e1f1 c449 6182 7547 0494 f949 d85b 2248
000001a0: 3360 8948 3ad6 ce49 e693 ca49 e85b d349
000001b0: d705 1546 4636 8749 3481 5149 175e d648
000001c0: e903 fb47 f1e4 e048 5f7e 5d49 2230 c648
000001d0: 2556 4049 df0e 6948 ad48 ab48 b8c0 c747
000001e0: adb3 c149 fc5d 4149 dedb 1a49 f38b 5449
000001f0: 1819 7b48 23d9 b149 96b9 8148 ffe2 3648

layers.4.weight f4 [256, 128]
0.4245625 -0.32861105 -0.4013389 -0.06117468 -0.94003856 0.50171477 0.38993517 -0.8906639
-0.38712272 -0.52920514 -0.32812324 -1.5218872 1.0117152 0.19827633 1.6592549 0.2958801
0.021964094 0.39685848 -1.444423 -0.7580863 0.1386659 0.37018952 0.16949326 -0.41834348
1.2445633 -0.06948292 -0.45763215 -1.3959489 -0.049173106 0.3965717 -1.012002 -0.09937092
-0.22056022 -0.060412575 -1.3407477 -1.1819588 -1.3505933 -0.48420128 -1.3420091 -0.36487707
0.3756288 -0.0934767 -1.0959059 0.16416977 0.64493227 0.34236118 -0.5801213 0.07586419
0.77964365 0.3165636 -0.40384793 0.5444674 -0.97941065 0.47824606 0.124133185 -0.27465954
-0.48322582 0.24553019 0.19140902 -0.4643198 -0.019038334 0.18936451 0.22334476 -0.9050637
-0.057379127 0.67500806 -0.4260986 0.2758796 -0.66411525 -0.062032413 -0.46719807 -0.14526054
0.11643597 -0.22274473 0.3838296 -1.2846727 -0.011670608 0.38615516 -0.553145 -0.9494731
-0.70044845 -1.0732504 -0.34093043 -0.0045151254 0.24493547 -0.3574488 -0.017556293 1.0621433
-0.70095354 0.30462423 -0.7231602 0.14211422 0.17500249 0.38252372 0.59497774 -1.7918842
-0.47630483 0.11058036 -0.08617107 -0.38469443 -1.4131974 0.21251604 -1.3800346 -0.42364445
-0.09420767 1.0397929 0.7521695 -0.5236205 -0.13457252 -0.14501442 -0.7631362 -0.52392066
0.18728825 0.013897743 -1.3143443 -0.29596952 0.5433923 0.7718114 0.226304 -0.22653338
-0.19340217 -0.5766024 0.4142694 -0.23434523 -0.07855584 0.16442959 0.19521399 0.50627124
0.24505948 0.12936576 0.23884152 0.39799207 0.9287992 0.43951744 0.8778749 -0.21747774
0.6885796 0.061257903 -0.23428926 -0.055153064 -1.3906188 0.72207457 0.27267617 0.7773836
0.16533855 0.46835124 -0.18816192 0.44920272 0.7470275 0.79742664 0.7426859 0.59812164
-1.3675745 0.14690734 1.035562 -0.013285259 0.32371882 0.9428729 -0.054852735 0.5835927
0.38908017 0.47968182 -0.28342536 0.0014680307 0.038697693 0.6638784 0.028217372 0.740266
0.08395203 0.19216903 -0.14699692 0.6788966 -1.36585 0.1726379 0.6685622 -0.08525405
-1.5852437 -0.88326037 0.4843591 0.66810334 0.46127763 0.28487086 0.23259394 0.7735578
0.64932144 0.21501376 0.97898775 1.0827293 0.101777256 0.46769637 0.24924605 0.67754346
0.6173483 0.79886895 0.41488975 0.20831947 -0.30251658 0.6887433 0.73202777 0.6332368
-0.0099944165 0.32996202 0.5992633 0.075802855 0.79851043 -0.8225392 0.24877761 0.4833521
-0.34708372 0.01797895 0.29648533 0.14722458 0.24490279 0.66686416 0.047673464 -0.3207704
0.2083281 0.4454492 0.046448123 -0.024965093 0.26287988 0.43529257 -0.017891992 0.20205785
-0.2490075 0.21241546 0.4267128 1.0960014 0.15524901 0.22095224 -0.40772364 -0.1330496
0.669907 -1.4749589 -1.5937423 0.44887945 0.29929364 0.4938337 0.2692099 0.45956188
0.5240714 0.1996071 0.30201358 0.6782574 0.42318025 -0.36613756 0.65213704 0.15572143
0.47527358 -0.5647588 0.3995901 0.83689 0.8306948 -0.81615627 0.27525905 0.48220718
00000000: 4260 d93e b53f a8be 4b7c cdbe 4d92 7abd
00000010: 5ea6 70bf 6170 003f 95a5 c73e 8d02 64bf
00000020: f334 c6be fd79 07bf c5ff a7be 33cd c2bf
00000030: e27f 813f f308 4b3e 7762 d43f 997d 973e
00000040: 0bee b33c 0931 cb3e dae2 b8bf f211 42bf
00000050: 6ffe 0d3e 7b89 bd3e a48f 2d3e 1e31 d6be
00000060: da4d 9f3f 104d 8ebd c34e eabe 74ae b2bf
00000070: bd69 49bd 720b cb3e 4889 81bf fb82 cbbd
00000080: 8ada 61be 2d73 77bd 9f9d abbf 6d4a 97bf
00000090: 3ee0 acbf 3be9 f7be f4c6 abbf 2bd1 babe
000000a0: 6b52 c03e b670 bfbd a546 8cbf 1f1c 283e
000000b0: 481a 253f f749 af3e d482 14bf af5e 9b3d
000000c0: ba96 473f a014 a23e 28c5 cebe 3762 0b3f
000000d0: a8ba 7abf abdc f43e 8a39 fe3d 2da0 8cbe
000000e0: 6069 f7be 446c 7b3e ba00 443e 53bb edbe
000000f0: 48f6 9bbc c5e8 413e 7db4 643e 41b2 67bf
00000100: 6006 6bbd 54cd 2c3f 9829 dabe 1740 8d3e
00000110: 7503 2abf b315 7ebd 9634 efbe 2ebf 14be
00000120: fb75 ee3d 3217 64be 5085 c43e 2870 a4bf
00000130: 1436 3fbc 21b6 c53e e99a 0dbf ab10 73bf
00000140: 9750 33bf 4560 89bf 6f8e aebe 9ef3 93bb
00000150: 5dd0 7a3e 8703 b7be 37d2 8fbc 50f4 873f
00000160: b171 33bf b5f7 9b3e 0721 39bf 6486 113e
00000170: da33 333e 26da c33e 7650 183f 765c e5bf
00000180: 3ade f3be f577 e23d 757a b0bd abf6 c4be
00000190: a7e3 b4bf ce9d 593e f9a4 b0bf ede7 d8be
000001a0: f3ef c0bd ef17 853f 2e8e 403f fe0b 06bf
000001b0: 61cd 09be a97e 14be e55c 43bf aa1f 06bf
000001c0: 7ec8 3f3e 5cb3 633c 6f3c a8bf 5189 97be
000001d0: c21b 0b3f 6f95 453f 3cbc 673e 5ef8 67be
000001e0: 380b 46be 379c 13bf 1e1b d43e 32f8 6fbe
000001f0: e2e1 a0bd 3b60 283e 2de6 473e fe9a 013f
00000200: dff0 7a3e 7578 043e df92 743e 9ec5 cb3e
00000210: c9c5 6d3f 6e08 e13e 69bc 603f 7cb2 5ebe
00000220: c146 303f 91e9 7a3d 86e9 6fbe 2ee8 61bd
00000230: ccff b1bf e1d9 383f 369c 8b3e 9d02 473f
00000240: 824e 293e bccb ef3e 85ad 40be e6fd e53e
00000250: 323d 3f3f 2724 4c3f aa20 3e3f 801e 193f
00000260: ae0c afbf e16e 163e 4c8d 843f 6aaa 59bc
00000270: 79be a53e 1e60 713f 43ad 60bd 5566 153f
00000280: 8435 c73e db98 f53e 211d 91be f06a c03a
00000290: 7981 1e3d eff3 293f 1e28 e73c 1382 3d3f
000002a0: 0bef ab3d f5c7 443e 5c86 16be 2bcc 2d3f
000002b0: 2cd4 aebf fdc7 303e e426 2b3f ad99 aebd
000002c0: 44e9 cabf 5a1d 62bf eafd f73e d208 2b3f
000002d0: 952c ec3e 98da 913e 1b2d 6e3e e207 463f
000002e0: ee39 263f 912c 5c3e f19e 7a3f e096 8a3f
000002f0: 9870 d03d e675 ef3e 5b3a 7f3e 7d73 2d3f
00000300: 8a0a 1e3f ad82 4c3f 6e6c d43e b351 553e
00000310: 74e3 9abe 7b51 303f 2c66 3b3f cf1b 223f
00000320: 9fbf 23bc c8f0 a83e 5269 193f 873e 9b3d
00000330: 2e6b 4c3f ee91 52bf 8fbf 7e3e ed79 f73e
00000340: f5b4 b1be 9748 933c edcc 973e 0ac2 163e
00000350: ccc7 7a3e 9cb7 2a3f 4045 433d 053c a4be
00000360: f653 553e eb11 e43e 6340 3e3d 9883 ccbc
00000370: 3198 863e abde de3e 3a92 92bc 41e8 4e3e
00000380: d2fb 7ebe 7083 593e 1a7a da3e c649 8c3f
00000390: 99f9 1e3e 4e41 623e 27c1 d0be 283e 08be
000003a0: 067f 2b3f 74cb bcbf bfff cbbf 87d3 e53e
000003b0: 043d 993e c5d7 fc3e e1d5 893e b24b eb3e
000003c0: 8b29 063f ce65 4c3e 86a1 9a3e 47a2 2d3f
000003d0: 15ab d83e 6276 bbbe 74f2 263f 7075 1f3e
000003e0: 0f57 f33e 0894 10bf 1397 cc3e 6c3e 563f
000003f0: 6aa8 543f 9eef 50bf c1ee 8c3e dce3 f63e

layers.4.bias f4 [256]
-0.03882609 0.07236585 -0.094313644 0.019508664 -0.06411426 0.037317764 -0.033754636 0.059328217
0.054947205 -0.014286264 -0.027049221 -0.00396375 0.028699743 -0.03098839 -0.053678054 -0.0007829338
-0.08015627 0.023056023 0.0019128396 0.0406958 -0.055231057 -0.05912717 -0.03095326 -0.08145737
-0.001853262 -0.038666397 0.04929311 -0.0007700081 -0.02663029 -0.05664546 0.072075665 -0.04653309
-0.040118825 -0.003161779 -0.0006325385 -0.02703957 -0.070357636 0.0005608466 -0.014300257 -0.03411449
0.061787233 -0.0009896093 0.014357526 0.002715082 0.08986153 0.092689976 0.06637169 0.04387303
-0.017260047 -0.041422676 0.033684123 0.055438165 0.031988863 0.011829813 0.028990854 -0.0020929603
0.035043895 0.015183163 -0.054694667 0.07241722 -0.015993856 -0.033659335 0.046684388 -0.053605415
-0.010893076 -0.047500443 -0.05116398 0.043458767 -0.08118437 -0.0675922 -0.0069559766 -0.025253078
-0.020392332 -0.09568422 -0.007095065 -0.07578578 0.10353842 -0.0705021 -0.11053622 0.013365104
0.011439396 -0.03889921 -0.060147215 0.053766422 0.0673607 -0.062919386 0.04090976 0.017028084
0.04293105 0.007364114 0.08000578 -0.014074713 -0.01911567 0.07296588 0.03867203 0.07585911
0.017428568 0.013387745 -0.064748846 0.025665639 -0.08243883 -0.06581755 -0.07022589 -0.08349999
0.034025047 -0.010849605 -0.06492209 -0.04625632 0.0866991 0.06635655 0.07444117 -0.089195274
-0.007742411 -0.034073886 -0.012062698 -0.031256158 -0.07121877 0.042458385 -0.07754466 0.0043347883
0.071113266 0.13838378 -0.07691745 -0.013099143 0.08105705 -0.08177877 -0.07086012 0.027831648
0.012109312 0.07155721 -0.04218613 0.04512384 0.069261186 -0.029816905 -0.0009946582 0.008289823
0.0006057095 -0.026790563 0.009402302 0.044075485 -0.031102484 -0.006011069 -0.007167829 -0.05495677
0.062564634 0.10196143 -0.056459036 -0.015562577 0.018401092 -0.060031097 -0.053694807 -0.058038436
0.070171386 -0.064742304 0.058921 0.04342614 -0.025199642 0.06446996 0.07303413 -0.03950443
-0.05290704 0.02961346 -0.025559822 -0.015038962 0.078409545 0.060646128 -0.09043491 0.06175
0.048742276 0.08797178 0.09836859 -0.03616191 0.09863577 -0.0788033 -0.07890923 0.09243423
0.017495282 -0.029060766 0.050757796 -0.02790992 -0.10155826 0.11610934 0.013055018 -0.02771021
-0.08799568 -0.079741895 0.057613857 -0.03317531 -0.08895405 0.014268716 -0.035462942 0.061797634
-0.007075758 0.09152638 0.016030915 0.058515772 0.04343642 -0.040829048 -0.028015912 0.037172068
-0.06946799 0.07721042 0.021144144 -0.0030446663 -0.040470153 -0.027299233 -0.030671041 0.12514643
0.10411443 -0.05538855 -0.0050764363 0.022880275 -0.04482499 0.037063543 0.0026817678 -0.02759657
-0.013767149 0.0022130795 0.030383877 -0.042820282 0.0008904645 -0.06265199 0.05640798 0.11125094
0.01761285 -0.07609079 -0.037729286 -0.058989365 0.051806692 0.00034652726 0.004838916 -0.058278307
-0.037551753 -0.009710247 -0.07033821 -0.009346193 -0.001782033 -0.011039313 0.083316885 0.09465441
0.0939344 -0.07732663 -0.010089783 0.049464755 0.032498036 -2.1372555e-06 0.056368016 0.07594399
-0.070052944 0.06026671 -0.08732579 0.013371893 0.060499597 -0.061982676 -0.021340227 -0.07948236
00000000: 1b08 1fbd 8c34 943d 8327 c1bd a2d0 9f3c
00000010: 564e 83bd 83da 183d 4d42 0abd 2502 733d
00000020: 5210 613d ef10 6abc 5496 ddbc 58e2 81bb
00000030: b91b eb3c 5ddb fdbc 85dd 5bbd cc3d 4dba
00000040: f828 a4bd fcdf bc3c 3fb8 fa3a a4b0 263d
00000050: f639 62bd 552f 72bd b191 fdbc 1fd3 a6bd
00000060: 27e9 f2ba a860 1ebd 92e7 493d 5eda 49ba
00000070: c427 dabc 1205 68bd 689c 933d 7b99 3ebd
00000080: a353 24bd d935 4fbb f1d0 25ba 1782 ddbc
00000090: aa17 90bd c705 133a a04b 6abc a3bb 0bbd
000000a0: 9c14 7d3d c7b5 81ba d43b 6b3c 84ef 313b
000000b0: 5209 b83d 3ed4 bd3d e1ed 873d 35b4 333d
000000c0: f164 8dbc d3aa 29bd 5df8 093d 2113 633d
000000d0: c106 033d d5d1 413c 3a7e ed3c 0c2a 09bb
000000e0: 308a 0f3d cdc2 783c 8407 60bd 7b4f 943d
000000f0: 8c05 83bc 5fde 09bd 2138 3f3d 5a91 5bbd
00000100: df78 32bc d38f 42bd 5291 51bd d201 323d
00000110: fe43 a6bd c86d 8abd f6ee e3bb 8bdf cebc
00000120: d20d a7bc 17f6 c3bd b87d e8bb 9335 9bbd
00000130: f30b d43d 6863 90bd d060 e2bd 4ff9 5a3c
00000140: 4e6c 3b3c c754 1fbd ed5c 76bd 2e3a 5c3d
00000150: 68f4 893d e1db 80bd fe90 273d 7b7e 8b3c
00000160: 78d8 2f3d aa4e f13b 12da a33d a099 66bc
00000170: 7798 9cbc 236f 953d 9066 1e3d 055c 9b3d
00000180: 5bc6 8e3c 4658 5b3c 0b9b 84bd bf40 d23c
00000190: b0d5 a8bd 5acb 86bd 97d2 8fbd 0b02 abbd
000001a0: d95d 0b3d 8bc2 31bc dff5 84bd 4477 3dbd
000001b0: 4c8f b13d f1e5 873d 9d74 983d 03ac b6bd
000001c0: 0db4 fdbb 0f91 0bbd 9fa2 45bc 7506 00bd
000001d0: 26db 91bd d8e8 2d3d bccf 9ebd d70a 8e3b
000001e0: d5a3 913d 7ab4 0d3e e586 9dbd ca9d 56bc
000001f0: 3d01 a63d a17b a7bd 1c1f 91bd 32ff e33c
00000200: 2366 463c 968c 923d 5dcb 2cbd c7d3 383d
00000210: cfd8 8d3d 9542 f4bc 315f 82ba 0ad2 073c
00000220: 7ac8 1e3a e277 dbbc 1d0c 1a3c 7f88 343d
00000230: a3ca febc 80f8 c4bb 1ce0 eabb 5a1a 61bd
00000240: e321 803d 27d1 d03d 9741 67bd 2efa 7ebc
00000250: e3bd 963c 2be3 75bd 16ef 5bbd b6b9 6dbd
00000260: 04b6 8f3d 9d97 84bd 2657 713d 9cdf 313d
00000270: 7b6f cebc d408 843d eb92 953d 66cf 21bd
00000280: 0db5 58bd ed97 f23c d562 d1bc fa65 76bc
00000290: 2f95 a03d 1368 783d f035 b9bd 91ed 7c3d
000002a0: fba5 473d 8c2a b43d 7975 c93d 831e 14bd
000002b0: 8d01 ca3d a063 a1bd 2a9b a1bd 284e bd3d
000002c0: 4452 8f3c d810 eebc 68e7 4f3d 58a3 e4bc
000002d0: c7fd cfbd bcca ed3d b7e4 553c 8600 e3bc
000002e0: 1437 b4bd b84f a3bd 82fc 6b3d d5e2 07bd
000002f0: 8a2d b6bd 55c7 693c 9741 11bd 841f 7d3d
00000300: c3db e7bb 2f72 bb3d 4453 833c 3cae 6f3d
00000310: 63ea 313d 5c3c 27bd a081 e5bc bd41 183d
00000320: 3c45 8ebd 7f20 9e3d 7c36 ad3c 0689 47bb
00000330: 08c4 25bd a4a2 dfbc d641 fbbc 6326 003e
00000340: f239 d53d 1bdf 62bd 3c58 a6bb 6a6f bb3c
00000350: 699a 37bd f1cf 173d 99c0 2f3b 3412 e2bc
00000360: 9c8f 61bc 5009 113b 9ce7 f83c 5264 2fbd
00000370: 106e 693a b04f 80bd 0e0c 673d 88d7 e33d
00000380: d348 903c 7dd5 9bbd 068a 1abd d59e 71bd
00000390: 4133 543d 1aae b539 c58f 9e3b 3cb5 6ebd
000003a0: decf 19bd ba17 1fbc 7b0d 90bd c620 19bc
000003b0: 1b93 e9ba 3cde 34bc 0ba2 aa3d 2cda c13d
000003c0: ae60 c03d 6d5d 9ebd 9e4f 25bc 8e9b 4a3d
000003d0: a91c 053d c56d 0fb6 26e2 663d 8688 9b3d
000003e0: eb77 8fbd 3ada 763d ddd7 b2bd c915 5b3c
000003f0: 6dce 773d 8ce1 7dbd b3d1 aebc a6c7 a2bd

layers.5.weight f4 [256]
0.8325718 1.3433336 1.8003242 1.1653209 0.8885147 0.8551178 1.4676858 1.5740399
1.0369449 0.54234785 1.1699009 1.2590609 1.5303202 1.4140694 1.2900001 1.5265539
1.1294677 0.82087934 1.2276696 1.0903004 1.0571545 0.8194155 0.9164705 1.3223484
0.98421943 0.9345505 1.515885 1.8350567 1.8793266 1.0608793 1.3179889 1.0406575
1.3189892 0.84802353 0.7276861 1.4236125 0.92256624 1.7046572 1.2550015 1.8179651
1.3851273 1.5843568 1.2580687 1.4281534 1.1036016 1.5176796 1.9624856 0.982656
1.7488916 1.5818877 2.0029685 0.7552208 1.5610213 1.9174134 1.7061881 1.6110426
1.0279726 0.8649247 0.8192813 0.9485196 1.2025466 1.0585334 1.0952342 1.6233019
0.7026889 1.0321642 1.3706778 1.3289849 2.0259385 1.125577 0.99399716 1.9401207
0.97676075 2.122163 1.0135684 1.987408 0.855434 0.9978768 1.9508885 1.4911869
1.5323629 1.4053918 0.97813356 1.474223 2.3755364 1.6761671 0.9306554 0.94349205
1.9385862 1.0222877 0.791923 1.5654776 1.4964845 1.6096834 0.9620692 0.9078171
1.5164844 1.5355376 0.83783984 1.5027623 0.89243346 1.440149 1.7593673 2.2189252
1.2547065 1.1671373 1.1754482 0.9286264 1.0797036 0.93775934 0.83786917 0.9906792
1.9235245 0.9727144 1.5535356 2.133809 2.0763133 1.1661334 1.593952 0.89733624
1.3216071 1.6176124 1.3276836 0.79470026 1.7243854 0.5698543 1.5874552 1.8412739
1.2680569 2.4941 2.1285915 1.4519595 1.0786474 0.8196798 1.0917876 1.4025319
0.91766244 1.2229652 0.97887826 1.4336764 1.7770065 0.9113385 0.6256763 1.2390214
0.7536938 1.6398609 1.5032977 1.7434646 0.77863806 1.3593686 2.0200546 0.8846243
1.086151 0.84497964 0.78661484 1.3918316 1.3315767 1.2125354 1.100791 0.79213464
0.7945296 1.2874666 1.6917341 0.8802176 0.95945144 1.3153594 1.9298778 0.9273777
1.0335732 1.1709365 2.2251117 1.6760637 2.0323634 1.7958212 0.8063682 1.2324853
1.2052552 1.263334 1.6548852 1.1721987 1.0563718 1.0140059 1.0527004 0.93195766
0.7681627 0.9163242 1.1799237 0.5523647 1.2773426 1.4706049 1.2272506 1.1282356
1.4920622 1.2991419 1.9823205 1.2664914 1.505244 1.8854047 1.0044582 1.2819263
0.952238 0.7466914 1.0958035 1.556313 2.2900743 1.5876093 1.0800676 1.0096254
2.0180929 0.99301255 1.7979687 1.1503719 1.6743302 0.96851254 1.5267572 1.5471407
1.6896012 1.6455688 1.2372177 2.1861882 2.3516862 1.4045963 0.86113864 0.6924973
1.8896264 2.1861973 0.7536687 2.1622133 0.89442825 1.958168 1.0594289 0.83300924
1.5170496 1.6649868 1.9072318 1.1035917 1.6690664 0.9209023 0.84330916 0.81965363
1.0475334 1.7552356 1.4592781 1.5536164 1.5964806 2.1549523 1.4334357 1.0168263
1.9623146 1.5641575 0.892733 1.0620975 1.6045637 0.95032233 2.161326 1.3789209
00000000: 6d23 553f 5bf2 ab3f 0671 e63f 3c29 953f
00000010: b375 633f 00e9 5a3f 21dd bb3f 247a c93f
00000020: 9cba 843f 4fd7 0a3f 50bf 953f e828 a13f
00000030: 88e1 c33f 3a00 b53f b91e a53f 1e66 c33f
00000040: 6692 903f 2625 523f 4724 9d3f f78e 8b3f
00000050: d750 873f 37c5 513f d09d 6a3f b642 a93f
00000060: cef5 7b3f b43e 6f3f 8508 c23f 23e3 ea3f
00000070: c68d f03f e5ca 873f dcb3 a83f 4434 853f
00000080: a3d4 a83f 1218 593f a349 3a3f ef38 b63f
00000090: 4d2d 6c3f 3532 da3f e4a3 a03f 15b3 e83f
000000a0: da4b b13f 34cc ca3f 6508 a13f bbcd b63f
000000b0: d142 8d3f 5343 c23f ba32 fb3f 588f 7b3f
000000c0: aedb df3f 4c7b ca3f a330 0040 2656 413f
000000d0: 8ccf c73f cd6d f53f 5f64 da3f a536 ce3f
000000e0: 9b94 833f b56b 5d3f 6bbc 513f 2ed2 723f
000000f0: 0ced 993f 067e 873f a230 8c3f 5bc8 cf3f
00000100: 6be3 333f f51d 843f 5f72 af3f 2d1c aa3f
00000110: faa8 0140 e812 903f 9976 7e3f e055 f83f
00000120: fe0c 7a3f 85d1 0740 9cbc 813f 6363 fe3f
00000130: b9fd 5a3f db74 7f3f b7b6 f93f 36df be3f
00000140: 7824 c43f e1e3 b33f f666 7a3f 57b3 bc3f
00000150: ca08 1840 a58c d63f 6f3f 6e3f b288 713f
00000160: 9823 f83f 53da 823f 77bb 4a3f 9261 c83f
00000170: ce8c bf3f 1b0a ce3f 2b4a 763f b466 683f
00000180: 291c c23f 7f8c c43f ac7c 563f 845a c03f
00000190: 8576 643f cd56 b83f f332 e13f df02 0e40
000001a0: 399a a03f c164 953f 1675 963f 76ba 6d3f
000001b0: ba33 8a3f ff10 703f 987e 563f 279d 7d3f
000001c0: 0d36 f63f d003 793f 41da c63f 5490 0840
000001d0: 51e2 0440 dc43 953f 9e06 cc3f d4b7 653f
000001e0: 6c2a a93f ec0d cf3f 89f1 a93f 7a71 4b3f
000001f0: a9b8 dc3f f9e1 113f bb31 cb3f ddae eb3f
00000200: b04f a23f 569f 1f40 d83a 0840 cfd9 b93f
00000210: 1e11 8a3f 89d6 513f b2bf 8b3f 2a86 b33f
00000220: edeb 6a3f 208a 9c3f c497 7a3f b582 b73f
00000230: f374 e33f 7b4d 693f 522c 203f 4198 9e3f
00000240: 14f2 403f f6e6 d13f 0f6c c03f d929 df3f
00000250: d354 473f caff ad3f 9348 0140 bd76 623f
00000260: ff06 8b3f 9650 583f 975f 493f 8a27 b23f
00000270: 1b71 aa3f 5c34 9b3f b8e6 8c3f 56c9 4a3f
00000280: 4b66 4b3f b5cb a43f be8a d83f f155 613f
00000290: 9c9e 753f b25d a83f 3c06 f73f a068 6d3f
000002a0: 204c 843f 3fe1 953f 3b68 0e40 4189 d63f
000002b0: 3e12 0240 78dd e53f 256e 4e3f 14c2 9d3f
000002c0: cd45 9a3f eeb4 a13f 47d3 d33f 9b0a 963f
000002d0: 3137 873f f2ca 813f e3be 863f c794 6e3f
000002e0: 50a6 443f 3994 6a3f bd07 973f c667 0d3f
000002f0: f67f a33f c83c bc3f 8c16 9d3f 066a 903f
00000300: e5fb be3f 484a a63f aebc fd3f 641c a23f
00000310: d6ab c03f f154 f13f 1692 803f 2916 a43f
00000320: dfc5 733f 2b27 3f3f 4a43 8c3f 4435 c73f
00000330: 9490 1240 c836 cb3f a83f 8a3f 683b 813f
00000340: 6f28 0140 1236 7e3f d723 e63f 633f 933f
00000350: 7450 d63f 70f0 773f c86c c33f b508 c63f
00000360: da44 d83f 00a2 d23f 265d 9e3f 82ea 0b40
00000370: 0782 1640 d0c9 b33f 9573 5c3f 8147 313f
00000380: 47df f13f a8ea 0b40 6ff0 403f b461 0a40
00000390: 40f9 643f 40a5 fa3f 5e9b 873f 1840 553f
000003a0: ae2e c23f 4a1e d53f 2c20 f43f 7e42 8d3f
000003b0: f8a3 d53f 41c0 6b3f 1ce3 573f d2d4 513f
000003c0: 9315 863f 8fab e03f a0c9 ba3f e7dc c63f
000003d0: 7a59 cc3f bdea 0940 d27a b73f 5d27 823f
000003e0: 202d fb3f 5036 c83f 268a 643f d0f2 873f
000003f0: 5862 cd3f 5348 733f 2a53 0a40 7b80 b03f

layers.5.bias f4 [256]
-0.41363013 -0.64693016 0.0860912 -0.35674253 -0.6526188 -0.7663793 -0.43488705 -0.99210453
-0.50636744 -1.3976309 -0.8948862 -0.9688247 -0.30585164 -1.6195862 -0.60366267 -1.0362409
-0.49723774 -0.33370873 -0.788779 -0.34030607 -0.00045681748 -0.54337025 -0.30041638 -0.2158681
-0.3637022 0.061562043 -1.208756 0.23407912 0.091407426 -0.78513396 -0.053563803 -0.48016477
-0.84509647 -0.88162637 -1.2329506 -0.8938545 -0.81845313 0.044465575 -0.5889225 -0.018697774
-0.9946501 0.4092233 0.0073689986 -0.7435392 -0.7896098 -0.4495036 0.44580683 -0.45636228
0.2770243 0.5936778 0.47027823 -0.61422056 -0.91184896 -0.10406368 -0.10107627 -1.0474147
-0.66897833 -0.48457193 -0.3121988 -0.5404909 -0.5587326 -0.8372379 -0.9364246 0.036557153
-0.7202603 -0.4002139 -0.84800214 -1.1215342 0.24336904 -0.13714263 -0.6259367 0.33167255
-0.766018 0.2190833 -0.83280975 0.5452374 -0.61068505 -0.89179575 -0.39789808 0.07047755
-0.7592037 -0.31413683 -0.1800882 0.1963032 -0.075397804 -0.39143714 -0.62921625 -0.5691953
0.31816483 -0.78468984 -0.80506164 0.19365057 -0.21724224 0.2627136 -0.50567025 -0.13484913
0.17687902 0.40701434 -0.9497369 -0.657135 -0.72145313 -1.3831068 0.17972548 0.4250041
0.06846428 -0.36026534 -0.754997 -0.03719547 -0.10744364 -1.0647705 -0.98277223 -0.35959688
0.31641695 -0.025990412 -0.9214549 0.13748127 0.1640854 -0.7424842 0.13162072 -0.8545609
-0.43853086 -0.55252683 -0.58111846 -0.92792743 -0.14689286 -0.33542883 0.11207074 -0.34701136
-0.99521875 0.07232272 0.1573549 -0.72722787 -0.75985867 -0.5822698 -0.6489142 0.23909847
-0.51811653 -0.23018418 -0.8592608 -0.9329188 -0.44807288 -0.53830105 -0.82750267 -0.21554756
-0.64740425 0.019107271 -0.6293031 -0.0031722693 -1.117337 0.12120571 0.26813954 -0.7104043
-0.77708495 -0.9251255 -1.1290766 -0.61782146 -0.64691883 -0.51726407 -0.3500672 -1.0440861
-0.55812573 -0.6898607 0.034470584 -0.7970077 -0.6303396 -0.28402868 0.3964081 -0.4670536
-1.0528799 -0.49907774 -0.26128522 0.08095247 -0.46905562 0.5032943 -1.410795 -0.2261164
-1.2246189 -0.7353443 0.29213813 -0.52442366 -0.7348528 -0.75917614 -0.71029365 -0.23937346
-0.5660917 -0.7103386 -0.08022457 -0.9149995 -0.8068951 0.49630392 0.0025806753 -0.49191633
0.3357043 -0.30836716 0.17330456 -0.112894915 0.09170004 0.2670701 -0.4600747 -0.29251105
-0.9396697 -0.8937575 -0.69746995 -0.58913195 0.13566652 -0.125848 -0.50001353 -0.8404179
0.3926685 -1.1282316 -0.61288464 -0.58616847 0.0019091212 -0.42691556 -0.61809397 -0.61239374
0.064709574 -0.5670387 -0.36216587 0.063083336 -0.33604145 -0.21870829 -0.86279035 -0.79351485
-0.23951772 -0.11937617 -0.6419616 0.36118606 -0.9064368 -0.28118443 -0.88231397 -0.97385585
-0.7085378 -0.51154625 0.14214078 0.14723115 -0.26444477 -0.7832317 -0.9021334 -0.9447975
-0.90458316 -0.0326949 0.37398055 0.31866187 -0.7906168 0.5193931 -0.25328496 -0.7768847
0.58176756 -0.17025736 -0.15607643 -0.80957305 0.12466906 -0.8323395 -0.30574736 -0.18277183
00000000: 54c7 d3be 379d 25bf 9550 b03d f5a6 b6be
00000010: 0712 27bf 6f31 44bf 84a9 debe 90fa 7dbf
00000020: 4ca1 01bf 92e5 b2bf 4317 65bf e504 78bf
00000030: 9698 9cbe 9a4e cfbf a389 1abf 8ba3 84bf
00000040: f295 febe dfdb aabe 6ced 49bf 993c aebe
00000050: 0181 efb9 501a 0bbf 2dd0 99be 870c 5dbe
00000060: 2d37 babe 7b28 7c3d 84b8 9abf 70b2 6f3e
00000070: d133 bb3d 8afe 48bf b865 5bbd 28d8 f5be
00000080: 3e58 58bf 44b2 61bf 53d1 9dbf a6d3 64bf
00000090: 2586 51bf 8921 363d a0c3 16bf 132c 99bc
000000a0: 64a1 7ebf b785 d13e a477 f13b 9658 3ebf
000000b0: de23 4abf 5625 e6be cb40 e43e 51a8 e9be
000000c0: 21d6 8d3e 45fb 173f 4fc8 f03e 8f3d 1dbf
000000d0: ef6e 69bf 571f d5bd 1301 cfbd af11 86bf
000000e0: 2a42 2bbf d019 f8be 85d8 9fbe 9d5d 0abf
000000f0: 1a09 0fbf 3955 56bf 86b9 6fbf f4bc 153d
00000100: fb62 38bf d6e8 ccbe ab16 59bf 6f8e 8fbf
00000110: bc35 793e 1e6f 0cbe 633d 20bf fcd0 a93e
00000120: c119 44bf 5f57 603e 0533 55bf ae94 0b3f
00000130: db55 1cbf ba4c 64bf 4cb9 cbbe 8956 903d
00000140: 2c5b 42bf 8bd6 a0be 0b69 38be b503 493e
00000150: 2a6a 9abd 736a c8be 5114 21bf c8b6 11bf
00000160: 80e6 a23e 6fe1 48bf 8518 4ebf 564c 463e
00000170: c074 5ebe 6682 863e 9b73 01bf e415 0abe
00000180: c61f 353e 2f64 d03e f521 73bf 003a 28bf
00000190: 27b1 38bf a509 b1bf f509 383e 239a d93e
000001a0: 0037 8c3d b374 b8be 7c47 41bf 475a 18bd
000001b0: 690b dcbd 664a 88bf f696 7bbf 151d b8be
000001c0: 6701 a23e d8e9 d4bc 78e4 6bbf e4c7 0c3e
000001d0: 0106 283e 7213 3ebf 95c7 063e 81c4 5abf
000001e0: 1e87 e0be 6672 0dbf 2ec4 14bf a78c 6dbf
000001f0: 156b 16be 54bd abbe 5885 e53d 79ab b1be
00000200: a8c6 7ebf ef1d 943d a521 213e 9b2b 3abf
00000210: 1986 42bf a20f 15bf 3e1f 26bf 3bd6 743e
00000220: 49a3 04bf 67b5 6bbe 84f8 5bbf c4d3 6ebf
00000230: cf69 e5be 19ce 09bf 37d7 53bf 80b8 5cbe
00000240: 49bc 25bf da86 9c3c 021a 21bf d9e5 4fbb
00000250: e604 8fbf b33a f83d 9649 893e 0edd 35bf
00000260: 0aef 46bf 06d5 6cbf 9585 90bf 8c29 1ebf
00000270: 799c 25bf 6b6b 04bf 023c b3be 9da4 85bf
00000280: 54e1 0ebf b69a 30bf 0731 0d3d b208 4cbf
00000290: f05d 21bf 356c 91be 01f6 ca3e a621 efbe
000002a0: c5c4 86bf 1e87 ffbe 2dc7 85be 69ca a53d
000002b0: 0f28 f0be e5d7 003f ee94 b4bf 0f8b 67be
000002c0: 50c0 9cbf 863f 3cbf 2193 953e a140 06bf
000002d0: 501f 3cbf 5e59 42bf ced5 35bf 511e 75be
000002e0: 63eb 10bf c0d8 35bf c84c a4bd 683d 6abf
000002f0: ad90 4ebf 8c1b fe3e 8c20 293b 75dc fbbe
00000300: 6fe1 ab3e 4de2 9dbe c076 313e 7335 e7bd
00000310: 3bcd bb3d 6abd 883e e98e ebbe 02c4 95be
00000320: 328e 70bf 4bcd 64bf 648d 32bf 5ad1 16bf
00000330: 2aec 0a3e 4cde 00be e300 00bf a125 57bf
00000340: d80b c93e e569 90bf 02e6 1cbf 230f 16bf
00000350: 7a3b fa3a ad94 dabe 683b 1ebf d6c5 1cbf
00000360: 7486 843d 7329 11bf ce6d b9be d631 813d
00000370: a00d acbe 11f5 5fbe d4df 5cbf ca23 4bbf
00000380: 2244 75be 7e7b f4bd 9857 24bf 61ed b83e
00000390: 3e0c 68bf 68f7 8fbe 54df 61bf 9e4e 79bf
000003a0: bc62 35bf b2f4 02bf 5a8d 113e c3c3 163e
000003b0: 4e65 87be df81 48bf 37f2 66bf 40de 71bf
000003c0: c392 67bf 16eb 05bd 617a bf3e a627 a33e
000003d0: dd65 4abf f2f6 043f 91ae 81be eae1 46bf
000003e0: b8ee 143f f257 2ebe 80d2 1fbe 2e40 4fbf
000003f0: 7e52 ff3d 3414 55bf eb8a 9cbe 8a28 3bbe
