model_results/Queensland/ANN_PSO_Model/2025-08-23_13-44-26/best_model.pth (torch, 30901 bytes, 13 tensors)

layers.0.weight f4 [128, 10]
0	0xbf185fd5	-0.5952123
1	0x3f1c6fdb	0.6110818
2	0xbdc5dbc4	-0.096610576
3	0xc14839ba	-12.514093
4	0x405ae319	3.420111
5	0x402ed987	2.7320268
6	0x411a70fe	9.652586
7	0x40b5e69e	5.6844015
8	0x3f695e84	0.91159844
9	0x3f6c95cc	0.9241607
10	0x3ec63b94	0.3871733
11	0x3f02cd88	0.51094866
12	0x3e2ec42d	0.17067023
13	0xc1105aa3	-9.022128
14	0x3fae7719	1.3630096
15	0xc0d1cc55	-6.556193
16	0x404c8231	3.1954463
17	0x409ba7c8	4.864231
18	0xc082482b	-4.0713096
19	0x403c9e6a	2.9471688
20	0x3ec1f3c3	0.37881288
21	0x3f9cf34a	1.2261746
22	0xbeaeee38	-0.3416612
23	0xc16c3af8	-14.764397
24	0x409557b5	4.6669564
25	0xc0c1a24e	-6.0510626
26	0xc064f089	-3.577181
27	0xc1066f54	-8.40218
28	0x4025fd46	2.5935836
29	0x3f87c989	1.0608379
30	0xbf08dce0	-0.5346203
31	0x3ef1b7b3	0.47210464
32	0xbe1074f2	-0.14107111
33	0xc1af3346	-21.900036
34	0x41ed4ca6	29.662426
35	0xc0f54dc5	-7.6657434
36	0xbe837496	-0.25674886
37	0x40a6e17b	5.2150245
38	0xbe84d57c	-0.25944126
39	0xbf6bd0bc	-0.9211538
40	0xbef8d87d	-0.48602667
41	0x3effde7b	0.49974427
42	0x3fa7dedc	1.3114886
43	0xc087bdd1	-4.241921
44	0xc0063ef5	-2.0975926
45	0xbf9aae1e	-1.2084386
46	0xbfc99601	-1.5748903
47	0xc05e80fa	-3.476622
48	0x3f94de67	1.1630372
49	0xbf44a827	-0.7681908
50	0x3ec487ee	0.38384956
51	0xbefa2ea6	-0.48863715
52	0xbe63ab69	-0.22233357
53	0xc0555e8f	-3.3338964
54	0xc0a8c7d0	-5.274391
55	0x3f821f00	1.016571
56	0xc1031c76	-8.194448
57	0xc1045b58	-8.272301
58	0xbe5d72c7	-0.21625815
59	0xbf170fda	-0.5900856
60	0x3f738b3a	0.9513432
61	0xbfbe96fd	-1.4889828
62	0x3f27854b	0.65437764
63	0xc1130d06	-9.19068
64	0x3e89bd6a	0.26902324
65	0xc12ddfcf	-10.867141
66	0x41250a7c	10.31506
67	0x411b039d	9.688382
68	0xbc1bb935	-0.009504606
69	0xbe898815	-0.26861635
70	0xbd98f0db	-0.074678145
71	0x3e918516	0.2842185
72	0xbe866db2	-0.26255566
73	0xc0baa2d2	-5.8323755
74	0x40bb9612	5.862069
75	0xbe1d1c56	-0.1534284
76	0x4064363a	3.5658097
77	0x400988eb	2.1489818
78	0xbf580927	-0.84388965
79	0xbf1d5f9e	-0.61474025
80	0xbf8e93fc	-1.1138911
81	0x3f3b2339	0.7310062
82	0x3f2456ac	0.6419475
83	0x41177b7f	9.46765
84	0xc0595aa8	-3.3961582
85	0x3efe8a46	0.4971487
86	0xc094d417	-4.65089
87	0xc042004d	-3.0312684
88	0x3fc1f9cc	1.5154357
89	0x3f2fdca3	0.6869604
90	0xbfacdb2f	-1.350439
91	0x3d7ec5ab	0.06220023
92	0x3f5ebb01	0.87004095
93	0xc0a8eb6a	-5.278737
94	0xc0ac3d84	-5.382509
95	0x3f291d30	0.6606016
96	0xc032c908	-2.79352
97	0xc09b6b3e	-4.856841
98	0x3ffc756b	1.9723333
99	0xbfe1b767	-1.7634095
100	0xbee583ff	-0.44827268
101	0x3e8e061a	0.2773903
102	0xbf01c886	-0.506966
103	0xc061adcc	-3.5262327
104	0xc00e57d5	-2.2241108
105	0x3f662f89	0.8991628
106	0x40425e6b	3.0370128
107	0x3ffa303f	1.9545974
108	0xbe9a3c8d	-0.30124322
109	0xbfe7c34e	-1.8106477
110	0xbfbd9842	-1.481209
111	0xbf46c0cb	-0.7763793
112	0x3e59ad45	0.21257503
113	0xc1c14c51	-24.162264
114	0x4112d366	9.176611
115	0x40e63ec7	7.1951632
116	0x4178f781	15.560426
117	0x4131c2c5	11.110051
118	0xbbc06925	-0.005871909
119	0x3fbd9b0d	1.4812943
120	0xbe779364	-0.24177319
121	0x3e808e9c	0.25108802
122	0x3fa97e13	1.32416
123	0xc0d37275	-6.607722
124	0xc0bf2ad9	-5.9739804
125	0x3f980932	1.1877806
126	0xc1263eec	-10.390362
127	0xc14f435b	-12.953944
128	0xc022dba7	-2.5446565
129	0xc0f17b79	-7.5463223
130	0x3dcb91ad	0.09939895
131	0xbea81a27	-0.32832453
132	0x3e4a1e2d	0.19738074
133	0xc0de2c48	-6.9429054
134	0xbf34e1ca	-0.70657027
135	0xbf5dfa4f	-0.86710066
136	0x3ded6066	0.11590652
137	0xbfe38163	-1.7773861
138	0xbff89519	-1.9420501
139	0xc013c9ba	-2.3091874
140	0x3e0dd12a	0.13849321
141	0xbf202259	-0.6255241
142	0x3eaf6aa6	0.34261054
143	0xc0b195b8	-5.549526
144	0xc15c0bb9	-13.752862
145	0x407c0198	3.9375973
146	0xc189c528	-17.221268
147	0xc19561a3	-18.672674
148	0x3ec2d54a	0.38053352
149	0xbecf93e0	-0.40542507
150	0xc0185ecb	-2.3807857
151	0xbf16a7fe	-0.58850086
152	0x3f6b8f7a	0.920158
153	0xc1e0b81d	-28.0899
154	0x409db9c3	4.928926
155	0x40df4dfd	6.97827
156	0x40dfe1e8	6.9963264
157	0x3e77bd9c	0.24193424
158	0x40212920	2.518135
159	0xbfd1689d	-1.636005
160	0xbd67a917	-0.05655774
161	0xbe613e9c	-0.2199654
162	0xbea3bdac	-0.31980646
163	0xc0ad442f	-5.414573
164	0x408b36f5	4.3504586
165	0x3ed36e03	0.4129487
166	0x3f859210	1.04352
167	0x3cd934ae	0.026514377
168	0xbd360ad2	-0.044443913
169	0xbe218a5f	-0.1577544
170	0x3d2c3ac6	0.04204824
171	0xbee83ee0	-0.4536047
172	0x3e244a5c	0.16043991
173	0xc08ff92e	-4.4991674
174	0x3e6dc53f	0.23219775
175	0xbfdeb9ee	-1.7400491
176	0xc0b55ba9	-5.667439
177	0xc0be6a47	-5.9504733
178	0xbfdebf38	-1.7402105
179	0x3f124292	0.5713283
180	0x3e90d430	0.28286886
181	0x3e78d2e3	0.24299197
182	0x3e9b234b	0.30300364
183	0xc11938f2	-9.576403
184	0xc12ca616	-10.790548
185	0xc149555e	-12.583342
186	0xbf1bd873	-0.6087715
187	0xc11acab3	-9.674487
188	0x402297d1	2.5405161
189	0xc0583e16	-3.3787894
190	0xbfb7bd1e	-1.4354589
191	0x3f080d2f	0.53145117
192	0xbdf8b136	-0.12143175
193	0xc0fcc204	-7.8986835
194	0x40117043	2.272477
195	0x3e97cf48	0.2965033
196	0xbfc459e4	-1.5339932
197	0xc023f65f	-2.5619123
198	0x3f8df6ca	1.1090939
199	0xbd9c04a2	-0.07618071
200	0x3ef3f014	0.47644103
201	0x3ec3ad26	0.3821804
202	0xbf691ac3	-0.9105646
203	0xc184b0a5	-16.586252
204	0x41151467	9.317481
205	0xc096910a	-4.705205
206	0x41991369	19.134478
207	0x41570542	13.438784
208	0xbf43ebbd	-0.76531583
209	0x3f95a27b	1.169021
210	0xbe266932	-0.16251066
211	0x3f19ff1a	0.6015488
212	0x3ee57846	0.44818324
213	0xc075fd6b	-3.8435924
214	0xc037fe1f	-2.8748853
215	0xc018498c	-2.379489
216	0xc0932e7c	-4.5994244
217	0xc08342f2	-4.101922
218	0xbf788fd9	-0.97094494
219	0x3f018c13	0.5060436
220	0x3e356012	0.17712429
221	0x3ef6c55d	0.4819745
222	0xbfb2ba91	-1.3963186
223	0xc11dc2e6	-9.860083
224	0x4097bb53	4.7416167
225	0x3ff787de	1.9338338
226	0x41105363	9.020358
227	0x40c8879e	6.266555
228	0x3eabb941	0.33539775
229	0x3f3116de	0.6917552
230	0x3fe98c50	1.8245945
231	0x3f8bf798	1.0934935
232	0xbd07cb2b	-0.03315274
233	0xc107a028	-8.476601
234	0xbfc1b0ba	-1.5132058
235	0x40b10ef8	5.5330772
236	0xc1327cf6	-11.155508
237	0xc113e72d	-9.243939
238	0x3f377038	0.7165561
239	0xc081a543	-4.0514235
240	0xbeee41b7	-0.4653451
241	0xbee77544	-0.45206654
242	0x3e18e8e1	0.14932586
243	0xc0a845ce	-5.258521
244	0xc04a533c	-3.1613302
245	0x3ecf02a0	0.4043169
246	0xc0175e6d	-2.3651383
247	0xc02e428b	-2.7228115
248	0xbfb212de	-1.3912008
249	0xbfadc3f3	-1.3575424
250	0xbead6c91	-0.33871892
251	0x3fa401c1	1.2813035
252	0x3f0763d6	0.5288671
253	0xc10b4d8a	-8.70643
254	0x408ba98b	4.364446
255	0x3f02ddba	0.5111958

layers.0.bias f4 [128]
0	0xbedcbcfb	-0.4311293
1	0x40976d65	4.732104
2	0x3e2912e5	0.16511114
3	0xbfbf20fe	-1.4931943
4	0xbe0aeebf	-0.13567637
5	0x3f90cc85	1.1312414
6	0x3fd25e6c	1.6435065
7	0x3e80d38c	0.25161397
8	0x3fdb14e2	1.7115748
9	0x3eb9468a	0.3618663
10	0xbf827b8a	-1.0193951
11	0x40c52d6c	6.1617947
12	0x3f21467b	0.6299817
13	0xc0294f22	-2.645455
14	0x3f2bdce2	0.67133915
15	0xc0034886	-2.0513015
16	0x3ef9e83b	0.4880999
17	0x3fa04910	1.2522297
18	0x3f59821e	0.8496417
19	0xbeab7841	-0.33490184
20	0x401fb444	2.4953775
21	0x3fa7959a	1.309253
22	0xbf2d10ae	-0.67603576
23	0x3fbd6357	1.4795941
24	0x3ce296e5	0.027659843
25	0x3f140948	0.5782666
26	0x3fe8489d	1.814716
27	0x3ece2983	0.40266046
28	0x3fa76e06	1.3080451
29	0xbec20f36	-0.3790223
30	0xbe7317d7	-0.23739563
31	0x3eb1164f	0.34587333
32	0x40c9de6a	6.3084
33	0x3f0dd04e	0.5539597
34	0xc010f880	-2.2651672
35	0x40261099	2.594763
36	0xbfa7bf7d	-1.3105313
37	0x40fb8075	7.859431
38	0xbde6f701	-0.11277581
39	0xbf364003	-0.71191424
40	0x3f8efb31	1.1170408
41	0xbe4c8825	-0.1997381
42	0x3e56e83d	0.2098703
43	0xbf477e98	-0.7792754
44	0x3f20dede	0.6284007
45	0x3f39762f	0.7244596
46	0x400c11c7	2.188585
47	0x3f9fd563	1.2486995
48	0xbf683a55	-0.9071401
49	0xbf399799	-0.72496945
50	0x3f4404b2	0.76569664
51	0x3d41e4b3	0.047337245
52	0xbe8f128b	-0.27943835
53	0xbf0f6fbc	-0.5602987
54	0xc0336085	-2.802766
55	0xbf108661	-0.56455046
56	0xbf5beefe	-0.8591155
57	0x3e98056f	0.29691646
58	0xc0223410	-2.5344276
59	0xbf5d2e50	-0.8639879
60	0x3f7bb87f	0.98328394
61	0xbe3fe458	-0.1873945
62	0xbf76c1e9	-0.96389633
63	0xc030e9bf	-2.7642667
64	0x40149596	2.32163
65	0x4005216e	2.0801654
66	0x3e4b45f2	0.19850901
67	0x4023cb7b	2.5592945
68	0xbfaa9f07	-1.3329781
69	0xbe26e4a5	-0.16298158
70	0xbf0ece42	-0.55783474
71	0x401f7942	2.491776
72	0xbbb837c4	-0.005621882
73	0x3ed1ea08	0.40998864
74	0xbfd04c6b	-1.6273321
75	0xbfc01a08	-1.5007944
76	0xbf29f5de	-0.6639079
77	0x3f189637	0.5960421
78	0xbf59e838	-0.8511996
79	0xc00fabb2	-2.2448545
80	0x3ef7117c	0.48255527
81	0xc02c7ae4	-2.6950006
82	0x40052977	2.0806558
83	0x3f9ca3d8	1.2237501
84	0x3ed168be	0.40900224
85	0x3fd744fc	1.6817927
86	0xbf601b93	-0.87542075
87	0x3fbe2410	1.4854755
88	0xbf2e7069	-0.68140274
89	0xbf7c8ad5	-0.9864934
90	0xbed77f92	-0.42089516
91	0xbe402a49	-0.1876613
92	0x3fe2a84a	1.7707608
93	0x3fb56399	1.417102
94	0xbcbf32c1	-0.023339631
95	0x40299197	2.649511
96	0x3f97e56d	1.186689
97	0xc009da6c	-2.1539564
98	0x4088dbb1	4.276818
99	0xbf678d86	-0.9045032
100	0xbff97024	-1.9487348
101	0x3f64dfd4	0.89404035
102	0xbe9a0e77	-0.3008916
103	0x403110f9	2.766661
104	0x40028acc	2.0397215
105	0x3f7147a8	0.94249964
106	0x3f97beaa	1.1855061
107	0x406e2415	3.7209523
108	0xbf24709d	-0.64234334
109	0x3f97013c	1.1797252
110	0x3f207eff	0.6269378
111	0xbfc074b8	-1.503562
112	0x3f0aefb2	0.54271996
113	0xc028b8f0	-2.6362877
114	0xbf7d90b2	-0.9904891
115	0x3e2ae06b	0.16687171
116	0x3f5470e8	0.8298478
117	0x40334060	2.8008041
118	0xbe0c84c8	-0.13722527
119	0xbe9b224f	-0.30299613
120	0x40864c1a	4.1967897
121	0xbe271a85	-0.1631871
122	0xc01d12b0	-2.4542656
123	0xbe6f480e	-0.2336733
124	0xbfb3ca67	-1.4046143
125	0xc003ff6a	-2.0624642
126	0x40713427	3.7688081
127	0x3e93682e	0.2879042

layers.1.weight f4 [128]
0	0x3eb57835	0.35443273
1	0x3fcf49b5	1.6194369
2	0x3fd7ffbc	1.6874919
3	0x4017efe9	2.374018
4	0x3ea4fbf3	0.32223472
5	0x3f25df61	0.64793974
6	0x3ff57f5c	1.9179492
7	0x3f026070	0.509284
8	0x3f3af7df	0.7303447
9	0x3e969bbd	0.29415694
10	0x3f0fc5ed	0.56161386
11	0x401650a0	2.348671
12	0x4016db0c	2.3571196
13	0x3ee3e5d0	0.4451127
14	0x3fcca4ff	1.5987853
15	0x3fbfe537	1.4991826
16	0x3e8c0528	0.27347684
17	0x3f85de20	1.0458412
18	0x3f4710c0	0.77759933
19	0x3d9af049	0.07565362
20	0x3fffce87	1.9984902
21	0x3ead3ad5	0.33833948
22	0x3ec8fc17	0.3925483
23	0x3fabb5f1	1.3414899
24	0x3e9a2ccc	0.30112302
25	0xbb90a336	-0.0044139875
26	0x3bed1ecf	0.0072363387
27	0x3ecdcac3	0.40193757
28	0x3ee357be	0.4440288
29	0x3e910a07	0.28327963
30	0x4008fa0b	2.1402614
31	0x3f07ec94	0.53095365
32	0x4043bdc4	3.0584574
33	0x3ebabe6b	0.36473402
34	0x3fd1e414	1.6397729
35	0x3fbdbc41	1.4823076
36	0x3f498cc8	0.7873044
37	0x400c8f8e	2.196262
38	0x3ea7812f	0.32715747
39	0xbc8c74e7	-0.017145587
40	0x3ffb2ba3	1.9622692
41	0x3f19d055	0.60083514
42	0x3eefc431	0.4682937
43	0x3ff5750a	1.9176342
44	0x3f322c7c	0.6959913
45	0x3e99c5b2	0.30033642
46	0x3feb08e7	1.8362092
47	0x3f3fd83b	0.74939317
48	0x3ff97201	1.9487916
49	0x402d7d73	2.7107818
50	0x3ecc8ecb	0.39952692
51	0x3d918ccc	0.07106933
52	0x401ab1b3	2.417096
53	0x3ef384d3	0.47562274
54	0x403026b7	2.752363
55	0x3fde144e	1.7349946
56	0x40053561	2.081383
57	0x3fec4a6a	1.8460209
58	0x3e71d450	0.23616147
59	0x3fe716d5	1.8053843
60	0x3effe644	0.49980366
61	0x3ffe0e63	1.984814
62	0x3f848e27	1.0355881
63	0x401f6c52	2.4909863
64	0x3f25f516	0.64827096
65	0x3f591956	0.84804285
66	0x3e0cd766	0.13754043
67	0x3fef3af2	1.8689864
68	0x3f412f15	0.75462466
69	0x3e195499	0.14973678
70	0x3e2201c4	0.15820986
71	0x3fee7e85	1.8632361
72	0x3e18ee69	0.14934696
73	0x3ec6809c	0.38769996
74	0x3e865221	0.26234534
75	0x400a2c7f	2.1589658
76	0x3e4f41d7	0.2023996
77	0x3ecc211e	0.39869016
78	0x4039a606	2.9007583
79	0x3fbc3c9c	1.4705997
80	0x3ff369da	1.9016678
81	0x3e31f086	0.17376909
82	0x3f995c3c	1.1981273
83	0x3fe52d44	1.7904439
84	0x3f9ae89c	1.2102237
85	0x3f8e061d	1.1095616
86	0x3f25668c	0.646096
87	0x4013e7bd	2.3110192
88	0x3f5cb3dd	0.8621195
89	0x4014f1a8	2.3272495
90	0x3fe9cbaa	1.8265278
91	0xbc050a74	-0.008120168
92	0x3f1752ba	0.59110606
93	0x3f20560a	0.62631285
94	0x3ea7c87b	0.32770142
95	0x3fa1f2e1	1.2652246
96	0x3f11e174	0.5698464
97	0x3fe25ab9	1.7683936
98	0x3fb74695	1.4318415
99	0x3f2034db	0.6258065
100	0x3fd097f5	1.6296374
101	0x3f8a0390	1.0782337
102	0x3edc0f6f	0.42980525
103	0x3f92b530	1.1461544
104	0x3f9623d2	1.1729681
105	0x3fde2a08	1.7356577
106	0x400bad1c	2.1824408
107	0x3fb732bf	1.4312361
108	0x3e96f41b	0.29483113
109	0x3f345040	0.7043495
110	0x3fe568bc	1.7922587
111	0x3f476264	0.7788451
112	0x3f79a2f8	0.97514296
113	0x40028a74	2.0397005
114	0x3e66b21e	0.22528884
115	0x3f3102ae	0.69144714
116	0x3f85487b	1.0412744
117	0x3fc37149	1.5268947
118	0x3e063d76	0.13109383
119	0x3f439017	0.7639174
120	0x3f8438f1	1.0329877
121	0x3efd9efa	0.49535352
122	0x3f76e947	0.964497
123	0x3e5765e1	0.21034957
124	0x4002b187	2.0420854
125	0x402f69e3	2.7408378
126	0x3fb8e6de	1.4445455
127	0x3e247c84	0.16063124

layers.1.bias f4 [128]
0	0xbfd904db	-1.6954607
1	0xbfc4bd11	-1.5370198
2	0xbd27e21d	-0.040987123
3	0xc028f0c7	-2.639696
4	0xbff1a5df	-1.8878745
5	0xbfbd1c03	-1.4774173
6	0xbb906a29	-0.0044071865
7	0xbf4b9b61	-0.79533964
8	0xc03c7e47	-2.9452074
9	0xbfedbec0	-1.8573837
10	0xbf6e8b3e	-0.93181217
11	0x3e15d242	0.14630988
12	0xbe43a88a	-0.19107261
13	0xbf85c3de	-1.0450399
14	0xbfcc116e	-1.5942819
15	0x3f7469bd	0.95473844
16	0xbf2f215c	-0.6841028
17	0xbfd46cec	-1.659574
18	0x3f509cdb	0.8148934
19	0xbeab8085	-0.3349649
20	0xbf1ecd0f	-0.62031645
21	0xbfad805f	-1.3554801
22	0xbf3e1af6	-0.7425989
23	0xbf93d35c	-1.1548877
24	0xbf3473fe	-0.7048949
25	0xbe1b90e8	-0.15191996
26	0xbf63fc1b	-0.8905656
27	0xbf64b931	-0.8934508
28	0xbf8a2cfa	-1.0794976
29	0xbf3ad784	-0.729851
30	0x3ec4699e	0.3836183
31	0xbfc1e5ef	-1.5148295
32	0xc0a61b10	-5.1908035
33	0xbf165014	-0.5871594
34	0xc013a29b	-2.3067997
35	0xbeb79941	-0.3585911
36	0x3f9c7e67	1.2226075
37	0xc059e5ac	-3.404643
38	0xbfadd970	-1.3581982
39	0xbe831f05	-0.25609604
40	0x3f38caa6	0.72184217
41	0xbf84e5fa	-1.0382683
42	0xbfdf92c2	-1.7466662
43	0xbfca55f4	-1.5807481
44	0xbf807742	-1.0036395
45	0xbf82d062	-1.0219843
46	0x3e39dbec	0.181503
47	0xbf9d47f8	-1.2287588
48	0xbe82bb26	-0.25533408
49	0x3d55f238	0.05223295
50	0xbf720f9e	-0.9455508
51	0xbebd697d	-0.36994544
52	0xbdaf320a	-0.08554466
53	0xbf69e876	-0.9137033
54	0xbfc22231	-1.5166684
55	0xbf8ff637	-1.1247014
56	0xbf865dd6	-1.0497386
57	0xbeda51f0	-0.42640638
58	0xbf880370	-1.0626049
59	0x3f33fee3	0.703108
60	0xbff12b81	-1.8841401
61	0x3ebce47c	0.3689307
62	0xc0034e6c	-2.0516615
63	0xc0833f44	-4.101473
64	0xbf8a7722	-1.0817606
65	0xc05f5064	-3.4892817
66	0xbf01c71e	-0.50694454
67	0xbfb8c3dd	-1.4434773
68	0xbfa2dbe7	-1.2723359
69	0xbf7eb81d	-0.99499685
70	0xbf05e80a	-0.5230719
71	0xbf646b7d	-0.89226514
72	0xbf72c7db	-0.94836205
73	0xbf7e21cd	-0.99270326
74	0xbf53ce8b	-0.82737035
75	0xbf9e78e1	-1.2380639
76	0xbebe9e60	-0.37230206
77	0xbfc671bd	-1.550346
78	0xbf8f36ae	-1.1188562
79	0xbfb98bf3	-1.4495834
80	0x3f5b4e0d	0.8566597
81	0xbf3b3fd6	-0.7314428
82	0x3fa442af	1.283285
83	0xbfe73bf2	-1.8065169
84	0x3f9a7cbe	1.2069318
85	0xc084d40a	-4.1508837
86	0xbfa5fa08	-1.2966928
87	0x3e8d67d5	0.2761828
88	0xbfc663ac	-1.5499167
89	0xbf739205	-0.95144683
90	0xbb11631e	-0.0022184323
91	0xbe3ce1ef	-0.18445562
92	0xbfe05f25	-1.7529036
93	0xbfb3059d	-1.3986088
94	0xbfb28035	-1.3945376
95	0xc047381a	-3.1127992
96	0xbfc4e6b7	-1.5382909
97	0xbfe6582b	-1.7995657
98	0xbf94a8c2	-1.1614001
99	0xbf8bf025	-1.0932661
100	0xbf994ebb	-1.1977152
101	0xbfab9af0	-1.3406658
102	0xbf36cc0a	-0.7140509
103	0xbfa5fea2	-1.2968333
104	0xc04340f7	-3.0508401
105	0xbfac6695	-1.3468806
106	0xbf03d694	-0.51499295
107	0xc0ab91ed	-5.361563
108	0xbfb79609	-1.4342662
109	0xbfede83d	-1.8586498
110	0xbf8bd043	-1.0922931
111	0xc017d15e	-2.3721538
112	0xc055955b	-3.337241
113	0xbf391eab	-0.7231242
114	0xbf593ec9	-0.8486143
115	0xbf826eb4	-1.0190034
116	0xc07f22b5	-3.9864933
117	0xbfa79787	-1.3093117
118	0xbe7d27d9	-0.24722232
119	0xbfb26adc	-1.3938861
120	0xc002f577	-2.046232
121	0xbf79ba34	-0.9754975
122	0xbfd0618e	-1.6279771
123	0xbefc0040	-0.4921894
124	0xc022d0e8	-2.5440006
125	0xbfae4601	-1.3615113
126	0x3f929038	1.1450262
127	0xbed781cb	-0.42091212

layers.1.running_mean f4 [128]
0	0x457ca764	4042.462
1	0x44bd084b	1512.2592
2	0x45a855e1	5386.735
3	0x46e3659c	29106.805
4	0xc44ad364	-811.303
5	0xc5c1b95f	-6199.1714
6	0xc389b2c5	-275.39664
7	0x45ab24e9	5476.614
8	0xc50255aa	-2085.354
9	0xc5a35e4b	-5227.7866
10	0xc54745ed	-3188.3704
11	0x460c4d15	8979.2705
12	0xc5e5b288	-7350.3164
13	0xc4eb2251	-1881.0724
14	0xc6618359	-14432.837
15	0x459009a4	4609.205
16	0x456cfd4f	3791.8318
17	0xc3e49bf9	-457.21854
18	0xc6358a44	-11618.566
19	0x4500149b	2049.2878
20	0x460ba807	8938.007
21	0xc51bd9b6	-2493.607
22	0x4580e010	4124.008
23	0xc491db5d	-1166.8551
24	0xc5868f35	-4305.901
25	0x45b52bd9	5797.481
26	0x45bef2ed	6110.3657
27	0x45452bbc	3154.7334
28	0xc4197f2b	-613.987
29	0x4539d201	2973.1252
30	0x463aadc8	11947.445
31	0x460978bb	8798.183
32	0xc603296f	-8394.358
33	0xc57f6228	-4086.1348
34	0xc63a6ec7	-11931.694
35	0xc642e9c4	-12474.441
36	0x45d8df1a	6939.8877
37	0xc66c5f53	-15127.831
38	0x45b67f81	5839.938
39	0x44d00e4a	1664.4465
40	0x46039ad5	8422.708
41	0xc498201c	-1217.0034
42	0xc622be2e	-10415.545
43	0x4609371f	8781.78
44	0x449fda87	1278.829
45	0x4614bd5c	9519.34
46	0x463fec4b	12283.073
47	0x461b9bc2	9958.939
48	0x460dbd0b	9071.261
49	0x4551117e	3345.0933
50	0xc60765a4	-8665.41
51	0xc40c324b	-560.7858
52	0xc5f1abbc	-7733.467
53	0x4542f97e	3119.5933
54	0xc613c158	-9456.336
55	0x4580ccf8	4121.621
56	0xc62e1a4a	-11142.572
57	0x45a311f6	5218.245
58	0x45beeabd	6109.3423
59	0x460add83	8887.378
60	0xc4a0aa00	-1285.3125
61	0xc68c58df	-17964.436
62	0x45814a5b	4137.2944
63	0xc42d647f	-693.57025
64	0xc4930869	-1176.2628
65	0xc53bbddb	-3003.866
66	0xc3216892	-161.40848
67	0xc60cb4b2	-9005.174
68	0xc4c7cfa6	-1598.489
69	0x43c9b377	403.40207
70	0x45e600d1	7360.102
71	0x448bfbac	1119.8647
72	0x45414f5e	3092.9604
73	0xc58f9f7d	-4595.936
74	0x45898331	4400.399
75	0xc620d056	-10292.084
76	0x45041fd5	2113.9895
77	0x45d4dd16	6811.6357
78	0xc638d192	-11828.393
79	0x4624b286	10540.631
80	0xc5b3ccc3	-5753.595
81	0x46126871	9370.11
82	0xc61b80b1	-9952.173
83	0xc622b0c0	-10412.1875
84	0xc632178a	-11397.885
85	0xc5241d84	-2625.8447
86	0x44a9f88e	1359.7673
87	0xc633cebc	-11507.684
88	0x452f7896	2807.5366
89	0xc54896dc	-3209.4287
90	0x460c840a	8993.01
91	0x44f1abc2	1933.3674
92	0x45d31726	6754.8936
93	0x4606e26c	8632.605
94	0x45e5383e	7335.0303
95	0xc60e4b18	-9106.773
96	0xc4e299ed	-1812.8102
97	0xc5dd7611	-7086.7583
98	0x45d69168	6866.176
99	0xc5446f50	-3142.957
100	0x462eade4	11179.473
101	0x460298a7	8358.163
102	0xc4f7d486	-1982.6414
103	0x460e8e7b	9123.62
104	0xc628a0c4	-10792.191
105	0xc4c38820	-1564.2539
106	0xc640d648	-12341.57
107	0xc53e13dc	-3041.2412
108	0xc5c48bb1	-6289.4614
109	0xc60484a0	-8481.156
110	0x46131b8b	9414.886
111	0x4613cb2d	9458.794
112	0x433e46b9	190.27626
113	0x460290e0	8356.219
114	0x45995c52	4907.54
115	0xc5a75ccd	-5355.6
116	0xc53b08ad	-2992.5422
117	0xc4e34482	-1818.1409
118	0x452b0ade	2736.6792
119	0x459cdd44	5019.658
120	0xc62b7c78	-10975.117
121	0xc551ad07	-3354.8142
122	0xc59d4f16	-5033.8857
123	0xc44da331	-822.54987
124	0xc60078ff	-8222.249
125	0xc633a15c	-11496.34
126	0xc590bd95	-4631.6978
127	0xc4c8c0dd	-1606.027

layers.1.running_var f4 [128]
0	0x49327473	730951.2
1	0x48df482c	457281.38
2	0x4a14c1f6	2.4372455e+06
3	0x484806f4	204827.81
4	0x4a67e99e	3.7996555e+06
5	0x49359b0c	743856.75
6	0x491eb376	650039.4
7	0x4883e779	270139.78
8	0x4a62b832	3.7145725e+06
9	0x49a1f6c8	1.326809e+06
10	0x496e72fc	976687.75
11	0x48751b36	250988.84
12	0x4a42fc03	3.1946248e+06
13	0x49c720e2	1.6312602e+06
14	0x47e98017	119552.18
15	0x49835b96	1.0760828e+06
16	0x48ad0274	354323.62
17	0x48891da3	280813.1
18	0x48aec16a	357899.3
19	0x48d4b342	435610.06
20	0x4914a515	608849.3
21	0x4936c95c	748693.75
22	0x497027e4	983678.25
23	0x4963d4b9	933195.56
24	0x49671315	946481.3
25	0x4a3b7ff8	3.071998e+06
26	0x48bdbca3	388581.1
27	0x4b9daa88	2.0665616e+07
28	0x491efd38	651219.5
29	0x4896daed	308951.4
30	0x4865285d	234657.45
31	0x47f8b987	127347.055
32	0x48bc7131	385929.53
33	0x49b54e78	1.485263e+06
34	0x4922ae35	666339.3
35	0x48c9fc7c	413667.88
36	0x4897f0c5	311174.16
37	0x4898942f	312481.47
38	0x48385c74	188785.81
39	0x490e5a58	583077.5
40	0x48acb0f1	353671.53
41	0x49d44bf7	1.7391349e+06
42	0x49a13d71	1.3208781e+06
43	0x484cdd81	209782.02
44	0x496e19d3	975261.2
45	0x483db429	194256.64
46	0x4916d95e	617877.9
47	0x496dacd2	973517.1
48	0x4902371d	533361.8
49	0x49025e5d	533989.8
50	0x499be01c	1.2769315e+06
51	0x47541d1b	54301.105
52	0x49bedebe	1.5636078e+06
53	0x48bd0f32	387193.56
54	0x4b1ad328	1.01466e+07
55	0x480d77d7	144863.36
56	0x4ae01623	7.3428655e+06
57	0x495eda69	912806.56
58	0x498e1c7c	1.1641755e+06
59	0x48c99ea0	412917.0
60	0x49b9ca2a	1.5219892e+06
61	0x48c685a2	406573.06
62	0x494b86db	833645.7
63	0x48ac01e0	352271.0
64	0x4a8d4c56	4.630059e+06
65	0x4a430178	3.194974e+06
66	0x49037614	538465.25
67	0x48dc2a31	450897.53
68	0x499b2c28	1.271173e+06
69	0x494568d2	808589.1
70	0x4850229e	213130.47
71	0x4932bca9	732106.56
72	0x48fde3c5	519966.16
73	0x495876bc	886635.75
74	0x4a014741	2.1180962e+06
75	0x48886141	279306.03
76	0x48cc0243	417810.1
77	0x4a006bf4	2.104061e+06
78	0x4b97e315	1.9908138e+07
79	0x490bbd00	572368.0
80	0x490679f6	550815.4
81	0x487f83ff	261647.98
82	0x49e0a899	1.8404031e+06
83	0x48a9c53e	347689.94
84	0x49c46ecb	1.6091774e+06
85	0x49349ec9	739820.56
86	0x49fd6540	2.075816e+06
87	0x49dffb3e	1.8348558e+06
88	0x48c90828	411713.25
89	0x48d0e0b8	427781.75
90	0x482410a5	168002.58
91	0x48fa3da1	512493.03
92	0x49c6566f	1.6247819e+06
93	0x49e48b86	1.8722408e+06
94	0x48d57d5f	437226.97
95	0x4901027c	528423.75
96	0x496efdbb	978907.7
97	0x497b7517	1.02996944e+06
98	0x49a3ccc0	1.341848e+06
99	0x49ebc4e2	1.9314202e+06
100	0x490db0ec	580366.75
101	0x4946553a	812371.6
102	0x4888d7ff	280255.97
103	0x4906d170	552215.0
104	0x49d8bc8c	1.7755055e+06
105	0x48bb8fe6	384127.2
106	0x4aa87a9f	5.5207195e+06
107	0x499d85d9	1.2904271e+06
108	0x49850cbf	1.0899439e+06
109	0x49c33daf	1.5994139e+06
110	0x49909ff7	1.1847669e+06
111	0x49b0cc4f	1.4483299e+06
112	0x4b106be0	9.4648e+06
113	0x48e48db6	468077.7
114	0x47cacb10	103830.125
115	0x4a3bb21f	3.0752078e+06
116	0x48a85ad3	344790.6
117	0x497dea7b	1.0400397e+06
118	0x48f0e348	493338.25
119	0x496d4c1d	971969.8
120	0x4a1b91d3	2.5488528e+06
121	0x497c4b06	1.0333924e+06
122	0x49a05d7d	1.3137116e+06
123	0x48fb7e20	515057.0
124	0x493b7c0c	767936.75
125	0x4b9484a0	1.946656e+07
126	0x48d453f9	434847.78
127	0x493f353b	783187.7

layers.4.weight f4 [32, 128]
0	0xbe481bd1	-0.19541861
1	0xbf90def7	-1.1318043
2	0xbf5a35de	-0.85238445
3	0x3fd78a92	1.6839163
4	0x3f3697eb	0.7132556
5	0xbcf45b04	-0.029828556
6	0xbf06600c	-0.52490306
7	0xbef824de	-0.48465627
8	0x3fc39f5a	1.5283005
9	0xbfd4d7c6	-1.6628349
10	0xbf1827ab	-0.5943553
11	0xc02033e3	-2.503167
12	0xc00e1cd7	-2.2205102
13	0xbfe00837	-1.7502507
14	0xc04cad0a	-3.1980615
15	0xbff4b755	-1.9118448
16	0xbe70b086	-0.23504838
17	0xbfd556df	-1.6667136
18	0xbf75a20b	-0.9595038
19	0xbe9ced88	-0.30649972
20	0xbf91d791	-1.1393911
21	0xbf136b48	-0.57585573
22	0xbd9c0149	-0.076174326
23	0xbfc65b6b	-1.5496649
24	0xbf45a641	-0.7720681
25	0xbd26637b	-0.040622216
26	0xbf035186	-0.5129627
27	0xbebb5e9a	-0.36595613
28	0xbf1390c6	-0.5764278
29	0x3ed4e086	0.41577548
30	0xbfe2d7d3	-1.7722114
31	0xbf7f50f7	-0.9973292
32	0x4129058c	10.563854
33	0xbf9efe2e	-1.242132
34	0xc0a3bef0	-5.117058
35	0xbfc68c9b	-1.5511659
36	0xbfd22e74	-1.6420426
37	0x3fa42a32	1.2825377
38	0xbf0f6ac6	-0.560223
39	0xbe0e3a89	-0.13889517
40	0xc01fedff	-2.4989011
41	0x3d0bb595	0.034108717
42	0xbe868f96	-0.26281422
43	0xc0217b84	-2.5231638
44	0xbf06d592	-0.5266963
45	0xbee6f984	-0.4511224
46	0xbf0ea01a	-0.55713046
47	0xbea4cc79	-0.3218725
48	0xbf615038	-0.8801303
49	0xbf8bd463	-1.092419
50	0xbc934d56	-0.017981213
51	0xbc0e0874	-0.008669008
52	0xbfefef48	-1.8744898
53	0xbeb46a6e	-0.3523745
54	0xbfa9f174	-1.3276811
55	0xc0431daf	-3.0486867
56	0xbf8e3427	-1.1109666
57	0xbf2932c9	-0.66093117
58	0xbb4f20a7	-0.0031605156
59	0xbf0f409c	-0.5595796
60	0x3e532b9c	0.20622104
61	0xbf5231c6	-0.821072
62	0xbf3fd17b	-0.74929017
63	0x40a0f6e0	5.030136
64	0xbead09bd	-0.33796492
65	0x3f7e42ee	0.99320877
66	0x3e8da186	0.27662295
67	0xc00a2029	-2.158213
68	0xbf8097c2	-1.0046313
69	0x3e93d49a	0.2887314
70	0xbf2eb06d	-0.68237954
71	0x3fc3cac9	1.529626
72	0xbe16ff9b	-0.14745943
73	0xbe5f899c	-0.21829838
74	0x3dedc30f	0.1160947
75	0xbfefcedd	-1.8735005
76	0xbf11a973	-0.56899184
77	0xbfa5b6da	-1.2946427
78	0xc00b233e	-2.174026
79	0xbf9c34b1	-1.220358
80	0xbf99b982	-1.2009737
81	0xbe9677d7	-0.29388306
82	0xbf62727f	-0.8845596
83	0xbff891a2	-1.9419444
84	0xc003f89d	-2.0620492
85	0x4030ea17	2.7642877
86	0xbe1a5be6	-0.15074119
87	0xbf99cf91	-1.2016469
88	0xbf18a2cb	-0.596234
89	0xc04e1ac7	-3.2203844
90	0xbef57099	-0.47937468
91	0xbf3466db	-0.70469445
92	0xbfc7dd6f	-1.5614451
93	0xbfb24564	-1.3927426
94	0xbeb339a8	-0.35004926
95	0x3fdf062e	1.7423761
96	0xbf9125a7	-1.1339616
97	0x400a6850	2.1626167
98	0xbfd866f8	-1.6906424
99	0x3ea0e203	0.31422433
100	0xbfc640d3	-1.5488533
101	0xbf58b911	-0.8465739
102	0x3f1e47d3	0.61828345
103	0xbee5ed94	-0.4490782
104	0x3fbaf58a	1.4606183
105	0xbff3220d	-1.8994766
106	0xbf77f5a4	-0.9685919
107	0x40c5c115	6.1798196
108	0x3e8c8e99	0.27452543
109	0x3fb44176	1.4082477
110	0xbfc43b08	-1.5330515
111	0xbfaf19ed	-1.3679787
112	0xbfb245c0	-1.3927536
113	0xbf386953	-0.7203571
114	0xbfa794dc	-1.3092303
115	0x3e0e8a76	0.13920006
116	0x40548072	3.3203397
117	0xbfe728fa	-1.805938
118	0x3e93adee	0.28843635
119	0xbec7443a	-0.3891924
120	0x3f378b18	0.71696615
121	0x3d8f9908	0.0701161
122	0xbf92a3fd	-1.1456295
123	0xbd85ebe9	-0.06539137
124	0xc0f85c89	-7.761296
125	0xbf51226a	-0.81693137
126	0xbf90ec8c	-1.1322188
127	0x3eaf297f	0.34211347
128	0xbefafb19	-0.49019697
129	0xbfdaeb66	-1.7103088
130	0xbfd8c810	-1.6936054
131	0x40141ba8	2.314188
132	0xbe9e1ac6	-0.30879802
133	0xbf1f92b4	-0.62333226
134	0xbf74362f	-0.9539518
135	0xbe1cf6fd	-0.15328594
136	0x3f8ae51e	1.0851171
137	0xbf3fbe28	-0.7489953
138	0x3c82500c	0.01590731
139	0xc0229f4c	-2.5409727
140	0xbfc0eb0d	-1.5071732
141	0xbe874493	-0.26419505
142	0xc041ddbb	-3.0291584
143	0xc00ff9b1	-2.249615
144	0x3d3dc037	0.04632589
145	0xbfbaff63	-1.4609188
146	0xbeee902f	-0.46594378
147	0xbf188f35	-0.59593517
148	0xbf9c8fae	-1.2231348
149	0xbdbd1194	-0.092318684
150	0xbefacdf0	-0.48985243
151	0xbfae64ce	-1.3624513
152	0xbe60ab35	-0.2194031
153	0xbe01a361	-0.1265998
154	0x3c91df01	0.017806532
155	0x3ec4bc31	0.3842483
156	0xbeb808a2	-0.35944086
157	0xbf75046b	-0.95709866
158	0xc00d5c5a	-2.2087617
159	0xbe9fb0ff	-0.31189725
160	0x412b412b	10.70341
161	0xbe63061d	-0.22170301
162	0xc028c3b6	-2.6369452
163	0xbfec3fb8	-1.8456945
164	0xbf81f8ee	-1.0154092
165	0x3fab1895	1.3366877
166	0x3e0a989b	0.13534777
167	0xbe1d2209	-0.15345015
168	0xbfda4ffb	-1.7055658
169	0xbf382eca	-0.71946394
170	0x3e15c3ec	0.1462552
171	0xc00bba1c	-2.1832342
172	0x3f1b3bbf	0.6063804
173	0x3ee4625e	0.44606298
174	0xc004ee2e	-2.0770373
175	0xbec7c4d3	-0.39017352
176	0xbf4d5d07	-0.80220073
177	0xbf4e32f1	-0.8054648
178	0xbeff833c	-0.4990481
179	0x3e634546	0.22194394
180	0xbf9fd2eb	-1.2486242
181	0xbee3fadb	-0.44527325
182	0xbf72b005	-0.94799834
183	0xbfd556bb	-1.6667093
184	0xbea34750	-0.31890345
185	0xbfe9e941	-1.8274308
186	0xbfe9b2a7	-1.8257645
187	0xc01e365a	-2.4720674
188	0x3f2bbbd8	0.670835
189	0xbf75b641	-0.9598122
190	0x3e891f34	0.2678162
191	0x409331d7	4.599834
192	0xbe142537	-0.14467321
193	0x3fe41a59	1.7820541
194	0x3dca2d88	0.09871966
195	0xc003eadc	-2.0612097
196	0xbebb1b2e	-0.36544174
197	0x3ed9c6cb	0.4253448
198	0x3f17e571	0.59334475
199	0x3f90579a	1.1276734
200	0x3ea9a8fa	0.3313673
201	0xbe708cfc	-0.23491281
202	0xbee46f84	-0.4461633
203	0xbfcf9cb6	-1.6219699
204	0xbf18d8dc	-0.597059
205	0xbde32dcd	-0.1109272
206	0xbf9523a7	-1.1651505
207	0xbf940c34	-1.1566224
208	0xbf7ac0df	-0.9795055
209	0xbedd399b	-0.43208012
210	0xbfb1e97c	-1.3899379
211	0xc007320b	-2.1124294
212	0xbf1d1523	-0.6136038
213	0x4024e890	2.5766945
214	0x3fd8e7af	1.6945704
215	0xbf6ddce9	-0.9291521
216	0x3e04e507	0.12977992
217	0xc06ef23b	-3.7335346
218	0xc004bbf3	-2.0739715
219	0xbe53ae83	-0.2067204
220	0xbfd655d2	-1.674494
221	0x3f97e72d	1.1867424
222	0x3f8075a8	1.0035906
223	0x3f9586db	1.168178
224	0xbe7f906f	-0.24957441
225	0x3fdfd322	1.7486308
226	0xbf0fe0c6	-0.5620235
227	0x3e399c4c	0.18126029
228	0xc011d725	-2.2787564
229	0xbfaa6ee0	-1.3315086
230	0x3e16ec42	0.14738563
231	0xbf494d98	-0.78634024
232	0x3fedc9b9	1.8577186
233	0xbffe55d2	-1.986994
234	0xbf920269	-1.1406986
235	0x40b5fc30	5.6870346
236	0x3f4cab6d	0.79949075
237	0x3f37ec24	0.71844697
238	0xc0357be7	-2.8356874
239	0xbede8cd1	-0.4346681
240	0xbefe7a09	-0.4970248
241	0xc03bef32	-2.9364743
242	0xbf5de06b	-0.8667056
243	0x3dc4b835	0.09605447
244	0x4053474a	3.3012261
245	0xbfeb753f	-1.8395156
246	0x3da56d0b	0.08077439
247	0xbf30ca5d	-0.6905878
248	0xbf095a86	-0.5365375
249	0x3f0383df	0.51373094
250	0xbe3b1d25	-0.18272837
251	0x3e8f94aa	0.2804311
252	0xc0a25332	-5.0726557
253	0xbfd6409a	-1.6738465
254	0xbfe7121b	-1.80524
255	0x3e00e28b	0.1258642

layers.4.bias f4 [32]
0	0x40c1c87e	6.055724
1	0x409176c5	4.545748
2	0x408d7a58	4.4211845
3	0x3ebfd289	0.37465313
4	0x40bea328	5.9574165
5	0x40da0d41	6.814118
6	0x40308c5f	2.7585676
7	0x3fecd621	1.8502847
8	0x411b9018	9.722679
9	0x40066570	2.0999413
10	0x409decc4	4.935152
11	0x40c142c8	6.039402
12	0x408f1d07	4.4722934
13	0x40cda375	6.4262033
14	0x4101cd10	8.112564
15	0x3e639360	0.22224188
16	0x40f86dbb	7.763395
17	0xc024fd1f	-2.5779493
18	0x40db7b08	6.8587685
19	0x40de07cb	6.9384513
20	0x4037b078	2.8701458
21	0x40c3c202	6.1174326
22	0x40940f68	4.6268806
23	0x405269f3	3.2877166
24	0x40e8ddf2	7.277093
25	0x40bee671	5.96563
26	0x40fa7359	7.8265805
27	0x40a6a27f	5.207336
28	0x4049c7d8	3.1528225
29	0x409bf80a	4.874028
30	0x4090fde2	4.5309916
31	0x3ff17c67	1.886609

layers.5.weight f4 [32]
0	0x41136224	9.21146
1	0x410561b0	8.3363495
2	0x40f2f0a6	7.591876
3	0x40bca2b4	5.894861
4	0x40d12fe8	6.537098
5	0x410d8c4b	8.846751
6	0x40fa85c2	7.828828
7	0x40e68f4f	7.2049937
8	0x40f9a2ea	7.801137
9	0x40d1c3de	6.5551596
10	0x410cde5a	8.804285
11	0x410749a2	8.455477
12	0x40dea24a	6.9573107
13	0x410ded93	8.8705015
14	0x41015e57	8.085532
15	0x40d3d79b	6.620069
16	0x40e717f5	7.2216744
17	0x4043c07e	3.0586238
18	0x40fca41e	7.895034
19	0x4117d039	9.488336
20	0x40c7629e	6.230788
21	0x40f839f4	7.7570744
22	0x40fa5355	7.8226724
23	0x40eeb020	7.4589996
24	0x40ec1a23	7.3781905
25	0x41093319	8.574975
26	0x41046675	8.275014
27	0x40db7104	6.857546
28	0x40a5958f	5.1745067
29	0x4088f44f	4.279823
30	0x4101bd74	8.108753
31	0x40947c56	4.6401777

layers.5.bias f4 [32]
0	0xc1839cc1	-16.45154
1	0xc1501c93	-13.006976
2	0xc14fefcc	-12.996044
3	0x3f4302c9	0.76176125
4	0xc09eff8b	-4.968694
5	0xc17ac8b9	-15.674005
6	0xc165367f	-14.325805
7	0xc127ab66	-10.479345
8	0xc152906e	-13.160261
9	0xc11b8b19	-9.721459
10	0xc17a31dc	-15.637173
11	0xc17f594a	-15.959299
12	0xc126a410	-10.415054
13	0xc1815c06	-16.169933
14	0xc15785bb	-13.470149
15	0xc0e757f0	-7.2294846
16	0xc1550f8e	-13.316298
17	0x4038c5fa	2.8870835
18	0xc17efa53	-15.936114
19	0xc1850cd7	-16.63127
20	0xc0f63857	-7.6943774
21	0xc171c9df	-15.111785
22	0xc13d7d26	-11.843054
23	0xc139c9c1	-11.611756
24	0xc0a032a3	-5.0061812
25	0xc184e1d4	-16.610268
26	0xc1738a65	-15.221288
27	0xc133e3e5	-11.243138
28	0x3fbfbeb5	1.4980074
29	0x400d5387	2.208223
30	0xc177c95e	-15.486662
31	0x3fee9263	1.8638424

layers.5.running_mean f4 [32]
0	0xc20cd45a	-35.207375
1	0xc221406f	-40.312923
2	0xc23885f8	-46.13083
3	0xc20713fb	-33.769512
4	0xc22b6c86	-42.85598
5	0xc22ca80b	-43.164104
6	0xc2306a27	-44.103664
7	0xc21fcfd4	-39.952957
8	0xc1e05831	-28.043062
9	0xc2222aca	-40.541786
10	0xc21e78d3	-39.617992
11	0xc20d465c	-35.31871
12	0xc21c2544	-39.036392
13	0xc1b86be2	-23.052677
14	0xc2071609	-33.77152
15	0xc2215f3c	-40.343002
16	0xc1fdab24	-31.708565
17	0xc0c0f4d7	-6.0298877
18	0xc2157ed9	-37.373875
19	0xc2290146	-42.251244
20	0xc1fa1817	-31.261763
21	0xc1ff5556	-31.916668
22	0xc20e671b	-35.60069
23	0xc21ac54b	-38.69267
24	0xc222b648	-40.67801
25	0xc21264fb	-36.598614
26	0xc21c7948	-39.11844
27	0xc23a8863	-46.63319
28	0xc1c57ec8	-24.686905
29	0xc1c7c2c8	-24.970108
30	0xc210c997	-36.196865
31	0xc1a9a6ab	-21.20638

layers.5.running_var f4 [32]
0	0x438fce4f	287.6118
1	0x43f37c89	486.97293
2	0x43f761fa	494.76544
3	0x44bf8690	1532.2051
4	0x4482bf59	1045.9796
5	0x43e12d85	450.35562
6	0x43aab3b8	341.40405
7	0x440fbb2c	574.92456
8	0x4399ac3b	307.34555
9	0x4405ef2b	535.737
10	0x43b0a654	353.29944
11	0x43b05ecd	352.74063
12	0x44031146	524.2699
13	0x433976ea	185.46451
14	0x43abb41e	343.40717
15	0x440a2d68	552.7095
16	0x4378ecad	248.92451
17	0x44366681	729.6016
18	0x4399d6d9	307.6785
19	0x43bf02a7	382.02072
20	0x43f27841	484.93948
21	0x4375071d	245.02779
22	0x439b33f5	310.4059
23	0x439ce3e1	313.7803
24	0x44a8ac4e	1349.3845
25	0x439f50bf	318.63083
26	0x439d14a2	314.1612
27	0x43e6b90a	461.44562
28	0x44ad6d0b	1387.4076
29	0x451b1a35	2481.638
30	0x438dd023	283.62607
31	0x44e1cce3	1806.4027

output_layer.weight f4 [1, 32]
0	0x41f666ca	30.80019
1	0x41c79316	24.94682
2	0x41b6c06a	22.843952
3	0x40845e99	4.1365476
4	0x40e47ddd	7.140364
5	0x41f56f03	30.679205
6	0x41c95feb	25.171835
7	0x419879dd	19.059504
8	0x41ab731a	21.431202
9	0x41655482	14.333132
10	0x41ed43af	29.658049
11	0x41eec355	29.845377
12	0x4186a0e8	16.828568
13	0x41de6209	27.797869
14	0x41af4cc3	21.912481
15	0x411af6e7	9.685279
16	0x41a53501	20.65088
17	0x404aabb1	3.1667292
18	0x41e090e7	28.070753
19	0x41fbde30	31.48349
20	0x41257361	10.340669
21	0x41d80297	27.001265
22	0x418e3960	17.778015
23	0x418ad988	17.356216
24	0x4116520d	9.395032
25	0x41eef9a1	29.87189
26	0x41e3d1c4	28.477425
27	0x41a2d855	20.35563
28	0x405d4154	3.4571123
29	0x404d2fbe	3.206039
30	0x41d9d59e	27.229305
31	0x405afde1	3.4217455
