model_results/Queensland/ANN_PSO_Model/2025-09-01_20-50-12 - Transformed ($)/best_model.pth (torch, 304117 bytes, 13 tensors)

layers.0.weight f4 [512, 11]
0.83372915 2.2842915 -1.0823432 11.97456 -38.560905 4.174297 -6.176364 -1.4131355
1.8632604 -0.79500246 -1.1441923 -0.41280323 -0.32072505 -0.18130855 1.055884 -0.99144644
0.7634312 -0.13144721 -0.18721648 -0.37181282 -0.1933703 0.06428592 2.334494 0.77152693
0.83960956 -2.457835 -14.262938 2.5148456 0.41209528 -5.701445 2.6202757 2.6315615
-7.642688 0.17227131 -1.0170869 -1.1769613 -1.8097501 1.1628125 0.08361347 0.8150986
0.70051146 -0.9262921 -0.5914701 -0.085601754 0.26043266 0.08323366 -0.4023704 -0.015724873
0.19457735 -0.2768513 0.018391222 -0.089712635 -0.17193738 0.065685324 -0.09263034 0.028121898
-0.18411416 0.05219127 -1.2894045 0.73001164 -0.23165788 -0.5873465 -0.7042315 -0.63346255
-0.2510285 -0.14684457 0.21963704 -0.17521489 -0.29356298 -0.08372014 0.25731567 0.34065464
0.23544829 0.22043656 -0.7200817 -0.015589004 0.061864793 0.118450016 -0.7928608 -0.579045
-5.085828 4.2983847 -1.169957 0.22768705 -0.22617191 -0.5906776 -0.18519747 -0.06056328
-0.018446038 -1.8636702 -0.3792054 -43.246883 17.005087 -1.3481083 -13.623321 -14.028919
-0.75703657 -0.24199933 0.08906051 -0.22598505 -0.26085895 -0.5272902 12.262555 -8.942454
-0.13746789 -4.564995 -2.577212 -0.9372729 -0.752724 -0.12309608 -3.1443415 -1.9239491
-2.8056402 -3.282065 2.758313 -1.0762253 4.9594145 4.5793657 -0.010606687 1.2749141
-0.19093667 -2.620648 -1.4086294 -0.010725647 12.605147 -4.7684665 2.013436 -13.921725
-8.79398 0.76886916 -4.909684 -3.6966658 -0.037198547 -0.63261527 -0.12491147 -21.401453
15.472121 1.564646 -1.4735 -4.4041467 -0.39547363 -0.20784062 -0.06799977 0.00047069087
-1.0314258 0.13750665 51.97716 -8.53947 3.581005 -6.0227747 0.20912197 -2.1155593
-1.5688344 0.018729221 -0.6619183 -0.06860171 0.036039535 -4.9317837 5.1880903 -0.13894396
-1.286923 -1.5581107 -0.5442064 -0.63978297 -0.2983203 0.15574287 -0.034795236 2.889988
-18.237362 21.011644 -8.415078 -0.080133505 6.500105 -2.247069 0.5625967 -1.1115227
0.119355775 -0.6791324 -0.42191896 -24.174849 17.832022 0.63282675 -3.2169576 -6.5927773
-0.6559258 -0.4580575 0.097752176 -0.20066623 1.2920345 0.34352875 -29.620697 30.92603
-4.0292697 -1.4910146 13.896566 -3.947388 -13.848402 0.48300946 1.0039568 0.4941118
0.18950337 -25.293026 2.7910795 5.1685457 -20.426699 -29.797478 -0.9092967 0.7770689
-4.8748026 -0.5013389 0.3400163 -0.98918456 14.801986 -18.645565 1.7915238 1.7284801
4.1275325 0.42027634 -0.973068 -0.19500041 -0.2895818 -0.4549193 -0.3456256 -5.328972
5.1298523 -1.5503981 -0.20577367 -1.1071004 0.00027802843 0.015009493 -1.4046274 -0.1285154
-0.6581924 -0.6892279 -1.2063429 0.84420246 -0.54341704 -0.3337222 0.55614644 -0.96455365
-1.177312 0.019043423 0.08691848 -0.89010185 -0.2747364 -12.213732 9.767077 0.402369
-2.376498 -4.739144 -0.5843931 -0.7008343 0.06459043 0.61184347 -0.9013919 -1.131166
00000000: 466f 553f d531 1240 398a 8abf cc97 3f41
00000010: 5e3e 1ac2 d793 8540 c6a4 c5c0 a0e1 b4bf
00000020: 517f ee3f 4885 4bbf e574 92bf f25a d3be
00000030: 1336 a4be f3a8 39be 3527 873f 6fcf 7dbf
00000040: 3a70 433f 199a 06be adb5 3fbe 405e bebe
00000050: dd02 46be 56a8 833d 5a68 1540 ca82 453f
00000060: a7f0 563f 2b4d 1dc0 fe34 64c1 3bf3 2040
00000070: 27fe d23e 3d72 b6c0 99b2 2740 816b 2840
00000080: e690 f4c0 e467 303e e72f 82bf aba6 96bf
00000090: e4a5 e7bf 0ad7 943f 8a3d ab3d 4daa 503f
000000a0: b854 333f 7b21 6dbf 966a 17bf f94f afbd
000000b0: 6e57 853e 6976 aa3d 7e03 cebe 73d1 80bc
000000c0: 493f 473e 74bf 8dbe 30a9 963c 42bb b7bd
000000d0: 5a10 30be 0786 863d fab4 bdbd e55f e63c
000000e0: 6c88 3cbe 83c6 553d 350b a5bf 0be2 3a3f
000000f0: b937 6dbe 575c 16bf 8448 34bf 9a2a 22bf
00000100: cf86 80be 6c5e 16be 88e8 603e 886b 33be
00000110: e34d 96be 7775 abbd e1be 833e 496a ae3e
00000120: 5b19 713e 1fba 613e 4657 38bf 0669 7fbc
00000130: f065 7d3d ec95 f23d edf8 4abf 4b3c 14bf
00000140: 1abf a2c0 5e8c 8940 27c1 95bf cb26 693e
00000150: 9c99 67be a636 17bf 68a4 3dbe 3411 78bd
00000160: 251c 97bc bf8c eebf 3627 c2be cffc 2cc2
00000170: 6b0a 8841 d08e acbf 1ff9 59c1 7476 60c1
00000180: 26cd 41bf acce 77be 5b65 b63d a068 67be
00000190: 4e8f 85be 7efc 06bf 6d33 4441 4b14 0fc1
000001a0: 62c4 0cbe 7014 92c0 0bf1 24c0 1ef1 6fbf
000001b0: 85b2 40bf cc19 fcbd e43c 49c0 f743 f6bf
000001c0: 9c8f 33c0 5a0d 52c0 3388 3040 c0c1 89bf
000001d0: 86b3 9e40 2a8a 9240 abc7 2dbc 6330 a33f
000001e0: e784 43be b2b8 27c0 f84d b4bf a0ba 2fbc
000001f0: afae 4941 4797 98c0 23dc 0040 63bf 5ec1
00000200: 24b4 0cc1 9cd4 443f 221c 9dc0 2c96 6cc0
00000210: 815d 18bd 13f3 21bf 96d1 ffbd 2d36 abc1
00000220: cf8d 7741 5246 c83f a69b bcbf c5ee 8cc0
00000230: 857b cabe 2cd4 54be 7743 8bbd 0fc7 f639
00000240: c305 84bf 8bce 0c3e 9de8 4f42 aba1 08c1
00000250: 302f 6540 92ba c0c0 1224 563e 5365 07c0
00000260: 91cf c8bf 066e 993c 7a73 29bf 0e7f 8cbd
00000270: 319e 133d 2cd1 9dc0 d604 a640 5347 0ebe
00000280: e5b9 a4bf 2c70 c7bf 1c51 0bbf d1c8 23bf
00000290: 70bd 98be 0f7b 1f3e 7385 0ebd 90f5 3840
000002a0: 1ee6 91c1 d917 a841 29a4 06c1 091d a4bd
000002b0: dc00 d040 facf 0fc0 5606 103f 6046 8ebf
000002c0: cd70 f43d 9fdb 2dbf c305 d8be 1766 c1c1
000002d0: fba7 8e41 ef00 223f a2e2 4dc0 08f8 d2c0
000002e0: c1ea 27bf 8386 eabe 4b32 c83d 737b 4dbe
000002f0: 6361 a53f 00e3 af3e 30f7 ecc1 8268 f741
00000300: c7ef 80c0 91d9 bebf 5658 5e41 01a2 7cc0
00000310: 0e93 5dc1 044d f73e a881 803f 39fc fc3e
00000320: 2c0d 423e 1e58 cac1 0ca1 3240 ba64 a540
00000330: e169 a3c1 3c61 eec1 abc7 68bf fded 463f
00000340: 62fe 9bc0 bf57 00bf 9e16 ae3e 333b 7dbf
00000350: efd4 6c41 1e2a 95c1 a750 e53f d63e dd3f
00000360: bf14 8440 762e d73e fc1a 79bf 30ae 47be
00000370: 1144 94be 2feb e8be d7f5 b0be f086 aac0
00000380: c027 a440 7273 c6bf 55b6 52be 77b5 8dbf
00000390: 58c4 9139 60ea 753c d5ca b3bf 8b99 03be
000003a0: 4c7f 28bf 3d71 30bf 7269 9abf a71d 583f
000003b0: 611d 0bbf a3dd aabe 9d5f 0e3f fdec 76bf
000003c0: 29b2 96bf f400 9c3c 5102 b23d b7dd 63bf
000003d0: 40aa 8cbe 726b 43c1 f345 1c41 4f03 ce3e
000003e0: 8b18 18c0 11a7 97c0 c99a 15bf e069 33bf
000003f0: fd47 843d c6a1 1c3f 9fc1 66bf 0cca 90bf

layers.0.bias f4 [512]
-0.15799265 -0.020512471 -0.058791753 -0.1388153 -0.09509312 -0.10811415 0.28871024 0.14123164
-0.19165683 -0.23968667 0.05350489 -0.020423442 -0.08956527 -0.008189259 0.21279699 0.02932467
-0.04192565 0.06413786 -0.07304383 0.07851905 0.07004124 0.1717116 0.2794418 0.093309455
-0.2797848 0.11154147 -0.112120695 0.09299364 0.08066242 -0.1567105 0.03417617 -0.20831591
0.2917702 0.22763236 0.08888247 0.23049554 0.03772296 -0.13267171 -0.28711158 0.18040384
0.07606792 -0.26100993 -0.10425547 0.08552887 0.19456127 -0.24647443 0.036858197 0.24815123
0.13050663 -0.030922608 -0.2908062 -0.22342041 -0.25722572 0.20676269 0.07167565 0.25376207
0.17371055 -0.052910913 0.15179206 0.27224195 0.02982915 0.19285302 -0.100548856 -0.0051023946
-0.092808686 -0.21772583 0.16457343 0.034934916 0.0040999665 -0.13232566 0.13988467 0.081955366
-0.172128 0.026334189 -0.22881313 -0.07880246 -0.020648012 -0.21360764 -0.027274465 -0.20769385
-0.23931777 -0.24195826 0.21466109 0.15820526 0.19668858 0.20176843 0.00936644 0.27947173
-0.251489 0.2761079 0.21667881 -0.061772514 -0.10292371 -0.0073330365 0.052356012 -0.1858545
0.22846258 0.15752585 -0.23715085 -0.025958914 0.022672359 0.14538305 -0.0005869764 0.009830321
-0.08636713 0.28272069 0.23552902 -0.13949342 -0.09482007 -0.21881832 -0.10482704 -0.1491942
-0.17890711 0.15940288 -0.1571886 -0.24828915 0.010197981 -0.18773496 -0.16285427 0.17528656
0.15117833 0.0786788 -0.25208712 0.23148431 -0.056581862 0.1536117 -0.2282044 0.03276438
0.2528155 -0.07734529 -0.22484155 -0.09306432 -0.26143476 0.064914405 -0.15902013 0.14475535
0.11975647 0.13793945 -0.1828197 0.14454526 0.16370538 -0.27979055 -0.16372706 0.19764486
-0.029064877 0.29053816 -0.05082807 0.27268532 -0.29658982 0.21343729 0.206866 -0.07257173
-0.16700396 -0.26995164 0.28793588 0.084652066 0.27966264 0.23531511 0.2843127 0.1697936
0.17408396 -0.017567141 -0.20600323 0.13879837 0.12186578 -0.19641063 -0.23635651 -0.18367714
0.11540142 0.18044052 -0.26045436 -0.1503208 -0.2585339 0.14346264 -0.09388893 0.14312933
0.24767889 -0.027975934 0.12795435 -0.16517201 0.025091967 -0.22163492 0.1951907 -0.2092607
-0.19108087 0.005525416 -0.044684894 0.2096973 0.15780067 -0.24397121 -0.27187517 0.20286192
-0.09256077 -0.106292896 0.117840715 0.24611364 0.26253492 -0.23607832 -0.10994271 0.26891103
0.053650025 -0.09583206 0.075481944 -0.2369417 -0.14297777 -0.28388074 0.2157437 0.09850579
0.17039837 -0.2912516 0.025384748 -0.0014032467 -0.29035854 -0.029139396 -0.28681552 0.097492434
-0.14078398 0.11445898 -0.28856987 0.1457724 -0.19008502 -0.23967421 0.1479112 -0.29776135
0.224541 -2.0990567e-06 0.12985268 0.05470141 0.1416369 0.2773138 0.26019448 -0.24051437
0.12579554 -0.053061906 -0.26699826 -0.27658948 -0.026195548 0.005716045 0.27112398 0.032584097
0.26821434 -0.23868594 -0.15775765 -0.018239927 0.13442567 -0.23867734 -0.19390649 -0.14679344
0.22023438 -0.19136405 -0.053559694 -0.05610601 0.110277064 -0.028909251 0.04068908 0.030631429
00000000: d3c8 21be c509 a8bc 9fcf 70bd 9925 0ebe
00000010: 2fc0 c2bd f46a ddbd d4d1 933e 079f 103e
00000020: b041 44be 6c70 75be f227 5b3d 104f a7bc
00000030: ff6d b7bd 3e2c 06bc 74e7 593e 4a3a f03c
00000040: 3bba 2bbd b65a 833d 0198 95bd 98ce a03d
00000050: c871 8f3d 2ad5 2f3e ff12 8f3e 0719 bf3d
00000060: f43f 8fbe db6f e43d 899f e5bd 7373 be3d
00000070: 5732 a53d b878 20be 50fc 0b3d c450 55be
00000080: e762 953e 7518 693e 0308 b63d 0607 6c3e
00000090: 6483 1a3d 18db 07be 4a00 93be c9bb 383e
000000a0: 7fc9 9b3d 18a3 85be e483 d5bd c329 af3d
000000b0: 123b 473e cb63 7cbe 9ff8 163d 5b1b 7e3e
000000c0: 88a3 053e 6951 fdbc 8de4 94be 52c8 64be
000000d0: 17b3 83be 99b9 533e afca 923d 1aed 813e
000000e0: 2ee1 313e 1db9 58bd 616f 1b3e 4c63 8b3e
000000f0: 435c f43c 437b 453e 8fec cdbd fd31 a7bb
00000100: 7b12 bebd 85f3 5ebe f085 283e ea17 0f3d
00000110: 0359 863b 6180 07be ed3d 0f3e 37d8 a73d
00000120: 5342 30be ccba d73c fd4d 6abe 2f63 a1bd
00000130: 0526 a9bc f6bb 5abe b36e dfbc b2ad 54be
00000140: b80f 75be e8c3 77be 1ed0 5b3e 8f00 223e
00000150: bb68 493e 629c 4e3e b275 193c eb16 8f3e
00000160: 2bc3 80be 045e 8d3e 0de1 5d3e 2d05 7dbd
00000170: abc9 d2bd f849 f0bb 4273 563d a450 3ebe
00000180: 18f2 693e 754e 213e acd7 72be caa7 d4bc
00000190: 62bb b93c 4bdf 143e 52df 19ba 5b0f 213c
000001a0: 40e1 b0bd c4c0 903e 852e 713e 5dd7 0ebe
000001b0: 0631 c2bd e911 60be 8faf d6bd 5dc6 18be
000001c0: 6d33 37be 823a 233e 0cf6 20be 833f 7ebe
000001d0: 6f15 273c 983d 40be 45c3 26be 527e 333e
000001e0: 7ece 1a3e 5a22 a13d 9011 81be 390a 6d3e
000001f0: 62c2 67bd 634c 1d3e 6aae 69be f133 063d
00000200: 0971 813e 3567 9ebd dd3c 66be 8298 bebd
00000210: c7da 85be d8f1 843d 2cd6 22be bf3a 143e
00000220: e142 f53d 0040 0d3e 1635 3bbe ac03 143e
00000230: 62a2 273e b540 8fbe 11a8 27be 6a63 4a3e
00000240: 7719 eebc 6bc1 943e 1831 50bd 699d 8b3e
00000250: 9fda 97be 4e8f 5a3e aed4 533e 7da0 94bd
00000260: 1603 2bbe 1a37 8abe 556c 933e 105e ad3d
00000270: f12f 8f3e 72f6 703e 6f91 913e 60de 2d3e
00000280: 1143 323e f7e8 8fbc 83f2 52be 2921 0e3e
00000290: c494 f93d de1f 49be 7107 72be dc15 3cbe
000002a0: 9457 ec3d 66c5 383e 465a 85be b2ed 19be
000002b0: 8e5e 84be dfe7 123e d748 c0bd 7f90 123e
000002c0: 899f 7d3e c92d e5bc 7706 033e da22 29be
000002d0: ab8d cd3c 44f4 62be 12e0 473e 7048 56be
000002e0: b4aa 43be 8d0e b53b 8207 37bd e4ba 563e
000002f0: 8096 213e 97d3 79be 3933 8bbe 09bb 4f3e
00000300: 8090 bdbd 17b0 d9bd 7956 f13d 3705 7c3e
00000310: fa6a 863e 84be 71be a529 e1bd b5ae 893e
00000320: 21c0 5b3d 9943 c4bd 4796 9a3d d8a0 72be
00000330: c468 12be d158 91be ebeb 5c3e 67bd c93d
00000340: e97c 2e3e ee1e 95be adf3 cf3c 25ed b7ba
00000350: e0a9 94be beb5 eebc 7cd9 92be 1daa c73d
00000360: ad29 10be 7869 ea3d 6ebf 93be 5c45 153e
00000370: a6a5 42be 286d 75be 0976 173e 2d74 98be
00000380: 13ee 653e 85dd 0cb6 1af8 043e 960e 603d
00000390: 4309 113e 13fc 8d3e 3638 853e 6649 76be
000003a0: 8cd0 003e 7157 59bd ffb3 88be 239d 8dbe
000003b0: 0c98 d6bc a94d bb3b c3d0 8a3e e776 053d
000003c0: 6453 893e 166a 74be 398b 21be e66b 95bc
000003d0: e2a6 093e d567 74be 6c8f 46be 0551 16be
000003e0: 1f85 613e f0f4 43be 6961 5bbd 6acf 65bd
000003f0: f1d8 e13d 18d3 ecbc 98a9 263d c3ee fa3c

layers.1.weight f4 [512]
4.38895 0.08927079 4.203501 0.3464126 0.33159405 0.4260987 0.24643306 0.38740182
2.0713158 0.89768314 0.89330727 4.714476 1.0453995 2.4703088 0.5355669 3.0212283
0.84695214 6.8047996 5.254598 1.0108603 0.66645145 0.53110373 0.9524602 0.8684134
0.19126661 0.6424258 0.26792607 1.3668644 0.7477949 3.3950322 0.9516475 3.2542367
0.12538359 3.9152207 17.198202 0.26075014 2.9736319 0.7490603 0.11439542 5.8860073
1.8147006 0.102550186 3.339685 1.8494787 0.7474862 0.11519374 2.232932 4.5182447
0.69895005 0.3269782 4.074293 0.43911427 0.4086968 0.49969023 0.8489425 1.7533625
1.835264 0.55007046 9.563572 1.3545989 0.22824225 1.0856764 2.686431 4.816174
4.1229553 4.094722 2.3508914 6.4913273 6.0078387 0.9843485 2.417499 0.3546469
5.487501 3.122671 2.743875 1.9950144 2.648006 3.9573722 0.7052001 5.454098
3.2850623 5.173594 5.6920934 5.4487395 4.708439 1.1664429 0.1439923 0.3082667
3.979046 0.025638463 0.5322131 1.1037335 1.2495745 4.301826 0.6245647 0.9982384
3.3858953 3.081961 0.33234954 2.534417 3.9871342 0.50961363 4.8853116 0.9195464
3.9100935 1.6136079 3.6819298 3.7626727 1.383582 3.303866 0.22694844 3.2758646
0.40968207 4.6642036 3.410421 0.050373625 11.384299 4.57155 2.1230037 1.2413518
0.47688296 0.12566544 2.2117004 3.1397967 5.456331 3.2260854 0.35614112 0.06879514
0.64785355 2.8817677 7.599653 3.592128 0.9249122 0.9352297 5.8959513 5.289958
4.40732 0.51884836 4.114799 0.81453556 0.43131676 1.8719672 0.8388547 0.61722153
3.5044355 1.968267 5.0287814 3.0813482 0.2627883 0.09681642 3.621517 12.919548
3.856836 5.5090113 0.4442415 0.19814433 4.411518 0.24018028 1.0839139 4.99445
3.765282 0.30312377 1.4350758 3.018033 3.688697 0.6452496 3.903439 0.9201321
1.0751528 2.4469838 4.9051023 3.077918 -0.03049525 2.540393 6.0536613 3.139898
2.4605334 0.42113274 5.291837 0.8520123 1.6238662 4.297566 0.38066512 0.73105997
2.8784401 5.986967 0.14710951 2.2463353 3.9708853 3.7723684 2.1329765 1.6125588
3.1951265 4.815222 0.6150187 3.8700907 2.1174455 1.250418 0.032423392 3.762299
2.2545469 2.527177 4.552563 3.7059639 0.37640572 1.4485719 0.5781741 4.6199064
0.6017621 2.055215 3.479427 2.497344 4.526223 1.5747036 0.012101149 0.54791313
0.1197265 1.8262057 0.5845868 4.4768863 3.928979 1.1052843 1.814578 5.462281
0.39525557 1.8611405 4.818686 14.180271 3.5462782 4.689177 0.30290943 7.635394
0.11414598 0.65390605 4.276134 0.1943857 0.96374345 0.09429788 7.4920254 0.5053124
2.9536774 1.3588655 2.4426754 4.115688 3.3179786 1.3559353 0.7610836 0.10852021
1.2438415 3.031566 6.043795 0.5249425 1.6540201 3.65499 0.3851445 1.3213062
00000000: 4772 8c40 9bd3 b63d 1583 8640 fe5c b13e
00000010: b2c6 a93e 9c29 da3e f358 7c3e 8859 c63e
00000020: 7090 0440 90ce 653f c9af 643f fddc 9640
00000030: a7cf 853f 8a19 1e40 ea1a 093f ce5b 4140
00000040: dbd1 583f ebc0 d940 ab25 a840 df63 813f
00000050: 909c 2a3f 6af6 073f 6fd4 733f 5750 5e3f
00000060: 65db 433e 0476 243f 9b2d 893e 6af5 ae3f
00000070: 7d6f 3f3f 3548 5940 2c9f 733f 6a45 5040
00000080: 8e64 003e fa92 7a40 eb95 8941 0b81 853e
00000090: fc4f 3e40 6ac2 3f3f 2548 ea3d 2c5a bc40
000000a0: 1c48 e83f d505 d23d 66bd 5540 b8bb ec3f
000000b0: 415b 3f3f b2ea eb3d 5ce8 0e40 7695 9040
000000c0: 64ee 323f b069 a73e 9c60 8240 96d3 e03e
000000d0: b540 d13e 66d7 ff3e 4c54 593f 2f6e e03f
000000e0: eee9 ea3f 6bd1 0c3f 6404 1941 7f63 ad3f
000000f0: 56b8 693e 72f7 8a3f 7cee 2b40 191e 9a40
00000100: 40ef 8340 f607 8340 0175 1640 f4b8 cf40
00000110: 3740 c040 43fe 7b3f 4eb8 1a40 4794 b53e
00000120: 9c99 af40 d7d9 4740 a69b 2f40 a25c ff3f
00000130: ee78 2940 9645 7d40 fe87 343f f987 ae40
00000140: 763e 5240 158e a540 a125 b640 135c ae40
00000150: 88ab 9640 004e 953f b872 133e 22d5 9d3e
00000160: b1a8 7e40 c107 d23c 1e3f 083f 2447 8d3f
00000170: 0ff2 9f3f 8fa8 8940 79e3 1f3f 8d8c 7f3f
00000180: 82b2 5840 d93e 4540 b829 aa3e e333 2240
00000190: 352d 7f40 0a76 023f 7954 9c40 6567 6b3f
000001a0: f93e 7a40 b48a ce3f bda4 6b40 a1cf 7040
000001b0: 3719 b13f 8a72 5340 2c65 683e c4a7 5140
000001c0: d9c1 d13e 2841 9540 5644 5a40 9354 4e3d
000001d0: 1726 3641 234a 9240 4bdf 0740 9ee4 9e3f
000001e0: 012a f43e 71ae 003e 808c 0d40 6ef2 4840
000001f0: 439a ae40 2f78 4e40 2158 b63e 77e4 8c3d
00000200: bbd9 253f e26e 3840 5b30 f340 6de5 6540
00000210: 0cc7 6c3f 376b 6f3f a2ab bc40 5647 a940
00000220: c408 8d40 3fd3 043f 6fac 8340 6785 503f
00000230: 8dd5 dc3e 9f9c ef3f 2ebf 563f 3b02 1e3f
00000240: ac48 6040 2cf0 fb3f c7eb a040 cf34 4540
00000250: 308c 863e b047 c63d efc6 6740 78b6 4e41
00000260: 67d6 7640 d249 b040 9f73 e33e 59e6 4a3e
00000270: 282b 8d40 d2f1 753e b1bd 8a3f 89d2 9f40
00000280: 61fa 7040 0a33 9b3e 90b0 b73f 7427 4140
00000290: 9d13 6c40 142f 253f f2d1 7940 c78d 6b3f
000002a0: 9b9e 893f 629b 1c40 99f6 9c40 9cfc 4440
000002b0: 2dd1 f9bc cd95 2240 98b7 c140 17f4 4840
000002c0: 6179 1d40 b69e d73e bb56 a940 7a1d 5a3f
000002d0: d9da cf3f a985 8940 8ae6 c23e bf26 3b3f
000002e0: 5d38 3840 3c95 bf40 e0a3 163e f5c3 0f40
000002f0: fc22 7e40 7c6e 7140 b082 0840 5468 ce3f
00000300: f47c 4c40 4c16 9a40 de71 1d3f 91af 7740
00000310: 3a84 0740 b20d a03f 64ce 043d 82c9 7040
00000320: 7f4a 1040 45bd 2140 99ae 9140 832e 6d40
00000330: 40b8 c03e ce6a b93f 3803 143f 46d6 9340
00000340: 150d 1a3f a488 0340 efae 5e40 7cd4 1f40
00000350: d2d6 9040 e38f c93f e643 463c 0944 0c3f
00000360: 2b33 f53d 1cc1 e93f 7ba7 153f a742 8f40
00000370: 6474 7b40 f579 8d3f 1844 e83f 02cb ae40
00000380: f05e ca3e da39 ee3f ad32 9a40 64e2 6241
00000390: 39f6 6240 bd0d 9640 f216 9b3e 2655 f440
000003a0: 5ec5 e93d 6366 273f 17d6 8840 0c0d 473e
000003b0: e4b7 763f 3f1f c13d acbe ef40 275c 013f
000003c0: 0d09 3d40 4eef ad3f cb54 1c40 b7b3 8340
000003d0: c359 5440 4a8f ad3f 60d6 423f d83f de3d
000003e0: 3336 9f3f 2d05 4240 c566 c140 a262 063f
000003f0: eeb6 d33f 5beb 6940 a931 c53e 9020 a93f

layers.1.bias f4 [512]
-0.45025948 -0.19944507 1.6933209 -1.5204654 -0.7073669 -0.66800076 -0.45215386 -1.3774655
-2.9836566 -2.2523077 -1.4594288 -1.1471245 -1.9407018 -3.9539645 -1.0712286 -4.9109573
-1.9708443 -2.9808464 -0.2896221 -2.1797454 -1.3028948 -0.71731323 -1.8170524 -1.844735
-0.7243086 -1.8943747 -0.47687387 2.026069 -2.5856225 -0.2548222 -1.7586348 -1.9543359
-0.46427956 -1.9902973 -2.5592525 -0.6765593 -0.6202494 -1.2257862 -0.9249312 -3.5025847
-2.6555815 -0.18011056 0.7122889 1.1680632 -1.2424788 -0.6964407 -1.7657338 2.0315914
-1.2777524 -0.5280287 2.3816378 -1.1318276 -0.71885544 -0.86298597 -1.5912539 -2.35896
-2.6942954 -1.3201729 -0.21791361 2.0652435 -1.330322 -1.8096333 -0.8648914 -2.395255
-2.4455025 -2.5412743 -2.4111798 -3.76638 2.0291092 -2.1881423 -4.7614675 -0.9011313
-0.47415957 -4.3325152 -1.5973419 -1.6204426 -0.79575765 -3.146766 -1.118957 -3.4400048
-0.6000093 1.518569 3.2581446 -3.032857 -1.8443711 -2.1690004 -0.53844124 -0.7107581
0.16548516 -0.39492172 -0.83448434 -1.7629933 -2.4310107 -2.271663 -1.0717971 -2.1105733
2.63631 -3.111658 -1.0262017 0.6475686 0.86803305 -1.090061 -3.257712 -1.7863203
-4.3504405 1.8215001 -2.9554808 -0.43521878 -2.0783358 -0.12830356 -0.7029694 -2.9043927
-1.0175651 1.121362 -1.7502304 -1.0458794 -1.1147801 -2.1114879 0.13341877 -2.2244945
-1.3228754 -1.5795423 -4.0471654 -4.7987247 -3.5625021 -0.9277371 -0.8691173 -1.3791513
-1.3955365 -0.5108673 -0.09378952 -3.1085494 -1.4036856 -1.263285 0.9797811 -3.3524625
-4.6374435 -1.5643549 -3.7065544 -1.5230143 -1.5791428 1.4526155 -3.0590332 -0.87107027
-2.7475884 -3.6689363 -4.241933 -3.0058472 -0.731706 -0.39540243 -3.012709 -0.6554448
1.3973846 -2.0497372 -0.80277526 -0.81134015 -2.7843957 -1.1209574 -2.3586051 -1.293584
0.988021 -0.74352103 -0.8320952 -4.102543 -0.6231676 -1.5924681 -0.31819952 -1.496799
-1.9895474 -2.9966655 2.0932586 -6.1729174 -0.4967599 2.2437854 -3.0231035 -4.350207
-2.0557194 -1.2546443 -2.8856676 -1.340867 2.3529365 -3.4516072 -1.1469743 -1.3851515
-4.163483 -4.335304 -0.8578724 -1.6252986 -2.7429502 -3.126786 -0.7086221 1.3476937
-3.0750794 -3.8354483 -0.9004761 -2.912599 1.9035269 -3.2862668 -0.19135968 -4.4684014
-0.7829869 0.9889926 -3.3027062 -1.8410432 -1.3533487 -2.023792 -1.5138886 -1.1522549
-1.3280005 1.1233666 -4.505943 -2.4363835 -1.9673613 1.5006672 -0.5180995 -1.625029
-0.74677366 -2.2596025 -1.6083325 -1.5606983 -3.5412605 -1.5253354 -0.7723074 -0.23992652
-0.9637372 -2.2659075 -0.25432745 -1.1720961 -2.9101746 -0.30627048 -0.685455 -2.605658
-1.00729 -0.9407259 -0.04519993 -0.74531597 -1.7937179 -1.0483423 -0.55677015 -0.8541983
-3.305206 -2.3646917 -0.28263718 1.5174477 -0.8951794 -2.7211673 -1.3438075 -0.8516534
-2.1307156 -3.498155 -2.4428995 -1.4201106 -1.2627779 1.4291651 -1.2554793 -2.038028
00000000: 6988 e6be 543b 4cbe bdbe d83f 9c9e c2bf
00000010: ff15 35bf 1902 2bbf b680 e7be ca50 b0bf
00000020: 3bf4 3ec0 cf25 10c0 90ce babf fad4 92bf
00000030: eb68 f8bf c10d 7dc0 051e 89bf 9026 9dc0
00000040: a044 fcbf 30c6 3ec0 5949 94be f380 0bc0
00000050: 42c5 a6bf d7a1 37bf 2c95 e8bf 4720 ecbf
00000060: 4a6c 39bf df7a f2bf d028 f4be 1dab 0140
00000070: d77a 25c0 0e78 82be f21a e1bf ae27 fabf
00000080: 0db6 edbe 10c2 febf cbca 23c0 fe32 2dbf
00000090: aac8 1ebf 90e6 9cbf 4bc8 6cbf 592a 60c0
000000a0: 0cf5 29c0 e76e 38be 9158 363f 1883 953f
000000b0: 8c09 9fbf f049 32bf 9103 e2bf 9805 0240
000000c0: 648d a3bf e42c 07bf c16c 1840 badf 90bf
000000d0: e906 38bf a6ec 5cbf 35ae cbbf 33f9 16c0
000000e0: 566f 2cc0 6dfb a8bf bf24 5fbe f32c 0440
000000f0: fe47 aabf 10a2 e7bf 8669 5dbf dc4b 19c0
00000100: 1d83 1cc0 3da4 22c0 c550 1ac0 5f0c 71c0
00000110: eddc 0140 860a 0cc0 f15d 98c0 8ab0 66bf
00000120: 0bc5 f2be f7a3 8ac0 b375 ccbf aa6a cfbf
00000130: c6b6 4bbf 9d64 49c0 fc39 8fbf 0a29 5cc0
00000140: 369a 19bf 7860 c23f 7185 5040 541a 42c0
00000150: 5a14 ecbf e7d0 0ac0 49d7 09bf 3ef4 35bf
00000160: f174 293e 2e33 cabe c4a0 55bf c4a9 e1bf
00000170: ae95 1bc0 ed62 11c0 a630 89bf a213 07c0
00000180: 4eb9 2840 6825 47c0 945a 83bf 0ec7 253f
00000190: 6a37 5e3f 1e87 8bbf 5a7e 50c0 25a6 e4bf
000001a0: cf36 8bc0 ea26 e93f 9926 3dc0 ffd4 debe
000001b0: 7403 05c0 0262 03be cdf5 33bf 92e1 39c0
000001c0: 933f 82bf ca88 8f3f 8d07 e0bf 60df 85bf
000001d0: 1db1 8ebf 9e22 07c0 ee9e 083e 1e5e 0ec0
000001e0: fb53 a9bf 712e cabf 6182 81c0 278f 99c0
000001f0: 0900 64c0 2e80 6dbf 797e 5ebf 0888 b0bf
00000200: f1a0 b2bf 33c8 02bf b814 c0bd 79f2 46c0
00000210: f8ab b3bf 53b3 a1bf efd2 7a3f bf8e 56c0
00000220: f065 94c0 c83c c8bf 3038 6dc0 22f2 c2bf
00000230: 5a21 cabf 4eef b93f 33c7 43c0 76fe 5ebf
00000240: 7dd8 2fc0 dacf 6ac0 eabd 87c0 cd5f 40c0
00000250: 1651 3bbf 3072 cabe 39d0 40c0 3bcb 27bf
00000260: 80dd b23f e52e 03c0 ae82 4dbf fdb3 4fbf
00000270: 8a33 32c0 887b 8fbf 63f3 16c0 2994 a5bf
00000280: f2ee 7c3f 6557 3ebf 3104 55bf 0848 83c0
00000290: e987 1fbf ffd5 cbbf 0ceb a2be 1c97 bfbf
000002a0: 7da9 febf 5ec9 3fc0 f3f7 0540 8a88 c5c0
000002b0: 5057 febe 2e9a 0f40 877a 41c0 e534 8bc0
000002c0: e890 03c0 2f98 a0bf c7ae 38c0 88a1 abbf
000002d0: 8396 1640 22e7 5cc0 0ed0 92bf a54c b1bf
000002e0: 413b 85c0 cfba 8ac0 879d 5bbf c909 d0bf
000002f0: 7f8c 2fc0 431d 48c0 4268 35bf 3a81 ac3f
00000300: 1ace 44c0 fc77 75c0 9a85 66bf 0668 3ac0
00000310: c5a6 f33f 3252 52c0 cbf3 43be 25fd 8ec0
00000320: d471 48bf 9e2e 7d3f 8a5f 53c0 4ea7 ebbf
00000330: 883a adbf cf85 01c0 1ac7 c1bf 177d 93bf
00000340: ecfb a9bf 7aca 8f3f af30 90c0 b5ed 1bc0
00000350: 7fd2 fbbf dd15 c03f 2ba2 04bf f300 d0bf
00000360: 8f2c 3fbf 549d 10c0 d7dd cdbf f6c4 c7bf
00000370: 03a4 62c0 313e c3bf f0b5 45bf 4caf 75be
00000380: 7bb7 76bf a104 11c0 3537 82be 3f07 96bf
00000390: 4d40 3ac0 7ccf 9cbe fb79 2fbf 1ac3 26c0
000003a0: e1ee 80bf 6ad3 70bf 9023 39bd 07cd 3ebf
000003b0: 8c98 e5bf 1530 86bf 7d88 0ebf bdac 5abf
000003c0: 7f88 53c0 1c57 17c0 d2b5 90be ba3b c23f
000003d0: 7a2a 65bf 9b27 2ec0 e201 acbf f505 5abf
000003e0: a55d 08c0 c6e1 5fc0 7758 1cc0 2fc6 b5bf
000003f0: b5a2 a1bf e2ee b63f 8cb3 a0bf 0d6f 02c0

layers.1.running_mean f4 [512]
-37767.223 -1666.0311 -11552.498 -1145.8796 -114.815926 399.54962 -239.26411 2847.528
13877.952 -10151.679 -2517.549 -8134.3936 14465.344 -8936.544 4555.811 23345.977
16306.729 27856.719 2373.2114 -19579.531 4072.123 -962.8677 8343.483 -23387.637
1151.7162 6599.7446 -1954.6571 -37544.8 -5552.3423 8771.18 6159.9897 -4888.865
-4596.543 673.2095 -8927.187 -431.91904 10039.5205 2384.9966 -2085.4846 26618.521
-9577.918 -333.52032 -11351.603 -38776.625 -8891.784 -3782.097 -48235.723 7141.2427
4838.0137 234.75635 2738.8562 3239.344 3266.3098 919.67816 6697.7256 25116.172
20813.354 -4732.3843 8940.799 -35789.926 656.29987 7967.7207 -13723.531 18736.15
16152.487 4634.133 -25513.645 -12353.135 13361.247 18273.244 11195.832 -302.80447
11393.562 24712.14 15797.096 17512.053 -9792.198 -6688.7485 4097.108 -7728.2993
11329.943 9229.546 4177.573 23850.107 23396.73 11574.412 -6283.1655 -934.92114
8215.496 7503.7163 -5892.5425 14602.835 -16114.557 -7783.858 -3124.9636 891.9459
4576.539 10549.329 -2101.5825 1889.9912 415.6628 4340.6704 12247.505 6365.6763
-20416.77 -22898.098 -22447.621 6323.1343 17827.307 22689.19 -1103.9846 29006.95
1217.1309 -776.9626 5991.1045 1098.1399 -7889.8877 25427.594 -15859.404 5947.941
1894.9404 3547.7126 -31813.482 -47804.742 -25360.48 17669.469 -5443.7407 -6011.473
-2497.099 21601.627 3330.006 -31183.275 6391.7236 3109.0864 1969.6974 15926.755
-21187.865 -10414.419 28379.906 3186.506 4052.4153 -34859.48 -24997.88 152.31088
-28331.115 2322.2678 21562.682 23271.658 -4730.8896 -1170.0375 16610.354 14854.549
-6182.1772 6647.876 3434.4731 -3008.6455 26680.164 -2299.2336 13240.071 12994.841
9427.677 -3570.532 -3435.816 -9647.219 10595.954 7475.2944 7047.595 4338.799
-11009.836 16725.803 9306.75 -26586.18 -852.2894 3624.2764 23859.78 34129.59
27448.977 -5694.661 -5575.1665 2786.8672 -35482.51 31840.178 -436.15604 3960.3171
8436.338 25583.191 6295.83 -16981.102 -31826.242 5983.5913 -14145.032 4164.4736
-31666.678 20679.61 2633.1213 60036.875 -27720.744 15688.951 -296.68518 793.1927
22341.986 -7757.8574 22284.293 13902.528 3876.774 -13915.54 -7437.7485 -22539.248
3961.1301 3659.762 -36775.51 -14361.251 14272.756 -26770.139 -160.56078 10113.805
2125.9465 -2571.8555 3026.0393 15566.067 16386.371 5768.7476 -10204.113 -40363.11
694.4116 -16186.493 15668.358 -22437.799 37586.105 8594.594 -811.19806 29916.74
-3868.2278 8097.4805 13624.066 -419.36783 7834.0415 -1910.2972 14167.2705 4885.5156
24737.766 15061.393 12121.508 -5372.258 13064.921 -16834.898 -9487.584 -7208.17
-7824.543 38052.58 142.82323 853.6059 17070.744 6518.048 4008.3945 8853.146
00000000: 3987 13c7 ff40 d0c4 fe81 34c6 263c 8fc4
00000010: c1a1 e5c2 5ac6 c743 9d43 6fc3 73f8 3145
00000020: cfd7 5846 b79e 1ec6 c958 1dc5 2633 fec5
00000030: 6005 6246 2da2 0bc6 7d5e 8e45 f463 b646
00000040: eaca 7e46 70a1 d946 6253 1445 10f7 98c6
00000050: f881 7e45 88b7 70c4 ef5d 0246 46b7 b6c6
00000060: ebf6 8f44 f53d ce45 0755 f4c4 cda8 12c7
00000070: bd82 adc5 b80c 0946 eb7f c045 ecc6 98c5
00000080: 58a4 8fc5 684d 2844 bf7c 0bc6 a3f5 d7c3
00000090: 15de 1c46 f20f 1545 c157 02c5 0bf5 cf46
000000a0: aca7 15c6 9ac2 a6c3 695e 31c6 a078 17c7
000000b0: 23ef 0ac6 8d61 6cc5 b96b 3cc7 f129 df45
000000c0: 1c30 9745 a0c1 6a43 b32d 2b45 8175 4a45
000000d0: f524 4c45 67eb 6544 ce4d d145 5838 c446
000000e0: b59a a246 13e3 93c5 32b3 0b46 edcd 0bc7
000000f0: 3113 2444 c4fd f845 206e 56c6 4d60 9246
00000100: f361 7c46 10d1 9045 4a53 c7c6 8a04 41c6
00000110: fdc4 5046 7dc2 8e46 54ef 2e46 f966 97c3
00000120: 3f06 3246 4810 c146 62d4 7646 1bd0 8846
00000130: cb00 19c6 fd05 d1c5 dd08 8045 6582 f1c5
00000140: c607 3146 2f36 1046 968c 8245 3754 ba46
00000150: 76c9 b646 a6d9 3446 5359 c4c5 f4ba 69c4
00000160: fc5d 0046 bb7d ea45 5724 b8c5 572b 6446
00000170: 3aca 7bc6 dd3e f3c5 6b4f 43c5 8afc 5e44
00000180: 5004 8f45 51d5 2446 5259 03c5 b83f ec44
00000190: d7d4 cf43 5da5 8745 055e 3f46 69ed c645
000001a0: 8a81 9fc6 32e4 b2c6 3e5f afc6 1399 c545
000001b0: 9d46 8b46 6142 b146 82ff 89c4 e69d e246
000001c0: 3024 9844 9b3d 42c4 d638 bb45 7a44 8944
000001d0: 1a8f f6c5 30a7 c646 9ecd 77c6 87df b945
000001e0: 18de ec44 67bb 5d45 f78a f8c6 bebc 3ac7
000001f0: f620 c6c6 f00a 8a46 ed1d aac5 c9db bbc5
00000200: 9611 1cc5 41c3 a846 1920 5045 8d9e f3c6
00000210: cabd c745 6251 4245 5136 f644 05db 7846
00000220: bb87 a5c6 adb9 22c6 d0b7 dd46 1928 4745
00000230: a546 7d45 7b2b 08c7 c34b c3c6 964f 1843
00000240: 3b56 ddc6 4924 1145 5d75 a846 51cf b546
00000250: 1ed7 93c5 3341 92c4 b5c4 8146 321a 6846
00000260: 6b31 c1c5 02bf cf45 92a7 5645 540a 3cc5
00000270: 5470 d046 bdb3 0fc5 49e0 4e46 5d0b 4b46
00000280: b54e 1346 8328 5fc5 0ebd 56c5 e0bc 16c6
00000290: d18f 2546 5b9a e945 c33c dc45 6496 8745
000002a0: 5807 2cc6 9bab 8246 006b 1146 5cb4 cfc6
000002b0: 8612 55c4 6c84 6245 8f67 ba46 9751 0547
000002c0: f471 d646 4af5 b1c5 5539 aec5 e02d 2e45
000002d0: 839a 0ac7 5bc0 f846 f913 dac3 1385 7745
000002e0: 5ad1 0346 62de c746 a4be c445 34aa 84c6
000002f0: 7ca4 f8c6 bbfc ba45 2104 5dc6 ca23 8245
00000300: 5b65 f7c6 388f a146 f191 2445 e084 6a47
00000310: 7d91 d8c6 ce23 7546 b457 94c3 554c 4644
00000320: f98b ae46 dc6e f2c5 9618 ae46 1d3a 5946
00000330: 624c 7245 296e 59c6 fd6d e8c5 7f16 b0c6
00000340: 1592 7745 31bc 6445 83a7 0fc7 0165 60c6
00000350: 0603 5f46 4724 d1c6 8f8f 20c3 3807 1e46
00000360: 25df 0445 b0bd 20c5 a120 3d45 4538 7346
00000370: be04 8046 fb45 b445 7470 1fc6 1cab 1dc7
00000380: 589a 2d44 f9e9 7cc6 6fd1 7446 994b afc6
00000390: 1bd2 1247 604a 0646 adcc 4ac4 7bb9 e946
000003a0: a5c3 71c5 d80b fd45 44e0 5446 15af d1c3
000003b0: 55d0 f445 83c9 eec4 155d 5d46 20ac 9845
000003c0: 8843 c146 9255 6b46 0866 3d46 10e2 a7c5
000003d0: af23 4c46 cc85 83c6 563e 14c6 5c41 e1c5
000003e0: 5884 f4c5 94a4 1447 bfd2 0e43 c766 5544
000003f0: 7d5d 8546 62b0 cb45 5086 7a45 9654 0a46

layers.1.running_var f4 [512]
1.4103434e+06 375605.44 1.7851492e+07 6.474616e+06 185983.66 115601.586 461840.6 2.2671112e+06
5.4105685e+06 1.4894428e+06 1.9379072e+07 6.959068e+06 780575.8 2.453716e+06 171462.11 8.2978445e+06
1.9742622e+06 1.8747718e+07 3.6832025e+06 998674.5 777699.56 3.5319235e+06 1.9716615e+06 3.841476e+06
1.2149704e+06 3.449776e+06 7.756311e+06 1.2087085e+06 3.657966e+06 1.423006e+08 1.7094006e+06 5.750194e+06
1.8048915e+06 5.423339e+06 1.3582117e+08 254403.8 9.820314e+07 298984.78 1.5162815e+06 2.723426e+07
5.363748e+06 1.004528e+07 9.148509e+06 1.2009052e+07 5.534984e+06 2.489263e+06 684530.9 4.794337e+07
3.76111e+06 1.3887979e+07 1.2561777e+07 2.4526715e+06 2.541244e+06 452649.12 1.4419341e+06 5.4486605e+06
5.364772e+06 1.1227538e+06 5.28121e+07 316468.16 1.8445505e+06 8.827748e+06 1.2348987e+07 1.8533794e+07
2.0756942e+07 5.188626e+06 2.231146e+07 9.003756e+06 1.2361203e+07 2.537597e+06 2.7877585e+06 549342.44
7.309673e+06 1.9535908e+07 1.1027172e+06 8.322652e+06 8.30879e+06 5.9199755e+06 1.6188418e+06 8.597726e+06
9.082564e+07 5.572135e+07 7.403788e+06 1.487529e+07 7.1185925e+06 511093.53 2.654637e+06 207438.4
1.5391277e+08 6.9524775e+06 800705.75 4.734617e+06 2.7159158e+07 4.478151e+07 3.5859076e+07 267889.6
1.7662622e+07 880001.9 4.7520425e+06 7.8077735e+06 8.2095785e+06 720326.8 7.6219355e+06 1.7065555e+06
2.1756525e+06 2.8207115e+06 1.6649734e+07 1.2639095e+08 5.7485172e+07 788710.8 8.415538e+06 833843.25
1.1839126e+06 1.052397e+07 3.6906804e+07 565548.44 5.9106776e+07 1.5845731e+07 1.4970217e+07 9.809353e+06
4.8136945e+06 1.1927176e+07 2.7441955e+06 2.506883e+06 890936.56 474358.97 2.0074959e+06 3.4904762e+06
1.0916291e+07 6.311273e+07 1.1263865e+07 2.1417452e+07 1.432224e+06 3.4060308e+06 1.821191e+07 1.6911276e+06
9.045288e+06 834537.6 1.0643126e+07 1.0307879e+06 4.732715e+06 7.3468985e+06 2.2102746e+07 5.1985455e+06
2.6414156e+07 1.5266086e+07 1.4211522e+07 4.656496e+06 2.7776212e+06 2.7784425e+06 1.5847715e+07 8.929154e+07
1.4161992e+07 5.4440985e+06 8.400277e+06 5.014696e+06 2.9414488e+07 1.3163839e+06 1.6340062e+06 8.3153525e+06
5.425992e+07 8.17433e+06 1.68437e+07 1.2639225e+06 9.2301576e+07 1.49883e+06 1.31314776e+08 1.9348939e+06
813925.0 3.444984e+06 5.5733252e+07 2.6859752e+06 1.0285363e+06 2.7596058e+07 1.5046708e+07 1.450062e+06
1.6006072e+07 3.3120308e+06 5.1396615e+06 6.9905145e+06 526919.0 1.2357289e+07 698461.44 5.430665e+06
650218.25 1.3637155e+07 4.7519045e+06 2.7305308e+07 1.4516121e+06 6.302716e+07 1.2482417e+07 3.682218e+07
5.4804745e+06 1.799371e+07 640881.44 466089.28 256977.66 1.1122528e+06 1.88092e+06 535844.0
6.430531e+07 1.1173948e+07 8.505873e+06 5.636827e+06 2.371766e+06 1.7532242e+07 2.0769831e+06 665314.6
960047.75 4.4170028e+07 7.033201e+06 4.5716955e+06 7.2976155e+06 3.1306412e+06 2.7765428e+06 1.5129871e+06
3.0228448e+06 5.311072e+06 817214.2 1.3764973e+07 8.2005365e+06 7.7968985e+06 6.40777e+06 1.8887658e+06
796904.56 1.2527873e+07 7.717254e+07 1.1968089e+08 7.577485e+06 4.081261e+06 534125.4 6.189376e+06
1.8972159e+06 1.4213241e+07 9.063341e+07 1.337008e+06 6.794623e+06 460038.2 1.6542759e+07 197904.61
3.820048e+06 4.906545e+06 9.724473e+07 8.803365e+06 1.10213576e+08 9.7370376e+07 1.9071431e+06 7.734718e+06
1.1855809e+06 423210.8 7.279744e+06 2.4957728e+06 479355.62 4.8798944e+07 909133.3 2.3568745e+06
00000000: 3b29 ac49 ae66 b748 3232 884b f096 c54a
00000010: ea9f 3548 cbc8 e147 1382 e148 9d5f 0a4a
00000020: 111e a54a 16d1 b549 c0d9 934b b85f d44a
00000030: fd91 3e49 50c3 154a 8771 2748 e93a fd4a
00000040: b2ff f049 a308 8f4b 0ace 604a 28d1 7349
00000050: 39de 3d49 4e92 574a 6cae f049 1077 6a4a
00000060: d34f 9449 c08e 524a 2eb4 ec4a 248c 9349
00000070: b843 5f4a 5cb5 074d c5aa d049 647b af4a
00000080: dc52 dc49 d681 a54a 7787 014d f370 7848
00000090: c04e bb4c 19fd 9148 cc17 b949 eac7 cf4b
000000a0: 48b0 a34a 6047 194b 5d98 0b4b 5c3e 374b
000000b0: 10ea a84a bcee 174a 2e1f 2749 b2e3 364c
000000c0: 588f 654a ebe9 534b 71ad 3f4b feb2 154a
000000d0: f01a 1b4a 2405 dd48 7104 b049 a947 a64a
000000e0: 48b8 a34a 0e0e 8949 5176 494c 8586 9a48
000000f0: 342a e149 64b3 064b 3b6e 3c4b d166 8d4b
00000100: e75c 9e4b 2458 9e4a 1239 aa4b ec62 094b
00000110: f39d 3c4b f4e1 1a4a ba26 2a4a e71d 0649
00000120: d212 df4a 120c 954b ea9b 8649 b8fc fd4a
00000130: 6c90 fd4a cfa9 b44a ce9c c549 de30 034b
00000140: 753c ad4c 628f 544c 18f2 e14a 9afa 624b
00000150: 013e d94a b18e f948 b406 224a 9a93 4a48
00000160: 5cc8 124d 3b2c d44a 1c7c 4349 327d 904a
00000170: 3b35 cf4b f2d3 2a4c a1ca 084c 33ce 8248
00000180: 4fc1 864b 1ed8 5649 5505 914a 3b46 ee4a
00000190: 5589 fa4a 6ddc 2f49 5f9a e84a dc51 d049
000001a0: 92ca 044a 9e29 2c4a 060e 7e4b 5512 f14c
000001b0: dd49 5b4c 6d8e 4049 3269 004b 3493 4b49
000001c0: 4585 9049 4295 204b cdc9 0c4c c712 0a49
000001d0: 7679 614c 63c9 714b 696d 644b c9ad 154b
000001e0: fde6 924a 88fe 354b 0e7e 274a 0c02 194a
000001f0: 8983 5949 df9e e748 3f0e f549 b10a 554a
00000200: c391 264b 86c1 704c 79df 2b4b f666 a34b
00000210: 00d5 ae49 3be3 4f4a 23f2 8a4b bd6f ce49
00000220: 2805 0a4b 9abe 4b49 b666 224b 3ea8 7b49
00000230: 566e 904a a535 e04a 6da1 a84b a3a5 9e4a
00000240: 2686 c94b 26f1 684b c2d9 584b e01a 8e4a
00000250: 5588 294a 2a95 294a 23d1 714b 624f aa4c
00000260: 4818 584b 0524 a64a 952d 004b 5009 994a
00000270: 2c6a e04b ffb0 a049 b276 c749 b1c3 fd4a
00000280: 34fc 4e4c f475 f94a da81 804b 9449 9a49
00000290: 210d b04c 70f6 b649 8b76 fa4c 6f31 ec49
000002a0: 50b6 4649 e043 524a 019b 544c 5df0 234a
000002b0: 851b 7b49 8d8a d24b 3498 654b 7002 b149
000002c0: b83b 744b 7b26 4a4a 9bd9 9c4a 6555 d54a
000002d0: 70a4 0049 a98e 3c4b d785 2a49 12bb a54a
000002e0: a4be 1e49 2316 504b 4104 914a ae52 d04b
000002f0: e132 b149 f66d 704c 7177 3e4b 2977 0c4c
00000300: 3540 a74a f747 894b 1777 1c49 2995 e348
00000310: 6af4 7a48 e6c5 8749 c09a e549 40d2 0249
00000320: 284e 754c 3c80 2a4b 11ca 014b b605 ac4a
00000330: d8c2 104a a9c2 854b b989 fd49 2a6e 2249
00000340: fc62 6a49 cb7e 284c e2a2 d64a 5f84 8b4a
00000350: 9fb4 de4a 4514 3f4a 7b77 294a d9b0 b849
00000360: f37f 384a c014 a24a e383 4749 6d09 524b
00000370: b142 fa4a 45f1 ed4a b48c c34a ee8f e649
00000380: 898e 4249 0129 3f4b e831 934c ef45 e44c
00000390: 1a3f e74a b419 794a d666 0249 80e2 bc4a
000003a0: ff97 e749 79e0 584b 98de ac4c 8035 a349
000003b0: fe5a cf4a c6a0 e048 276c 7c4b 2744 4148
000003c0: 4028 694a 62bc 954a c77a b94c 2554 064b
000003d0: 3937 d24c 21b8 b94c 39ce e849 7c0b ec4a
000003e0: 67b9 9049 5aa5 ce48 0029 de4a 7354 184a
000003f0: 740f ea48 3827 3a4c d5f4 5d49 2ada 0f4a

layers.4.weight f4 [128, 512]
-8.5564 -0.12433572 0.6338773 0.19119774 -0.13239096 -0.057777476 -0.18829773 0.42633668
0.0009278975 -1.3723942 -0.9976029 0.0459998 0.00928033 -19.991144 -0.33022845 -34.69756
-0.4334895 -1.0146631 -1.6179522 -2.717206 -0.76293516 -0.1168146 0.24993655 -2.801611
0.037464652 0.15583049 0.44845974 -1.9764576 -0.17275359 0.8923288 0.29288474 -1.3509892
-0.1311936 0.6948382 -0.31311303 0.03844576 0.7765954 -0.018950386 0.041413583 -3.1856878
0.1959598 -0.22956584 0.4952031 -1.4342206 -0.5588037 -0.3936842 -6.2209945 -0.16328755
0.14653608 0.2633431 -0.07965726 0.32795212 -0.052240808 -0.10065684 0.07752747 1.019252
-1.5478996 0.24227482 -0.937775 -2.246158 0.17417191 0.10881475 0.8004177 -1.4014258
-0.3250794 0.8948928 -0.6871258 -0.2506638 -0.079847224 0.63786805 -0.010928436 -0.070643745
-0.7685045 -4.486602 -1.1440579 0.008231053 -0.6365403 -1.5288271 -0.24840258 -0.034674082
1.185484 0.24745251 0.2669461 -0.9336334 0.5185211 -0.67951787 -0.29813218 -0.057452925
1.3382515 -0.24906927 -0.19114217 -0.19637395 -3.3877373 -0.29723915 -0.2571883 -3.4398134
-0.34260076 2.3745828 -0.43018383 0.2186945 1.0000437 0.3261241 -0.41932315 0.5455694
4.4227495 -3.994104 -6.5757914 1.222503 0.6051951 -9.78908 0.12739399 -0.62471354
0.11440256 0.34434992 -0.78756213 0.074554 1.3553127 -0.096244834 0.59800667 -0.018426903
-0.32004753 0.7968905 0.24172792 4.521739 1.0472491 -1.3770545 0.09633799 -0.32071608
-0.27157956 0.83232075 0.54504323 -10.621053 0.41271198 -0.9403038 0.48005766 -6.682603
0.78037506 -0.88561636 1.5287675 0.3668773 0.582856 -2.4851036 -1.7893248 0.035223585
-5.5774903 3.9521255 0.2082482 -10.713138 -0.5181399 0.7058848 -0.14150281 0.06133664
0.5957453 -0.30138436 -0.27184767 0.45606604 0.7371633 -0.071569934 0.03417487 1.058673
0.24887078 -0.5161392 -1.0248427 2.3175557 1.3252739 0.19435571 0.837298 -0.0041498686
-1.6753806 -0.9349626 0.16822241 5.0821657 0.055037554 -0.87649727 -0.84486145 -2.5779097
-1.3089185 -0.65779144 -2.3204324 -0.9531859 -1.3972529 0.86272454 -0.20550337 -0.40032578
1.0253696 -0.4351012 0.0063994313 -0.438671 -12.0758505 -8.380319 0.17577906 -0.68402416
0.21836089 -3.176793 0.053709365 5.095112 -1.5366623 -0.8271994 -0.81422365 8.507748
0.3958174 1.7330427 -9.007729 0.9289615 -0.13564184 -1.3928957 -0.47983634 -10.26348
-0.15069568 0.07647993 -22.62571 -1.8197452 -0.36663413 -2.858 -0.08333953 0.13496433
-0.46133253 -0.55050296 0.40289855 -0.38357893 -0.06384445 -0.8318248 -3.2143521 0.015049123
-0.29447383 -0.68044806 0.5349502 0.46198985 -2.8384483 -1.8487353 0.048979502 0.43587896
-0.18990195 -1.1155425 0.9228397 0.2447022 0.67244035 -0.00861603 -2.3780537 -0.07510714
-0.038108632 0.3081305 1.6221925 -0.53925586 1.6231015 -3.754896 -0.28333762 0.4502417
-1.1731555 -4.237496 1.5942163 0.05379817 0.77264607 -0.18035132 -0.15877607 0.323863
00000000: 04e7 08c1 baa3 febd c845 223f 57c9 433e
00000010: 7f91 07be 13a8 6cbd 1fd1 40be cd48 da3e
00000020: 263e 733a 9daa afbf e762 7fbf 496a 3c3d
00000030: 860c 183c dded 9fc1 b413 a9be 4dca 0ac2
00000040: 56f2 ddbe 7be0 81bf 0f19 cfbf b4e6 2dc0
00000050: b84f 43bf 7e3c efbd 5eef 7f3e 984d 33c0
00000060: 8974 193d 0792 1f3e 849c e53e 90fc fcbf
00000070: 51e6 30be a96f 643f fdf4 953e 37ed acbf
00000080: 9d57 06be ebe0 313f 5a50 a0be 4d79 1d3d
00000090: f5ce 463f d73d 9bbc 4aa1 293d 4fe2 4bc0
000000a0: b0a9 483e 4f13 6bbe 438b fd3e 8a94 b7bf
000000b0: c20d 0fbf fa90 c9be 6312 c7c0 da34 27be
000000c0: 8e0d 163e e8d4 863e 5823 a3bd 57e9 a73e
000000d0: 75fa 55bd 2c25 cebd b9c6 9e3d d976 823f
000000e0: 9321 c6bf e416 783e 0612 70bf 0dc1 0fc0
000000f0: 1f5a 323e 45da de3d 2de8 4c3f ec61 b3bf
00000100: cf70 a6be b217 653f 7ae7 2fbf 0157 80be
00000110: f186 a3bd 524b 233f 2f0d 33bc abad 90bd
00000120: b6bc 44bf 3e92 8fc0 7d70 92bf 8adb 063c
00000130: 4ef4 22bf 9bb0 c3bf 3f5d 7ebe 6906 0ebd
00000140: f1bd 973f 3164 7d3e 29ad 883e 9902 6fbf
00000150: ccbd 043f e2f4 2dbf c8a4 98be c253 6bbd
00000160: d34b ab3f 040c 7fbe c6ba 43be 4116 49be
00000170: b0d0 58c0 bb2f 98be 2fae 83be e725 5cc0
00000180: 5e69 afbe 2af9 1740 0e41 dcbe 73f1 5f3e
00000190: 6f01 803f bdf9 a63e 86b1 d6be 70aa 0b3f
000001a0: 2a87 8d40 669f 7fc0 e26c d2c0 fa7a 9c3f
000001b0: 11ee 1a3f 12a0 1cc1 9273 023e 3aed 1fbf
000001c0: e44b ea3d a24e b03e ac9d 49bf c4af 983d
000001d0: e37a ad3f 031c c5bd f716 193f 04f4 96bc
000001e0: 45dd a3be 0401 4c3f 8687 773e 16b2 9040
000001f0: 420c 863f 5243 b0bf da4c c53d e634 a4be
00000200: 7a0c 8bbe f912 553f f487 0b3f d5ef 29c1
00000210: fc4e d33e c0b7 70bf 1eca f53e e2d7 d5c0
00000220: a9c6 473f c1b7 62bf a7ae c33f 57d7 bb3e
00000230: 0d36 153f f00b 1fc0 9808 e5bf 9b46 103d
00000240: cd7a b2c0 a0ef 7c40 043f 553e 0369 2bc1
00000250: d1a4 04bf deb4 343f 1de6 10be 213c 7b3d
00000260: c482 183f 0d4f 9abe 9e2f 8bbe 7d81 e93e
00000270: bcb6 3c3f 4293 92bd f3fa 0b3d 9982 873f
00000280: fbd7 7e3e b321 04bf 0c2e 83bf d552 1440
00000290: 93a2 a93f 2f05 473e 2959 563f 9ffb 87bb
000002a0: df72 d6bf b559 6fbf 7f42 2c3e 1aa1 a240
000002b0: 0f6f 613d 2062 60bf d748 58bf 79fc 24c0
000002c0: a48a a7bf 0565 28bf f781 14c0 fe03 74bf
000002d0: 2fd9 b2bf 84db 5c3f 7a6f 52be 80f7 ccbe
000002e0: 503f 833f 96c5 debe 52b2 d13b 7c99 e0be
000002f0: af36 41c1 c915 06c1 6dff 333e 351c 2fbf
00000300: ff99 5f3e 9450 4bc0 5afe 5b3d 280b a340
00000310: 5ab1 c4bf 57c3 53bf f670 50bf bc1f 0841
00000320: 94a8 ca3e 58d4 dd3f a81f 10c1 6cd0 6d3f
00000330: b2e5 0abe 684a b2bf 1cad f5be 3737 24c1
00000340: f84f 1abe 82a1 9c3d 7401 b5c1 69ed e8bf
00000350: 78b7 bbbe 79e9 36c0 eaad aabd 1734 0a3e
00000360: c733 ecbe c3ed 0cbf b848 ce3e 7564 c4be
00000370: e1c0 82bd 78f2 54bf f2b7 4dc0 9990 763c
00000380: 46c5 96be d831 2ebf 7ff2 083f ef89 ec3e
00000390: 23a9 35c0 5ca3 ecbf bb9e 483d 872b df3e
000003a0: a875 42be 19ca 8ebf 393f 6c3f 3793 7a3e
000003b0: 0d25 2c3f 402a 0dbc 0832 18c0 c6d1 99bd
000003c0: cc17 1cbd 48c3 9d3e 01a4 cf3f ac0c 0abf
000003d0: cac1 cf3f 3750 70c0 a111 91be 1586 e63e
000003e0: f629 96bf 9199 87c0 480f cc3f 785b 5c3d
000003f0: 22cc 453f 04ae 38be 3296 22be 5fd1 a53e

layers.4.bias f4 [128]
-0.024245562 0.036093708 0.0009597946 0.011733493 0.029073933 -0.010912736 0.070000105 0.03180588
-0.012278968 -0.004479041 0.07882502 0.017793234 0.036792677 0.02821278 -0.01445053 -0.009437289
0.015659142 -0.014066199 0.031733714 -0.03903366 0.011410698 0.025728673 -0.035903323 0.060716357
-0.03161727 0.021957915 4.7822352e-05 0.004746125 0.024082705 -0.008902092 -0.01444699 0.025581941
-0.0070757098 0.00043113457 -0.0034141452 0.054459374 0.008993716 -0.022568515 -0.040421266 0.023790492
0.012425601 0.03682634 0.013160858 0.027083246 -0.023362195 -0.0042566457 0.004383773 0.020524872
0.014082614 -0.0052597225 -0.03376247 0.016569657 0.037902046 0.025390023 -0.003724861 -0.022533162
0.025872162 -0.030311527 -0.02959976 0.0036755593 -0.025257912 -0.014778937 -0.003268792 0.073884636
0.03580754 -0.035558358 0.008166033 0.013021971 -0.02839404 0.036397763 0.008810602 0.035795026
-0.01277012 -0.0040651853 -0.0005617422 -0.027317906 0.050144322 0.027137522 0.033017177 -0.022767616
-0.018528508 0.04125166 0.08721712 -0.013490659 -0.033505604 -0.038774334 0.059265804 -0.0029764178
0.02427138 0.03408879 -0.007813071 0.008817784 -0.0288371 0.040940337 -0.027444115 -0.04147818
0.04313301 0.062321827 -0.018989734 0.016487597 0.021228453 0.02431017 -0.0194383 0.06463792
0.09169831 0.042038143 -0.0065514767 0.004559995 -0.00017705282 -0.02775783 0.015262113 0.040182944
-0.0033946866 -0.03838854 0.03505631 -5.7117428e-05 0.03820002 -0.016761957 0.017611304 -0.018250052
-0.020787502 0.045863394 0.004052166 -0.03808074 0.024443874 -0.00234599 0.03430244 0.033456773
00000000: a19e c6bc ffd6 133d ba9a 7b3a d63d 403c
00000010: 752c ee3c 55cb 32bc 375c 8f3d e246 023d
00000020: b92d 49bc ebc4 92bb 036f a13d 1ec3 913c
00000030: ebb3 163d 7d1e e73c eac1 6cbc dc9e 1abc
00000040: 9a47 803c ea75 66bc 36fb 013d c2e1 1fbd
00000050: f0f3 3a3c f0c4 d23c 5d0f 13bd b7b1 783d
00000060: 1c81 01bd 16e1 b33c dc94 4838 6285 9b3b
00000070: 1849 c53c 15da 11bc 11b3 6cbc 3891 d13c
00000080: 5bdb e7bb e709 e239 dabf 5fbb cb10 5f3d
00000090: 615a 133c 9be1 b8bc c590 25bd 47e4 c23c
000000a0: bf94 4b3c 37d7 163d a4a0 573c afdd dd3c
000000b0: 1362 bfbc 557b 8bbb c1a5 8f3b c723 a83c
000000c0: c4ba 663c c059 acbb 844a 0abd 17bd 873c
000000d0: 2d3f 1b3d bdfe cf3c cc1c 74bb 7797 b8bc
000000e0: dbf1 d33c e14f f8bc 327b f2bc a7e1 703b
000000f0: aee9 cebc 5b23 72bc 3b39 56bb d450 973d
00000100: edaa 123d a4a5 11bd d3ca 053c 1b5a 553c
00000110: 9e9a e8bc d215 153d 585a 103c ce9d 123d
00000120: c439 51bc 3f35 85bb e241 13ba cdc9 dfbc
00000130: 2264 4d3d 824f de3c 053d 073d 2783 babc
00000140: 19c9 97bc 80f7 283d e49e b23d ed07 5dbc
00000150: 2c3d 09bd d6d1 1ebd b3c0 723d 0110 43bb
00000160: c6d4 c63c b0a0 0b3d 6502 00bc 7778 103c
00000170: c83b ecbc 0eb1 273d 7bd2 e0bc 06e5 29bd
00000180: 3dac 303d 2c45 7f3d 5c90 9bbc ff10 873c
00000190: 4be7 ad3c 1f26 c73c 123d 9fbc e360 843d
000001a0: 53cc bb3d 3030 2c3d c5ad d6bb 036c 953b
000001b0: 41a7 39b9 6464 e3bc f10d 7a3c df96 243d
000001c0: 6479 5ebb 4d3d 1dbd 3597 0f3d 5f91 6fb8
000001d0: a077 1c3d 5f50 89bc 9545 903c 2281 95bc
000001e0: 8d4a aabc 41db 3b3d 08c8 843b 8dfa 1bbd
000001f0: 853e c83c 2ebf 19bb b780 0c3d f809 093d

layers.5.weight f4 [128]
0.9934728 0.18217875 0.17631957 -0.04086981 0.21853411 0.24305479 1.4259086 0.36455333
0.5392803 1.1430874 0.5641593 0.5067285 0.48015893 0.18332778 0.11857489 0.1752283
0.71716404 0.21583122 0.36121607 0.13621564 -0.10503141 0.22062212 0.03920624 0.5736597
0.20324412 0.29448134 0.455282 0.2988961 0.25821957 0.47044465 0.43336818 0.47062668
0.29768392 0.27050143 0.41850337 1.6602724 0.29493567 0.22254261 0.13965201 0.26533395
0.15956137 1.8146054 -0.073440805 0.6781651 -0.08615445 0.31550685 0.085738555 0.1432127
0.26110625 -0.002950554 0.089245416 0.02182962 0.7898955 0.13352636 1.0850217 0.081314
0.0893062 -0.08499562 0.31113058 0.027080227 0.072192036 0.13882042 0.15897892 1.6240016
0.20351021 0.44141528 -0.017898468 0.09627694 0.29018027 0.97451717 1.0739533 0.14401202
0.56389093 0.09565155 0.040572725 0.30942217 0.16358699 0.5042801 0.23763786 0.054924954
0.24466851 1.6865635 0.7700775 0.16696894 0.19271927 0.25316197 0.8096364 0.18404749
-0.033434983 0.1601512 0.2674131 0.38376695 0.21721101 0.9185148 -0.05523741 0.16294302
0.51515937 1.6932037 1.2331876 0.9856452 0.32620654 0.5486043 0.23804961 1.8434657
0.44181204 0.04347321 0.016328147 -0.039837472 0.071703956 0.9242031 0.07768091 0.39075014
0.40406558 -0.061139453 0.114301376 0.09018672 0.1851222 0.23344442 0.71027553 0.13387273
0.08280033 0.26525262 0.07360457 0.2530678 0.436585 0.28762648 -0.020084962 0.3185907
00000000: 3c54 7e3f 118d 3a3e 1e8d 343e 1a67 27bd
00000010: 68c7 5f3e 5be3 783e 2c84 b63f bca6 ba3e
00000020: 460e 0a3f b050 923f be6c 103f f5b8 013f
00000030: 64d7 f53e 47ba 3b3e 64d7 f23d 0c6f 333e
00000040: 1098 373f dc02 5d3e 50f1 b83e 1d7c 0b3e
00000050: b51a d7bd c4ea 613e b996 203d 5ddb 123f
00000060: 3a1f 503e 42c6 963e b91a e93e e908 993e
00000070: 5b35 843e 1fde f03e 6fe2 dd3e fbf5 f03e
00000080: 076a 983e 2a7f 8a3e 1346 d63e ce83 d43f
00000090: cf01 973e 36e2 633e f000 0f3e dad9 873e
000000a0: 0e64 233e fd44 e83f 2268 96bd 3a9c 2d3f
000000b0: bf71 b0bd 1d8a a13e b297 af3d 5aa6 123e
000000c0: b8af 853e 155e 41bb 4dc6 b63d 08d4 b23c
000000d0: 9736 4a3f 22bb 083e fee1 8a3f f487 a63d
000000e0: 2be6 b63d 2f12 aebd 824c 9f3e 5ad7 dd3c
000000f0: 6bd9 933d f126 0e3e 5fcb 223e 49df cf3f
00000100: fb64 503e 2f01 e23e cf9f 92bc d82c c53d
00000110: 8292 943e f579 793f 4d77 893f e377 133e
00000120: 285b 103f f6e4 c33d 962f 263d 956c 9e3e
00000130: 5983 273e 8018 013f 5757 733e fdf8 603d
00000140: 628a 7a3e 50e1 d73f cd23 453f e8f9 2a3e
00000150: 3358 453e 729e 813e 5544 4f3f f276 3c3e
00000160: 1ff3 08bd adfe 233e 5fea 883e 1a7d c43e
00000170: 906c 5e3e c923 6b3f 9f40 62bd 89da 263e
00000180: 7ce1 033f e6ba d83f 17d9 9d3f 3e53 7c3f
00000190: 8b04 a73e 5571 0c3f 47c3 733e aff6 eb3f
000001a0: 3035 e23e f710 323d 9bc2 853c 9e2c 23bd
000001b0: 86d9 923d 9398 6c3f 2b17 9f3d 6710 c83e
000001c0: afe1 ce3e 5d6d 7abd d716 ea3d d1b3 b83d
000001d0: ad90 3d3e 0e0c 6f3e 9ed4 353f ef15 093e
000001e0: 3893 a93d 31cf 873e febd 963d 1a92 813e
000001f0: 1288 df3e c743 933e 3889 a4bc 521e a33e
