model_results/Victoria/ANN_PSO_Model/2025-08-23_08-10-34/best_model.pth (torch, 904885 bytes, 25 tensors)

layers.0.weight f4 [512, 10]
000000 e2 c7 01 bf 9e 73 62 40 cc 78 fe be 1c e7 a9 40
       -0.5069562 3.5383067 -0.49701536 5.3094616
000010 82 2d 6c c0 50 fb 99 c0 44 81 48 41 73 0a c2 40
       -3.6902776 -4.811928 12.531559 6.0637755
000020 3c c9 a3 3e c1 9b 9b c0 57 01 48 3d 27 86 56 bf
       0.31989467 -4.862763 0.048829403 -0.8379845
000030 fa 83 dd bd 50 c0 3c be 86 89 80 bf 7a 6c 9c bf
       -0.10816188 -0.18432736 -1.0041969 -1.2220604
000040 a4 2d 2d 40 ae c6 66 40 2e a2 29 bf b6 e2 90 bf
       2.7059107 3.6058764 -0.6626309 -1.1319187
000050 0b 61 4a 3d 7a f8 c6 bf 7e 89 56 bf 15 f2 a1 bf
       0.049408954 -1.5544579 -0.83803546 -1.2652003
000060 67 76 ec be 4b 41 e8 bf 28 12 0f 40 e8 02 82 40
       -0.46184084 -1.8144926 2.2354832 4.062855
000070 e3 70 98 bf ed fc a3 bf 5d 21 83 bf 5e 7a 6e c0
       -1.190945 -1.2811562 -1.0244557 -3.7262187
000080 02 c7 21 bf e7 28 10 c1 df 4b ff 3e e8 f0 94 bd
       -0.63194287 -9.009986 0.49862573 -0.07272512
000090 61 69 af c0 28 1b 70 41 e5 ce ef bf 3b 5d f7 bc
       -5.4816136 15.00663 -1.8735014 -0.030195823
0000a0 ad 86 87 3e 08 a9 8e 40 3f cb 62 c0 ef 1b 4c 40
       0.26469937 4.4581337 -3.5436552 3.189205
0000b0 d8 ad c1 3f eb b2 3c 40 ad 75 ea 40 b2 7c a2 bf
       1.5131178 2.9484203 7.3268647 -1.2694304
0000c0 66 fa 1f 3f 4d 85 ee bf 6d e4 cd 3c 7d 20 42 3f
       0.6249145 -1.863443 0.025133336 0.75830823
0000d0 98 68 c7 3f 0a 18 bd 3f a7 13 02 c0 01 d9 67 bf
       1.5578794 1.4772961 -2.0324495 -0.90565497
0000e0 f1 1e a5 3f e2 de 78 bf 1e bb 42 3e ca 6c 3d 3f
       1.2900068 -0.9721509 0.19016692 0.73994124
0000f0 bf f6 98 bf b5 c7 02 3e 63 d2 4d 3f bc 84 75 c0
       -1.1950301 0.12771495 0.8039915 -3.8362265
000100 b8 5d 05 bf 3e 58 a8 bf 99 4a 49 be af bb af 40
       -0.5209613 -1.3151929 -0.19657363 5.4916606
000110 30 47 13 bf e1 dc 1f 3e 24 fb 46 be 3a 88 96 3e
       -0.575305 0.15611602 -0.1943174 0.29400808
000120 91 bf 2c 3f e8 f7 fb bf a3 83 4d 3f a5 b0 a8 bf
       0.6747981 -1.968503 0.80278987 -1.3178908
000130 96 af 59 40 5f 6f 26 40 4e b6 9d 3f 07 fa 99 3f
       3.401342 2.6005476 1.232126 1.2029427
000140 81 54 8e bf ad 73 32 3f 72 fa 44 3e ee b8 ae be
       -1.1119539 0.6970776 0.19236162 -0.34125465
000150 cc 1e f6 be 2c 64 76 3d c2 69 90 bf 84 70 2a bd
       -0.4807037 0.060154125 -1.1282275 -0.04161121
000160 db 36 67 bd 66 4e 4f 3e 4c 8c f5 bf 3d 3f 9f 3f
       -0.0564488 0.2024475 -1.918344 1.2441174
000170 eb 3c a8 3f 06 27 96 3f a0 2c 18 3c 88 20 13 3f
       1.3143591 1.1730659 0.009287983 0.57471514
000180 0c cc dd 40 19 d5 a3 3e aa 72 c3 3e fd fe f4 bf
       6.931158 0.31998518 0.3817342 -1.9140316
000190 d3 37 1e bd 6c d1 b1 3e a0 94 8f 40 98 c5 a7 bf
       -0.038627457 0.3473009 4.4868927 -1.3107176
0001a0 b7 b0 df bf f4 fd 57 bf af 93 63 40 6f a2 b8 be
       -1.7475804 -0.84371877 3.555889 -0.36061427
0001b0 68 28 8d bf 24 71 4c 3f 14 f5 62 bf 74 20 39 c0
       -1.1027956 0.7986014 -0.8865521 -2.8926058
0001c0 85 c8 85 bf 19 9a 42 bf f8 db 0e bf c2 0e 37 bf
       -1.0451819 -0.76016384 -0.55804396 -0.71506894
0001d0 94 2b b8 c0 20 2b 3a 40 1a e9 86 bf 0d bc a8 be
       -5.7553196 2.9088821 -1.0539887 -0.3295597
0001e0 79 e9 ad 3b a7 d6 5f 3e 90 3b c6 bd 4f 32 46 42
       0.005307373 0.21859227 -0.096793294 49.54913
0001f0 80 cd c5 c0 db f2 65 bf 81 0d 07 c0 57 24 08 c0
       -6.1813354 -0.89823693 -2.1101992 -2.127218
000200 7f b5 ae 3e f8 19 00 3e bc db 58 bd aa 6e a8 bf
       0.34122846 0.12509906 -0.05294393 -1.3158772
000210 3f 6c 10 bd e8 0f 9b c0 73 c9 0f 40 7f 8c b4 be
       -0.03525948 -4.8456917 2.2466705 -0.3526344
000220 a3 e7 fe bf 08 a3 1e 40 b5 18 01 c0 99 a9 fb bd
       -1.991444 2.4787006 -2.017133 -0.122882076
000230 f0 05 05 be 66 4d 2f 3f e0 d0 a7 3f e1 a5 0b 3f
       -0.12990546 0.68477476 1.3110619 0.54549986
000240 85 47 ed bf 30 d7 bf be 96 3f e2 3f bf 55 48 bf
       -1.8537451 -0.37468863 1.7675655 -0.7825584
000250 ba 3e 8b 3e bd 6c f3 3e 95 f8 8c 3e 68 a6 55 c0
       0.27196294 0.47543898 0.27533403 -3.3382816
000260 bd 7d 1a bf c7 d5 eb c0 03 59 cf 3f 67 7f 7a bf
       -0.6034811 -7.369846 1.6199039 -0.9785065
000270 28 50 5a c0 1b cb fb 40 e3 8e 0a c0 67 a1 90 bf
       -3.4111423 7.868543 -2.164971 -1.1299256
000280 92 cb 33 bf f5 fb 35 bc 8d c4 ad bd 91 74 95 bf
       -0.702325 -0.0111074345 -0.08484755 -1.1676198
000290 c3 b7 c1 bf 50 aa 10 c0 9d 71 0e 40 dd ce 46 40
       -1.5134205 -2.260395 2.2256844 3.106376
0002a0 59 f3 a4 3e d8 31 57 bd 5d 81 f4 be fe d1 97 bf
       0.3221691 -0.05253777 -0.47754946 -1.186096
0002b0 9d 6a 4d 40 36 dd 63 bc db 1b c8 3f 40 70 2e 3f
       3.2096322 -0.013907721 1.5633501 0.6814003
0002c0 1a 68 d4 40 71 86 05 c1 8a f7 45 bf 06 4f dc 3e
       6.6377077 -8.345323 -0.7733084 0.4302904
0002d0 a1 71 f9 3e c1 73 60 be 6c c8 80 3f 89 f0 41 c0
       0.48719504 -0.21919157 1.0061164 -3.030306
0002e0 9f 4c e0 be ff 1d 6f c0 79 cb 42 41 e8 cf 41 41
       -0.43808457 -3.7362058 12.174676 12.113258
0002f0 6d 38 07 3f 35 98 99 3f 06 13 4c 3d 1b 54 43 c0
       0.52820474 1.1999575 0.04982283 -3.0520084
000300 78 34 28 bf 2a dc 26 c0 67 bb 37 c0 82 b7 89 bf
       -0.6570506 -2.6071877 -2.8708131 -1.0759127
000310 33 cc f8 3f 11 35 09 41 b2 44 55 bf 87 58 c3 3e
       1.9437317 8.575456 -0.83307946 0.38153479
000320 7e 75 47 bf 9d 51 59 40 ec 82 b2 bf 68 3a 56 c1
       -0.77913654 3.3956063 -1.3946204 -13.389259
000330 c3 5a 8d c0 c0 af 89 40 cd b6 48 40 55 d9 1e 40
       -4.4173293 4.302704 3.1361573 2.482015
000340 f9 fb 0c 40 7b c6 d2 bf 6f 30 fe bf e6 67 4f be
       2.2028792 -1.6466821 -1.9858531 -0.20254478
000350 ba 77 83 3f 81 65 9d c0 35 83 64 40 32 19 09 3f
       1.0270913 -4.9186406 3.5705082 0.5355407
000360 ff 46 d5 c0 67 a7 33 3f 95 17 90 be e9 fd 86 3e
       -6.6649165 0.7017731 -0.28142992 0.26365593
000370 a6 6d 2e be 2a c2 3f 3e 8b 3b 99 3f e9 35 26 3e
       -0.17034015 0.18726411 1.1971296 0.16231503
000380 32 3e 67 bf 77 16 fc be 96 6b d6 3f 3b 49 6e 3c
       -0.9032928 -0.4923589 1.6751583 0.014543827
000390 6d a3 33 3d 8a af 16 3f 2e 72 d8 be 47 33 54 3f
       0.043857027 0.588616 -0.42274612 0.82890743
0003a0 89 9d 4e be 1c e5 8c 40 f0 e3 18 c1 61 65 e1 bf
       -0.20177282 4.4029675 -9.555649 -1.7609063
0003b0 6c e9 77 41 0d b9 83 41 8e af 48 bf 3d df 27 bf
       15.494488 16.465357 -0.78392875 -0.6557501
0003c0 5b 59 8c be 18 8d a0 40 04 e9 30 c0 05 44 a6 40
       -0.27411923 5.0172234 -2.7642221 5.195803
0003d0 de ce b5 be cb e7 9c 3f 5b 53 e5 40 75 59 62 c0
       -0.3550939 1.2258238 7.166425 -3.53671
0003e0 3b f2 58 3f dc 77 0c c0 2b 1c 88 3e f0 17 dc 3f
       0.84744614 -2.1948156 0.2658399 1.7194805
0003f0 7d 95 4e bf 51 b1 f7 c1 84 72 c7 bf ea ae 1d 40
       -0.8069685 -30.96158 -1.5581822 2.463801

layers.0.bias f4 [512]
000000 bf ec fe 3f 47 6a 70 3e 29 e0 7f be df 85 b1 3f
       1.9915999 0.23478042 -0.24987854 1.3868979
000010 2d bd 3c 40 11 66 74 3f 67 92 13 3f 9a f0 11 bd
       2.9490464 0.9546824 0.5764527 -0.035629846
000020 81 4d 29 be 36 42 18 3f 52 09 b8 3f d8 51 84 bf
       -0.16533472 0.5947603 1.4377844 -1.0337477
000030 b9 fb 47 c0 46 a4 82 be 32 d3 17 be d9 57 33 c0
       -3.124739 -0.25515956 -0.14826658 -2.8022368
000040 77 fe 45 3e b7 14 ff 3f 12 eb 84 bf 8f f2 6d 3e
       0.19335352 1.9928197 -1.0384238 0.2323706
000050 1f 71 81 bf 77 cb 37 3f 15 51 e9 3d fc 06 d7 3f
       -1.0112647 0.7179484 0.11392418 1.6799006
000060 ff ca a1 bf c7 e3 18 3d 94 b7 91 be 17 4d 2f bf
       -1.2640074 0.0373266 -0.28460371 -0.68477005
000070 38 25 3d be 9a 7b 0b be cc 85 9d 3e 48 49 13 bf
       -0.18471229 -0.13621369 0.3076614 -0.57533693
000080 6c c6 e5 bd a2 97 97 be a6 f8 d1 bc 4c ad 4f bf
       -0.112194866 -0.29607874 -0.02563126 -0.81123805
000090 3b 86 b6 be 80 63 a0 bc b9 78 a8 bf 74 43 d0 bf
       -0.35649285 -0.019578695 -1.3161842 -1.6270585
0000a0 b2 cb 4c bf e0 43 fa 3f e6 59 09 3f da 1e b8 bf
       -0.79998314 1.9551964 0.536528 -1.4384415
0000b0 67 5d 04 3f ae 04 b4 3f 5c 19 c3 3e 68 f6 d9 be
       0.5170502 1.4063928 0.38105285 -0.42570806
0000c0 df 4d d8 be bb 38 2f c0 12 86 f1 be b9 2a 72 be
       -0.4224691 -2.7378376 -0.471726 -0.2364911
0000d0 98 c2 0d 3e b5 05 0e be 9a ff d5 3e ad 77 4d bd
       0.13843763 -0.13869365 0.4179657 -0.05016296
0000e0 1b 58 17 3f 1e 86 08 c0 39 63 37 3f c7 58 93 3f
       0.59118813 -2.1331859 0.71635777 1.1511468
0000f0 81 68 7e 3f dc 29 38 bf 59 61 27 3f 2f fa d3 3d
       0.9937821 -0.7193887 0.65382916 0.10350453
000100 cd a3 07 c0 cf c0 45 3e 9b 38 57 c0 62 89 f7 3d
       -2.1193726 0.19311832 -3.36283 0.120867506
000110 43 37 1b be 52 2c 57 bd 24 5d b0 3f 3f 91 6e bd
       -0.151578 -0.0525325 1.3778424 -0.058243986
000120 b8 52 39 40 ef 4d 1c bf aa 2e 82 3e c0 32 9e 3e
       2.8956738 -0.6105642 0.25426227 0.30898094
000130 75 f5 25 be c6 55 05 bd 03 c3 12 be 4c e5 ca 3d
       -0.16206916 -0.032552503 -0.14332204 0.09907016
000140 cf 18 2c 3f fb 57 65 be 51 2b 86 3e 80 3a 1a be
       0.67225355 -0.22396843 0.26204923 -0.15061378
000150 93 60 02 3e e7 25 17 3f 7a 67 e5 bf 9d c4 fc 3f
       0.12732153 0.5904221 -1.7922204 1.9747502
000160 31 67 fd bf 04 08 df 3f bd a2 83 bf c2 3d 96 bc
       -1.9797117 1.7424321 -1.0284039 -0.018339995
000170 15 48 67 bf 0b 96 cb bf b1 3d 91 3f 0c a3 d6 bf
       -0.90344363 -1.5905164 1.1346952 -1.6768508
000180 09 ba 6c 3f 05 0b ff bf 1b d3 fc 3e 14 69 71 bf
       0.9247137 -1.9925238 0.4937981 -0.9430096
000190 34 fb a9 be 19 01 ce 3f ca d5 96 3f b5 fe 4c bf
       -0.33199465 1.6094085 1.1783993 -0.8007615
0001a0 4e 23 ff bf ed c0 42 be c4 c6 86 bf ef 1a df be
       -1.9932649 -0.19018908 -1.0529408 -0.43575236
0001b0 b2 a0 b6 3e 21 13 09 40 26 49 90 3f 36 a7 97 3f
       0.35669476 2.1417925 1.1272323 1.1847904
0001c0 94 3b 75 bf 47 13 a6 bc 1a 53 24 3e c1 2e dd 3d
       -0.95794034 -0.020272864 0.16047326 0.10799933
0001d0 3f 64 5f 3f be aa b0 3d 9a e1 f7 be 96 c6 2a 3d
       0.8726234 0.086263165 -0.48414308 0.041693293
0001e0 c2 ce d4 3f 77 f4 17 c0 e1 71 6a bf c1 3d a1 bf
       1.6625597 -2.374296 -0.91580015 -1.2596971
0001f0 7f cd b9 bf 10 bf 14 c0 ae c5 6b 3f 0d 7c 92 c0
       -1.4515837 -2.3241615 0.9209851 -4.577643
000200 3f 9a ce bf 50 cc 0e be 6f 2f 1c bf 64 b1 ee 3f
       -1.6140822 -0.13945127 -0.6100988 1.8647885
000210 1d 21 dd 3e 0b eb 26 3f 8c da 05 3e ca 85 40 3e
       0.43189326 0.652024 0.1307165 0.18801036
000220 0e da 5f 3d ee 5e 8e bc ec 1d 16 3e 45 78 9e 3f
       0.054651313 -0.01737925 0.14659852 1.2380453
000230 40 09 c4 3f 36 8b 5a 3d a2 d7 79 3d 48 9b da 3f
       1.5315323 0.05335542 0.06099666 1.7078638
000240 7d d3 96 be 68 15 68 3f c1 ad 4f 3f 4f 3a af 3e
       -0.29458228 0.90657663 0.811245 0.34224173
000250 52 06 c3 bf b7 ad e0 3e 9f fc 92 3d a8 77 4e 3f
       -1.5236304 0.43882534 0.0717709 0.8065133
000260 2a 91 5d 3e 47 b2 d5 3e 2a a3 8e bf 28 0f e4 be
       0.21637407 0.41737577 -1.1143544 -0.44542813
000270 b2 73 ac 3f 4b a0 22 3f ba d9 fc 3f 65 f3 3e 3e
       1.3472807 0.6352584 1.9753945 0.18647535
000280 77 7c 09 40 01 bc 9e 3f 5f 20 cc 3e ac 06 20 40
       2.1482217 1.2401124 0.39868447 2.5004072
000290 47 ab 5f bf 74 fc 6d c0 be bc 81 3e 4b 2c e2 bf
       -0.87370723 -3.7185335 0.2533931 -1.7669767
0002a0 b0 ff dc bd 9a 2f 20 c0 73 df 80 be 98 c8 c9 3d
       -0.10790956 -2.5029054 -0.25170478 0.09852713
0002b0 8b 9d 0c bf 60 de ba 3d 2b 7e a5 be d2 2c 1a 40
       -0.5492789 0.09124446 -0.3232282 2.4089856
0002c0 21 bd 5f be 70 08 a9 3f 09 b4 97 3f 47 89 48 c0
       -0.2184949 1.32057 1.1851817 -3.1333787
0002d0 b2 b7 a4 bf 52 a9 22 3f 8f 77 1e c0 2a a3 7d be
       -1.2868559 0.6353961 -2.4760473 -0.24769273
0002e0 0f b2 60 3e 93 3b 16 c0 d8 de 06 40 6d ff 0e bf
       0.21942924 -2.3473861 2.1073513 -0.558585
0002f0 5b 90 7c 3f 98 25 26 c0 6b 1f 89 bf 7c b9 65 3f
       0.9865777 -2.5960445 -1.0712713 0.8973615
000300 f7 b5 bf bc 9e 12 f7 bd 74 c7 c9 be 17 cc 45 be
       -0.023402197 -0.12064098 -0.39409983 -0.19316135
000310 a1 b3 f3 be d8 53 9e 3f 07 7a 03 bf 1f 2c cb bc
       -0.47597983 1.2369337 -0.51358074 -0.024801312
000320 8b 4e de 3e 6b 4e e0 be bc 9f 5f be 0f e2 84 3f
       0.434193 -0.43809828 -0.21838278 1.0381488
000330 53 8c 64 3e 2b 9c 2c bf 59 8d 7e 3d f9 c6 1d 3f
       0.22319154 -0.67425793 0.06214652 0.61631733
000340 a9 f1 86 3f 08 81 0e 3f 7d c6 fe bf 5a dd 16 3f
       1.0542499 0.55665636 -1.9904324 0.58931506
000350 75 88 f2 3d e7 3d e5 bf 99 b8 11 be 9d af 87 3f
       0.11842433 -1.7909516 -0.14230575 1.0600468
000360 fe 9a 8d 3f 0f 74 96 3f 83 c2 16 3c 0d 80 04 3f
       1.1062925 1.1754168 0.009201649 0.5175789
000370 c8 48 49 be 8c e5 c2 3e 4f 24 c4 bf 81 81 86 3e
       -0.1965667 0.38065755 -1.532358 0.2627068
000380 5e 78 87 3e c0 cb e2 3e ef cb 1e 3f 0b a8 85 3e
       0.2645902 0.44296074 0.6202993 0.2610477
000390 41 97 6f 3e 04 12 04 c0 0f ab 6a 3e 1a 4c 73 bf
       0.23397543 -2.0635996 0.22916816 -0.95037997
0003a0 67 e5 eb 3e 5d 5e 73 3f 72 3d 82 be d2 69 f3 3d
       0.46073458 0.9506586 -0.25437504 0.11885418
0003b0 c0 3f 5a 3f 4e 74 3b bd 9f c7 9e be 3e b8 78 be
       0.85253525 -0.045765214 -0.31011674 -0.24289033
0003c0 af c7 7b 3e b1 4c 18 bf 8d be c3 be 64 9c 26 c0
       0.24587892 -0.5949202 -0.38231316 -2.6032953
0003d0 8d 1b 26 3d 33 c7 09 40 64 17 98 3e 03 93 29 be
       0.04055362 2.1527832 0.29705346 -0.16559987
0003e0 2a e0 25 3f 1e 00 31 3f f2 8f 42 3f 24 bc 43 3f
       0.6479517 0.69140804 0.76000893 0.76458955
0003f0 f9 97 bf 3e f4 52 4a bf 44 b0 f7 be c6 f0 f0 3e
       0.37420633 -0.79032826 -0.48376667 0.47058696

layers.1.weight f4 [512]
000000 77 46 6e 40 ad 02 10 3f d9 c4 0f 3f d7 44 8d 40
       3.7230508 0.5625408 0.5615974 4.4146533
000010 cb db 60 40 35 20 82 3b 50 69 a2 3e 0e 0d 0d 3e
       3.513415 0.0039711245 0.31720972 0.13774511
000020 9d f9 17 3e 49 d4 28 3f b6 7a a1 3d 15 dc 4f 3f
       0.14841314 0.6594892 0.078847334 0.81195194
000030 79 bc 50 40 28 40 8e 3f d1 7d 87 3d 12 b9 f7 3f
       3.2615035 1.1113329 0.066157945 1.9353354
000040 7b 32 13 3e a3 0b 9d 3f 61 f0 d7 3e 92 7a 81 3f
       0.14374726 1.2269176 0.42175582 1.011553
000050 dd 25 d3 3f 16 d0 04 3f 93 39 93 bd a8 5f 65 40
       1.649593 0.51880014 -0.07188716 3.5839634
000060 4a 9d 1b 40 29 70 8c 3f 36 fa 85 3f 67 51 bd 3f
       2.4314752 1.0971729 1.0466983 1.4790467
000070 52 a5 c1 3e d3 12 96 3e 65 8f 4c 3e 42 37 f7 3d
       0.37821442 0.29311237 0.19976576 0.120710865
000080 cb f6 61 40 d9 35 9b 3e b8 58 56 3e 23 1b 49 40
       3.530688 0.3031452 0.20932281 3.1422813
000090 68 97 70 40 a9 55 c1 3e ee 4f 55 40 16 de 10 40
       3.759241 0.37760666 3.3330035 2.263555
0000a0 75 04 4c 3f 87 54 3c 40 4f a2 bc 3e 67 dd 8a 3f
       0.796943 2.9426591 0.36842582 1.0848817
0000b0 ee 85 e7 3c c8 44 1c 40 b3 21 69 bc af 78 af 3e
       0.028262105 2.441698 -0.014229226 0.34271762
0000c0 66 40 ad 3f b1 7a b3 3e 80 58 d5 3f 72 2f 84 3e
       1.3535278 0.35054544 1.6667633 0.25817448
0000d0 68 b6 ba 3e 49 9c 90 3e 30 ec 57 bd 3b 32 19 3e
       0.3646729 0.28244236 -0.05271548 0.14960568
0000e0 ac d4 02 40 24 c1 b7 3e eb 7d 04 3f 6f 0d 73 40
       2.0442305 0.35889542 0.51754636 3.797695
0000f0 87 94 8e 40 2c 9c 6e 3f 96 b9 9e 3e fe b6 3a 3f
       4.455631 0.9320705 0.31000966 0.72935474
000100 da 66 54 40 a6 15 08 3d c9 1f 6d 3f cf 64 55 bd
       3.3187776 0.03322377 0.92626625 -0.05209809
000110 d9 2f 6d 3e 39 2c 2d 3d 56 0e 2c 3e 19 e3 e6 3e
       0.23162784 0.042278502 0.16802344 0.45095137
000120 c7 2a 26 40 03 a9 a1 3e 62 ec 71 40 b1 87 a9 3d
       2.596361 0.31574258 3.7800527 0.08277834
000130 1a 9a ab bd c4 90 74 3e 23 65 b3 3d 93 c5 96 3e
       -0.08379002 0.23883349 0.08759525 0.29447612
000140 b3 84 3d 3e 2b 04 85 3e e3 08 4e 40 e2 79 3a 3e
       0.18507652 0.25979742 3.2192924 0.18210557
000150 63 32 42 40 6c 9f 04 3f 20 ee 9b 3f cb 3c 3e 40
       3.0343254 0.5180576 1.2182045 2.9724605
000160 d7 a4 f7 3f 83 45 cc 3f b4 c0 83 40 b4 e8 ac 3e
       1.934718 1.5958713 4.1172733 0.33771288
000170 bc 6d 80 40 eb bb 8a 40 4b 8f dd 3e 13 df b3 40
       4.0133953 4.335439 0.43273386 5.6209807
000180 18 9c a8 40 4e f1 2a 40 1e 76 82 40 f7 2e 30 40
       5.2690544 2.670978 4.0769186 2.7528665
000190 0a 06 b9 3e 79 84 05 40 e0 a4 1b 40 33 93 0e 3f
       0.3613742 2.0862105 2.4319382 0.5569336
0001a0 8a ba 1b 3f 89 fe b6 3e 84 f9 b2 3f b5 d2 0b 3f
       0.6083151 0.3574107 1.3982396 0.5461839
0001b0 79 57 4f 3e d8 5f 4e 40 70 77 20 40 2b 41 a8 40
       0.20248212 3.2245998 2.50729 5.257955
0001c0 ae a5 f6 3f b2 1b 0b 3e 81 ce 93 3e ba 30 ac 3e
       1.9269311 0.13584784 0.28868487 0.33630925
0001d0 59 19 b3 3f ec 4d 70 3e cc 75 47 3f b8 ec f7 3e
       1.399211 0.23467225 0.7791412 0.4842279
0001e0 a0 bd 0b 3f 2c 68 ab 3f 08 a4 39 3f 9e e0 8d 3f
       0.5458622 1.3391166 0.72515917 1.1084173
0001f0 42 0e 8b 40 9a 5a 7e 3f f6 7f be bc 29 f2 59 40
       4.3454905 0.99356997 -0.023254376 3.4054053
000200 5d 0d 79 40 60 7c 90 40 c0 4c ff 3d d4 3b f8 3f
       3.8914406 4.5151825 0.12465811 1.9393258
000210 e1 4f 0d 3f 44 6c ad 3e b0 15 10 3f 91 4a 76 3f
       0.5520001 0.33871663 0.5628309 0.9620753
000220 69 76 4b 3f d1 41 db 3c 21 62 2e 40 04 b0 e7 3e
       0.79477555 0.026764782 2.7247393 0.45251477
000230 7e c5 20 40 15 1e 79 3f 2c bf 22 40 56 50 1f 40
       2.512054 0.97311527 2.5429182 2.4892783
000240 b2 04 01 3f 16 ff d4 3f 4e 87 11 40 d1 12 c2 3f
       0.5039779 1.6640346 2.2738833 1.5161992
000250 2d 7b 19 40 84 8f 78 3d 42 05 1e 3e 15 84 4c 3f
       2.398143 0.060683742 0.15431693 0.7988904
000260 e9 9b 42 3e 2e db 09 3f e9 90 67 40 70 36 bf 3e
       0.19004788 0.53850067 3.6182196 0.3734622
000270 63 76 de 3f 7e f5 f3 3e 17 b0 01 40 4c a5 39 3f
       1.7379879 0.47648233 2.0263727 0.7251785
000280 73 b5 3f 40 56 d3 f5 3f f3 9f 62 3e c0 87 91 40
       2.9954498 1.920512 0.22131328 4.547821
000290 2a b2 5a 40 81 66 8f 3f a3 30 95 bd 60 0d 14 40
       3.4171243 1.1203157 -0.07284667 2.3133163
0002a0 a8 fa 8b 3d 38 05 a5 3f 42 ce 3b 3e 7a b5 de 3e
       0.06834918 1.2892218 0.183404 0.4349783
0002b0 c0 bb d9 3f f3 45 ca 3f ea 2e 11 3e 6e 33 d0 3f
       1.7010422 1.5802597 0.14178053 1.6265695
0002c0 03 db 06 3f 4c 83 b2 3f 99 4b 7e 40 ea 78 14 40
       0.52677935 1.3946319 3.973364 2.31988
0002d0 b9 86 c1 3e 70 49 3c 40 99 8c 5a 40 b4 7c 96 3e
       0.37798098 2.9419823 3.4148314 0.29392016
0002e0 19 df 4b 3d 43 65 87 40 3a 6b e5 3e fd e6 0e 3f
       0.04977331 4.231111 0.4480837 0.5582121
0002f0 95 9c d7 3e 9a 39 85 40 8f d1 0e ba 6f 95 86 40
       0.4211165 4.1632814 -0.0005448097 4.2057414
000300 c7 e3 1d 40 8c b7 bf 3e fd ad 0d 3f 7b fa 2f 3e
       2.4670274 0.37444723 0.5534361 0.17185394
000310 24 b6 43 3e 4e 9f 46 40 0f 30 2e 40 d3 7d 8b 40
       0.1911245 3.1034732 2.7216833 4.3591094
000320 5f 49 c9 3f 61 78 22 3e a2 21 7d 3f 68 9a 65 3c
       1.5725516 0.15866233 0.98879445 0.014013864
000330 2d b0 90 3d 7e 75 47 3e f9 d6 6a 3e 87 5f 77 40
       0.07064853 0.19478413 0.22933568 3.8652055
000340 dc 13 4c 3f 27 35 72 3b 64 de f1 3f f3 2c 21 3e
       0.79717803 0.003695795 1.8895993 0.15739803
000350 95 85 2b 3f ad 06 b7 3f e6 58 bd 3f 38 ed ef 3e
       0.67000705 1.4298912 1.4792755 0.4686067
000360 05 90 7b 3f 4d 99 e5 3f 6f 49 f5 3e 48 22 bd 3e
       0.9826663 1.7937409 0.47907588 0.36940217
000370 76 71 f0 3e b7 40 39 3f 8e 8b 93 40 43 5c 1a 3e
       0.46961564 0.7236437 4.6107855 0.15074258
000380 83 aa e9 3f 2a 81 94 3e ad f0 30 40 7d 26 a5 3d
       1.8255161 0.29004794 2.7646897 0.08063982
000390 e1 70 c7 3e 46 8b 46 40 6b 4b 66 3f eb 5e cb 3e
       0.38953307 3.1022506 0.8995883 0.39720854
0003a0 87 ad c3 3e b1 ad ca 3e 1a 1e ab 3d f0 91 b5 3e
       0.38218328 0.3958564 0.08355351 0.35462904
0003b0 f7 f7 9d 3d 67 f9 dd 3e bc 66 30 3e 6b 2d 8f 3d
       0.07713311 0.4335434 0.1722669 0.06991085
0003c0 8e a9 ac 3e 5e 35 29 3f 50 5d c0 3c db 57 04 40
       0.3372311 0.66097057 0.023481995 2.0678623
0003d0 2e d1 94 3c e7 c6 b6 3e 15 3e d4 3d ba ac cc 3e
       0.01816615 0.35698625 0.10363404 0.3997553
0003e0 85 87 e7 bc af 67 bd 3d 4e 9d 2a 3d fb ad 3d 40
       -0.028262863 0.09248292 0.041653924 2.963744
0003f0 9f ab ae 3e 3c 81 62 40 89 2e 4e 3f e4 cb 49 40
       0.34115312 3.5391378 0.80539757 3.1530695

layers.1.bias f4 [512]
000000 ad 31 42 bf 25 db 63 bf 59 ac 68 bf dc 87 01 c0
       -0.7585705 -0.89006263 -0.9088798 -2.0239172
000010 52 7c a7 3c 92 d6 c7 bc eb a9 78 bf 52 b2 0e bf
       0.020445023 -0.024394307 -0.97134274 -0.55740845
000020 81 bb ee be 04 ec 8b bf 30 d1 04 bf a7 79 c5 bf
       -0.4662743 -1.0931401 -0.51881695 -1.542775
000030 a0 0a 4f c0 6f 6a ba bf 01 9f c6 be b0 40 28 c0
       -3.2350235 -1.4563731 -0.38793185 -2.6289482
000040 d2 61 29 bf e0 03 79 bf 2c a7 30 c0 48 99 c6 bf
       -0.66164887 -0.9727154 -2.7602034 -1.5515528
000050 1c f4 93 be 14 62 c7 bf 33 b3 b3 be d8 21 e5 bf
       -0.28897178 -1.5576806 -0.35097656 -1.7900953
000060 b0 36 1b be ec db 43 be 45 52 9b bf 84 d3 8d bf
       -0.1515758 -0.19126862 -1.2134482 -1.1080174
000070 65 73 26 bf e8 86 aa bf fe 49 64 bf 77 e4 67 bf
       -0.6501983 -1.332242 -0.89175403 -0.90582985
000080 12 2c 8e bf 3a ae 60 bf 87 ed 68 bf db 47 d6 bf
       -1.1107199 -0.8776585 -0.9098744 -1.6740679
000090 f9 4f c3 bf f8 1c cb bf 24 40 8c bf d4 95 5c bf
       -1.5258781 -1.5868216 -1.0957074 -0.8616612
0000a0 04 47 ef bf 88 6a 29 bf 37 b8 3a bf 12 4b 11 3e
       -1.8693547 -0.6617818 -0.7293734 0.14188793
0000b0 f5 c2 ed bd 17 48 bf 3d 2c 3a 98 bd 28 39 ab bf
       -0.11609451 0.09339922 -0.074329704 -1.3376818
0000c0 57 c3 99 bf 2b 3f a3 bf 7d 0e 86 3e df 32 7e bf
       -1.2012738 -1.2753652 0.2618293 -0.99296373
0000d0 2d 0b 0f bf 93 91 87 bf e9 b2 9c be e3 e3 0a bf
       -0.5587643 -1.0591301 -0.30605248 -0.5425398
0000e0 6f da ee bf 16 db e2 bf 27 fb b1 bf 55 43 14 3f
       -1.8660411 -1.772311 -1.3904771 0.5791524
0000f0 21 98 bd bf 6c d3 de 3e c2 66 4f bf eb ab 9b bf
       -1.4812051 0.43520677 -0.8101617 -1.216184
000100 f8 41 18 c0 81 6f f8 bd 79 45 81 3d c1 67 97 bf
       -2.3790264 -0.12130643 0.06312079 -1.1828538
000110 ac 3a 1a bf 3d 3a 9c be 35 aa b8 be 9a 96 22 bf
       -0.60245776 -0.30513182 -0.36067358 -0.6351105
000120 b6 6e 1c c0 77 a2 73 bf 7f 18 4a bf 75 0b a2 bf
       -2.4442573 -0.95169777 -0.7894363 -1.2659746
000130 8e 01 3f bf 35 5c 96 3e 74 d5 37 bf 08 85 22 bf
       -0.7461175 0.29367223 -0.7181008 -0.6348424
000140 68 35 e2 bf a7 9e a1 bf a6 e8 0c c0 1c 66 2b bf
       -1.7672548 -1.2626542 -2.2016997 -0.6695268
000150 f0 95 4c 3d 0d 84 9d bf 4e c3 b5 bf 26 0b 89 3e
       0.04994768 -1.2305924 -1.4200227 0.26766318
000160 7c c3 24 c0 a1 04 74 be 77 ef 0e c0 b2 bd 1b bf
       -2.5744314 -0.23829891 -2.2333658 -0.6083633
000170 b7 04 8a bf ae 3b f4 bf a0 f2 78 bf e9 20 17 c0
       -1.0782689 -1.9080713 -0.97245216 -2.3613837
000180 8b 1b c2 bf 8b 7d 51 3f 8f 48 0b c0 51 e5 d1 bf
       -1.5164655 0.8183219 -2.1763036 -1.6398107
000190 ba 08 7c bf db ea 98 bf 78 8e 02 3f 36 94 79 bf
       -0.98450816 -1.1946672 0.5099864 -0.97491777
0001a0 1b f7 25 c0 c0 f1 39 bf 9b 0d 53 bf 90 9a fd 3e
       -2.5932071 -0.72634506 -0.82442635 0.49531984
0001b0 1b 22 ac bf 5f 29 2a c0 ac 53 1a bf 9b aa eb bf
       -1.3447908 -2.658775 -0.60283923 -1.841144
0001c0 d5 53 e7 bd ed 4c ba be c7 36 77 bf e1 96 3e bf
       -0.112952866 -0.36386815 -0.9656796 -0.7444897
0001d0 f7 e5 fd bf 96 3c 8d bf c0 42 32 bf 31 26 51 bf
       -1.9835805 -1.1034114 -0.696331 -0.816989
0001e0 5e 5b d6 be 21 07 a3 3f c0 95 e0 bf 06 bc f6 be
       -0.41866583 1.273655 -1.75457 -0.48190325
0001f0 34 d8 c4 bf 64 7f 69 bf b6 e2 76 bf dd f4 cc bf
       -1.537848 -0.9121001 -0.96439683 -1.6012226
000200 46 51 d6 3e de 50 f9 bf e2 83 74 bf 40 87 32 c0
       0.41858882 -1.9477804 -0.9551374 -2.789505
000210 65 b1 78 bf d8 21 6c bf ef 12 c8 bf 84 23 ab bf
       -0.9714568 -0.9223914 -1.5630778 -1.3370214
000220 e4 6c 76 bf cd aa 57 be 6a 50 85 bf 90 fe a8 be
       -0.96259904 -0.21061249 -1.0415165 -0.33006716
000230 2a 0f 1d c0 e9 db a9 bf dd 92 35 3f a9 9f d8 be
       -2.4540505 -1.3270236 0.7092722 -0.4230931
000240 8e 24 4d bf 6c bc 43 bf 74 12 bc bf da 7c 2c be
       -0.80133903 -0.76459384 -1.4693131 -0.16844502
000250 ac c0 31 c0 08 b0 55 bf 96 4a 04 bf d7 12 8d 3d
       -2.7773848 -0.8347173 -0.5167631 0.06888359
000260 57 13 58 bf 94 19 c5 bf da c2 19 c0 ca 23 35 bf
       -0.8440451 -1.5398431 -2.4025178 -0.70757735
000270 15 53 ab be ed 97 a4 bf 4d 6d ca bf 60 7f a6 bf
       -0.33461824 -1.2858864 -1.5814606 -1.3007622
000280 f8 a9 e7 bf 6d 54 e1 be 7f d0 40 bf 52 f0 b7 bf
       -1.8098745 -0.44009724 -0.7531814 -1.4370215
000290 6b fa da bf 3a 2b b8 bf 8d ef 9e be bd 26 e9 be
       -1.7107671 -1.4388192 -0.31042138 -0.45537367
0002a0 b8 9d 9c be 14 07 f3 bf a5 ac bb bf 3c b6 27 bf
       -0.3058908 -1.8986535 -1.4662062 -0.6551244
0002b0 7d 67 1c bf de 38 1f c0 2a 43 79 bf eb f2 05 c0
       -0.6109541 -2.487846 -0.9736811 -2.0929515
0002c0 b6 7a 4f bf 5b b1 3a 3e 42 44 fa bf d6 33 05 bf
       -0.8104662 0.18231718 -1.9552081 -0.5203222
0002d0 7d 47 37 bf 8a 68 74 be b8 56 fa bf 14 24 1b bf
       -0.7159346 -0.23868003 -1.9557714 -0.60601926
0002e0 5e 4a 6b be de f0 12 c0 e7 73 cb bf 2c 93 67 bf
       -0.22977588 -2.2959514 -1.5894746 -0.9045894
0002f0 4c 9b ae bf bb 44 c4 be cc 5b 34 bd be ea 96 3e
       -1.3641143 -0.38333687 -0.044032857 0.2947597
000300 48 c3 b9 bf 96 39 23 bf 11 79 63 bf 4b 9a 25 bf
       -1.451272 -0.63759744 -0.8885661 -0.6468856
000310 8e ab 96 bf 7c 5e 75 bf e3 12 23 c0 96 bc e2 be
       -1.1771104 -0.95847297 -2.5480278 -0.44284505
000320 93 5c f2 bf b1 bc 19 bf 74 dd 79 bf 8b 9f 87 bd
       -1.8934501 -0.60053545 -0.97603536 -0.06622227
000330 d0 40 96 bf 11 dc 7d bf 0a d2 65 bf fb 4a 12 c0
       -1.1738529 -0.9916392 -0.8977362 -2.2858264
000340 fd 9f e1 bf 50 34 e1 bc 7e ac 8c bf 29 97 1d bf
       -1.762695 -0.027490765 -1.099014 -0.6155878
000350 2a 75 ca bf af a9 07 c0 68 f6 fa be 1b 4e 93 bf
       -1.5817006 -2.1197317 -0.49016118 -1.1508211
000360 20 3b c7 bf 6e 68 22 bf 45 e7 21 bf cb c7 b2 bf
       -1.5564919 -0.634406 -0.63243514 -1.3967222
000370 56 45 7a bf c4 60 86 bf a0 57 ce be 2c 5f 95 bf
       -0.9776205 -1.049828 -0.40301228 -1.1669669
000380 e2 b5 13 c0 e8 46 97 bf 71 8a db bf 61 62 05 bf
       -2.3079762 -1.1818514 -1.7151624 -0.5210324
000390 8c c5 2c bf 12 7c 3e 3f e8 b0 aa bf 14 28 6a bf
       -0.6748893 0.74408066 -1.3335238 -0.91467404
0003a0 82 3d 38 bf 1d dc 42 bf c2 c0 8a bf cc aa 12 bf
       -0.71968853 -0.76117116 -1.0840075 -0.57291865
0003b0 d5 32 3d bf 3f fb 6f bf d8 fb 36 bf ac c2 52 bf
       -0.7390569 -0.93742746 -0.71478033 -0.82328296
0003c0 ac 83 fc bf 2d bd d1 bf f7 86 ba bd f7 6e d2 bf
       -1.9727683 -1.6385857 -0.09107774 -1.6440114
0003d0 0e 2c 27 bf 6d 1e 75 3e e2 0b a0 bf 26 9b 2f bf
       -0.653016 0.23937388 -1.2503626 -0.6859611
0003e0 63 62 58 bf cd be b3 be 61 79 67 be c6 85 18 c0
       -0.84525126 -0.35106507 -0.22604896 -2.383165
0003f0 52 bf 71 bf ed f5 c0 bf e8 cc b2 bf 26 dc 1d c0
       -0.94432557 -1.507505 -1.3968782 -2.4665618

layers.1.running_mean f4 [512]
000000 51 d0 97 c5 0d 45 c5 c4 a8 70 ee c4 c3 4c 1a c5
       -4858.0396 -1578.1578 -1907.5205 -2468.7976
000010 7f a0 bb 43 8e 82 09 c4 65 dd c7 c4 58 4a ca 44
       375.25388 -550.0399 -1598.9186 1618.3232
000020 08 a1 cc c4 6d 3c bc c4 07 ff b2 44 1e 1a 5c c5
       -1637.0322 -1505.8883 1431.9696 -3521.6323
000030 5a 32 ac c5 a2 64 ac 44 05 93 45 c4 d4 b5 73 42
       -5510.294 1379.1448 -790.2972 60.927567
000040 86 11 1e c5 08 62 34 45 45 24 ae 44 09 52 7b c5
       -2529.0952 2886.127 1393.1334 -4021.1272
000050 3e 56 ad c5 99 4b c5 44 7d 4d be c2 05 2a 1c c6
       -5546.7803 1578.3624 -95.151344 -9994.505
000060 9a 48 d3 c4 b5 ce 9b c4 ee d2 ce 45 8e 53 b2 c5
       -1690.2688 -1246.4596 6618.366 -5706.4443
000070 b9 84 30 c4 2c 02 3a c4 f9 13 81 44 fb ce 83 43
       -706.0738 -744.03394 1032.6241 263.61703
000080 fd eb f1 c4 2d 77 be 42 65 09 87 c4 35 c2 a1 c4
       -1935.3746 95.232765 -1080.2936 -1294.069
000090 b4 30 ac c5 fc cf e7 c4 6c b6 03 c4 7c 83 2e 45
       -5510.088 -1854.4995 -526.85034 2792.2178
0000a0 73 42 46 c5 8e 67 71 45 b6 f1 80 43 fa 3f 63 44
       -3172.153 3862.4722 257.88837 908.99963
0000b0 5f cc 64 c3 f8 cd e2 44 71 99 f1 c4 48 5e ff c4
       -228.79832 1814.4365 -1932.795 -2042.9463
0000c0 d3 fd a4 c5 d6 12 11 45 71 86 59 c5 bf d5 ad c4
       -5279.728 2321.1772 -3480.4026 -1390.6796
0000d0 0f f7 53 c4 bb fe db c3 43 b7 2c c3 85 18 a6 43
       -847.8603 -439.99008 -172.71587 332.19156
0000e0 af 8b 18 c5 84 0c 5f 45 84 8f 35 c4 9a e7 83 c5
       -2440.7302 3568.7822 -726.24243 -4220.95
0000f0 40 80 45 c5 65 3f 08 c6 b1 69 bc c4 e3 44 4f c5
       -3160.0156 -8719.849 -1507.3029 -3316.3054
000100 96 bb a1 c4 8f d9 c5 c3 20 75 bc c5 22 84 bc c0
       -1293.862 -395.69968 -6030.6406 -5.8911295
000110 9f 37 28 c4 32 33 ba 42 7b 68 18 c5 ae e6 8a c4
       -672.8691 93.09999 -2438.53 -1111.2087
000120 16 68 2b c5 26 fd 88 c4 fd 42 d9 45 db b1 1b c3
       -2742.5054 -1095.9109 6952.3735 -155.69475
000130 8b c5 b7 43 03 5d 0f c3 3a aa a5 44 43 ca c4 c4
       367.5433 -143.36333 1325.3196 -1574.3207
000140 b9 16 a4 c5 c4 4c 21 43 f4 96 82 c4 c5 e4 3a 44
       -5250.8403 161.29987 -1044.7173 747.5745
000150 f3 a9 94 c5 33 fc 77 43 72 34 3b 43 0f fd dc 44
       -4757.2437 247.98515 187.20486 1767.9081
000160 76 f9 d9 c4 6a 01 9a c5 3e 46 72 c4 fe 7a fd c4
       -1743.7957 -4928.177 -969.09753 -2027.8435
000170 64 c5 d8 c5 8e ba 54 c5 24 38 86 c5 ae 26 b9 44
       -6936.674 -3403.6597 -4295.0176 1481.2087
000180 8c a5 09 c5 c1 5f 38 45 51 c2 29 c5 fa db 80 c5
       -2202.3467 2949.9846 -2716.1448 -4123.497
000190 d2 16 73 42 87 35 40 45 d8 57 c9 c4 a1 6b 95 44
       60.772285 3075.3455 -1610.7451 1195.3634
0001a0 a1 6a 24 c4 ae 36 7f 44 d1 d9 91 44 6e a4 f6 c5
       -657.6661 1020.8544 1166.8068 -7892.5537
0001b0 76 ce 3f c4 8f 09 c8 c4 10 bd a0 45 81 57 a1 c4
       -767.22595 -1600.2987 5143.633 -1290.7345
0001c0 d1 83 5a 45 70 51 80 c4 21 7e 3c c4 b1 46 74 c4
       3496.2385 -1026.5449 -753.97076 -977.10455
0001d0 ef 3b 22 c5 25 16 11 c2 48 2d 8e 44 d7 9b 14 c5
       -2595.7458 -36.271626 1137.415 -2377.74
0001e0 b6 30 d2 44 cf 46 cb 44 34 c8 04 c4 7a cd a8 c5
       1681.5222 1626.2128 -531.1282 -5401.6846
0001f0 99 d2 0e c5 52 e0 90 45 01 da ed c4 b1 1c a1 c5
       -2285.1624 4636.04 -1902.8126 -5155.5864
000200 cd de cb c4 1b 96 a9 c4 ce e7 34 c4 5d d0 05 c5
       -1630.9625 -1356.6908 -723.62195 -2141.0227
000210 9d 4e f6 c3 21 4e ee c4 4c 73 33 c5 11 4a a4 44
       -492.61417 -1906.4415 -2871.206 1314.3146
000220 84 14 b0 45 79 2f 9e c1 90 3f ae 45 a3 a0 cc c4
       5634.5645 -19.77318 5575.9453 -1637.0199
000230 60 00 15 c5 c3 c4 81 44 e8 a2 2d 40 eb 67 cc c4
       -2384.0234 1038.1488 2.713068 -1635.2474
000240 a0 6f c0 c3 16 1a eb 44 20 23 04 44 49 c4 01 c5
       -384.87207 1880.8152 528.5488 -2076.2678
000250 6d 1d 00 c5 de 3b 6e c4 db bf 77 c2 20 89 cf c5
       -2049.839 -952.9354 -61.93736 -6641.1406
000260 c9 48 4b 43 be 9b c3 44 71 b3 94 c4 05 f9 47 c4
       203.28432 1564.867 -1189.6075 -799.8909
000270 12 97 cc 44 77 05 51 c5 97 ed 37 c5 06 93 2a c5
       1636.721 -3344.3416 -2942.8494 -2729.189
000280 90 f0 ba c4 9f b2 1b 45 b3 a0 0d c5 15 33 8e c5
       -1495.5176 2491.1638 -2266.0437 -4550.3853
000290 13 3b fa c4 b3 45 cd 43 dd 67 82 c4 00 22 9d 45
       -2001.8461 410.54453 -1043.2457 5028.25
0002a0 1e d8 54 c3 f7 83 c6 c4 82 83 13 45 6a a5 2b c3
       -212.84421 -1588.1239 2360.2192 -171.64615
0002b0 23 28 1e 44 6a 6f 34 42 74 bb 82 43 f5 53 c4 c4
       632.62714 45.108803 261.46448 -1570.6237
0002c0 ce db 86 c4 32 b9 50 c5 6c 89 6d c5 33 a2 18 45
       -1078.8689 -3339.5747 -3800.5889 2442.1375
0002d0 77 95 43 45 2c c7 55 45 e9 06 18 c5 3e 32 20 44
       3129.3416 3420.4482 -2432.432 640.78503
0002e0 b7 a5 c7 c3 76 f5 cc c3 44 3d c5 45 9f ea 3b c4
       -399.29465 -409.91766 6311.658 -751.66595
0002f0 06 17 23 c5 0d 91 85 43 09 f0 02 c5 a2 b6 6a c4
       -2609.439 267.1332 -2095.0022 -938.85364
000300 33 91 94 c4 24 ef ad 44 3c 8d 96 c5 43 03 81 c4
       -1188.5375 1391.4731 -4817.6543 -1032.1019
000310 00 d2 ff c4 bd 0c 61 45 88 2c 0e c6 bd 23 cb c5
       -2046.5625 3600.7961 -9099.133 -6500.4673
000320 13 5b 88 43 d7 4a a8 c4 c9 51 70 45 ac b1 27 c5
       272.71152 -1346.3387 3845.1116 -2683.1045
000330 70 ef 85 44 27 86 95 44 71 f2 80 c4 4d 15 fe c4
       1071.4824 1196.1923 -1031.5763 -2032.6656
000340 38 ef 38 44 d7 e6 2b 43 e6 ce 87 45 df c8 5d 43
       739.7378 171.90172 4345.8623 221.78465
000350 2c 73 e6 c5 c1 17 83 c4 37 19 03 c4 e5 0b 6c c5
       -7374.3965 -1048.7423 -524.394 -3776.7434
000360 0f 54 6f 45 ee a1 78 45 9d ed 59 c4 2b d5 18 44
       3829.2537 3978.1206 -871.7127 611.33075
000370 f4 f7 f8 44 9f 83 4c 45 11 f8 45 c6 74 96 0c 44
       1991.7485 3272.2263 -12670.017 562.3508
000380 5e 31 84 c4 91 ee 1c c5 6b b0 07 45 33 35 89 c4
       -1057.5427 -2510.9104 2171.0261 -1097.6625
000390 d8 f0 a2 c4 95 28 93 c5 b2 df e8 45 5d 35 e6 c4
       -1303.5264 -4709.0728 7451.962 -1841.6676
0003a0 40 f3 66 c5 2f 67 19 c5 bc c0 fe c4 74 14 51 c3
       -3695.2031 -2454.449 -2038.023 -209.0799
0003b0 93 dc a3 c3 0b 63 5b c5 57 d5 73 c4 f7 7e 0b c5
       -327.72324 -3510.1902 -975.33344 -2231.9353
0003c0 f7 e1 20 c5 6a 2d c0 c5 e3 16 1d c3 80 b0 2b c5
       -2574.1228 -6149.677 -157.0894 -2747.0312
0003d0 51 43 c6 c3 9d 06 51 c5 5e 2a 2a c4 64 1d 81 c4
       -396.5259 -3344.4133 -680.662 -1032.9185
0003e0 91 c1 89 c4 fc e9 ec c4 5f 36 e6 44 fc e3 fa c3
       -1102.049 -1895.312 1841.6991 -501.78113
0003f0 31 d0 2c c5 43 88 15 c5 17 d9 85 44 9f 8c 89 c5
       -2765.012 -2392.5164 1070.784 -4401.5776

layers.1.running_var f4 [512]
000000 d5 5f ac 49 f3 e5 21 49 1a d9 43 4a 68 39 a1 4a
       1.4120906e+06 663135.2 3.2087745e+06 5.282996e+06
000010 6b db a0 4a 56 db 44 4a 7b ca 0b 4a 79 e3 da 49
       5.2709655e+06 3.2253015e+06 2.2903348e+06 1.7931351e+06
000020 2e fb dc 49 dd b8 bf 4a d5 dc 6a 4b 89 21 95 4a
       1.8102778e+06 6.2823505e+06 1.5391957e+07 4.8867245e+06
000030 76 55 24 48 fa 43 64 49 08 d3 0e 4a 03 58 a9 4a
       168277.84 934975.6 2.340034e+06 5.5490575e+06
000040 fb dc 16 49 05 f8 be 4a dc 5e ef 49 74 a1 12 4a
       617935.7 6.2576665e+06 1.9609235e+06 2.402397e+06
000050 3a 8a 6b 49 0c 2a b8 4a ed d1 c7 49 46 8a 92 48
       964771.6 6.034694e+06 1.6369256e+06 300114.2
000060 0e 72 0d 4a 1c 54 6d 48 04 81 79 4a 0d 76 90 4a
       2.3174435e+06 243024.44 4.087873e+06 4.7337025e+06
000070 41 19 8d 48 f0 52 88 49 cd ff 7b 49 73 f9 88 49
       288970.03 1.116766e+06 1.0321888e+06 1.1220944e+06
000080 0a 03 a7 49 f9 c9 d5 48 ca 26 23 49 bf fd 43 49
       1.3681612e+06 437839.78 668268.6 802779.94
000090 e1 59 00 4b 47 06 98 49 10 60 11 4b 3c a4 bf 48
       8.411617e+06 1.2453849e+06 9.527312e+06 392481.88
0000a0 08 77 03 49 8d 45 77 4a ca ba a4 49 ba b0 67 4b
       538480.5 4.0512992e+06 1.3494652e+06 1.5184058e+07
0000b0 a2 07 1a 4a 28 64 a0 4a ce c9 95 4a 62 96 93 4a
       2.5236245e+06 5.2557e+06 4.908263e+06 4.836145e+06
0000c0 01 70 32 4a 68 24 c4 4a 0e 75 06 4b 62 67 be 49
       2.9235202e+06 6.427188e+06 8.81179e+06 1.5597882e+06
0000d0 8c ab 0f 49 6c a2 03 49 81 1b 34 49 de 1f 38 48
       588472.75 539174.75 737720.06 188543.47
0000e0 bb 39 d3 4b f3 76 6f 4a c3 1e 4a 4a 60 24 66 4b
       2.768575e+07 3.9233888e+06 3.3115368e+06 1.5082592e+07
0000f0 33 8c ec 4a 71 44 df 49 42 a2 63 48 ea 21 74 49
       7.7511935e+06 1.8290061e+06 233097.03 999966.6
000100 ed c5 aa 4a b0 3d b3 49 8e 82 bf 49 fe f9 86 49
       5.5958945e+06 1.468342e+06 1.5688498e+06 1.1057278e+06
000110 59 5f 08 49 db 8a 8b 48 49 b5 8e 4a 3d 85 f4 48
       558581.56 285782.84 4.6762605e+06 500777.9
000120 3f 57 ca 4b 12 46 e0 48 ca b4 15 4a e3 a8 95 49
       2.6521214e+07 459312.56 2.4527865e+06 1.2260124e+06
000130 f3 72 f9 49 17 1c 15 4b 2c 12 0e 48 26 95 bf 49
       2.0434864e+06 9.772055e+06 145480.69 1.5694448e+06
000140 f3 c1 20 4a db 67 39 49 56 9f fa 4a 2d 12 8b 48
       2.6338528e+06 759421.7 8.212395e+06 284817.4
000150 51 1e 20 4a 2b 76 a7 49 49 cb a3 49 29 32 4b 4a
       2.6233802e+06 1.3718454e+06 1.3418011e+06 3.3291622e+06
000160 ff 29 56 4a 9b fb 2c 49 2c 70 87 4a 36 74 89 49
       3.5088638e+06 708537.7 4.438038e+06 1.1260228e+06
000170 ff f6 a1 48 1d 57 f1 4a ac 6f 2f 4a c6 da 45 48
       331703.97 7.9082385e+06 2.874347e+06 202603.1
000180 62 49 c9 4a 91 d5 f5 49 3e ca a5 4a 23 e7 58 49
       6.595761e+06 2.0138741e+06 5.432607e+06 888434.2
000190 76 1f 2c 4a c4 51 d2 4a ca 23 91 4a 5b d0 ea 49
       2.8200615e+06 6.891746e+06 4.755941e+06 1.9235954e+06
0001a0 08 f0 a3 4a e1 3a fb 48 72 45 d4 48 a4 be 2c 4a
       5.371908e+06 514519.03 434731.56 2.830249e+06
0001b0 fc 51 87 49 d1 3c f1 49 d0 9c 25 49 c5 d9 b7 4a
       1.1085435e+06 1.9762181e+06 678349.0 6.0244185e+06
0001c0 40 01 22 4a b7 51 bb 48 8d 2e a0 49 dd 77 ee 49
       2.654288e+06 383629.72 1.3122096e+06 1.9535316e+06
0001d0 4c 4c bf 4a 52 3d a2 48 ef ab 93 49 94 43 e1 49
       6.268454e+06 332266.56 1.2097259e+06 1.8453625e+06
0001e0 00 21 36 4b 15 a4 f3 4b e9 4f 44 49 da 99 27 4a
       1.1936e+07 3.1934506e+07 804094.56 2.7459745e+06
0001f0 78 b1 f5 48 4f 7c 03 4b ca f3 08 4a a0 92 5a 49
       503179.75 8.617039e+06 2.2438265e+06 895274.0
000200 91 82 e8 4a 24 e1 76 4a 1f d6 56 49 a9 ca 98 4a
       7.6188885e+06 4.044873e+06 879969.94 5.0066765e+06
000210 9a 18 a1 49 19 ce f9 48 43 78 9f 49 e5 12 fc 48
       1.3196992e+06 511600.78 1.3063764e+06 516247.16
000220 cf 90 11 4a 7f d3 b8 48 ed d7 89 4a 02 03 d5 4a
       2.3849478e+06 378523.97 4.5168545e+06 6.979969e+06
000230 5d ea 60 4b 99 f0 c4 49 51 35 72 4a fc 9a 04 49
       1.4740061e+07 1.6133311e+06 3.9683402e+06 543151.75
000240 8f ce e5 48 9e 53 9e 4a ea 3a 39 49 20 4b 9e 4a
       470644.47 5.188047e+06 758702.6 5.18696e+06
000250 8f fe 13 4b fc 25 bd 48 d2 9e 68 48 60 d9 7e 49
       9.698959e+06 387375.88 238203.28 1.043862e+06
000260 32 9b a2 49 13 ea 3e 49 86 e7 36 4a a1 9c 4c 49
       1.3320702e+06 781985.2 2.9967055e+06 838090.06
000270 0d e3 b1 4a de 25 6c 49 25 04 b6 4a 6d 12 fd 49
       5.8289985e+06 967261.9 5.9643065e+06 2.0731656e+06
000280 d0 3b e9 49 ff 1a 92 49 dc 53 bc 49 64 38 c1 4a
       1.91065e+06 1.1968959e+06 1.5427795e+06 6.331442e+06
000290 66 21 c8 4a f2 85 e2 49 97 98 15 4b 59 3e 89 4a
       6.557875e+06 1.8556782e+06 9.803927e+06 4.4971965e+06
0002a0 67 cc ec 49 7c b0 86 4a 6f 2b 2c 49 94 76 c2 48
       1.9398529e+06 4.413502e+06 705206.94 398260.62
0002b0 13 a8 95 49 f1 25 81 4a da f6 96 49 54 33 42 4a
       1.2259864e+06 4.2319285e+06 1.2366992e+06 3.181781e+06
0002c0 1b ea 0a 49 bd d6 30 4a 13 b3 8c 4a 8d ec 96 4a
       568993.7 2.8973272e+06 4.6104415e+06 4.9454785e+06
0002d0 c8 ab 65 49 1e 6c 85 4a fc dc 7a 49 a0 f8 8f 48
       940732.5 4.371983e+06 1.02753575e+06 294853.0
0002e0 1a 48 02 4a ca eb 80 4a 79 68 e2 49 80 23 2d 4a
       2.1345345e+06 4.224485e+06 1.8547351e+06 2.836704e+06
0002f0 b5 68 7a 4a 61 4d 32 49 2b a4 14 4a ce 94 0e 4a
       4.1027012e+06 730326.06 2.4353388e+06 2.3360515e+06
000300 21 e1 2a 49 df 96 14 49 a2 41 22 48 23 77 8a 49
       699922.06 608621.94 166150.53 1.1343084e+06
000310 d5 3d 30 48 9f 47 4c 49 9d f2 97 47 eb 49 ee 48
       180471.33 836729.94 77797.23 488015.34
000320 d2 60 20 4a 28 8b 4f 49 4f 77 e2 4a 2f 14 b2 49
       2.6276365e+06 850098.5 7.4208395e+06 1.4588219e+06
000330 a6 58 ee 4a 7c 07 d1 48 e7 7d 1b 49 e8 c0 8a 4a
       7.810131e+06 428091.88 636894.44 4.546676e+06
000340 98 7d 94 49 f9 2d 47 4a 25 32 c5 4a 89 5c c6 48
       1.216435e+06 3.2633582e+06 6.4617145e+06 406244.28
000350 53 7e a6 48 8e 79 48 4b 22 9f 29 4a 3d 04 f2 49
       340978.6 1.3138318e+07 2.7790805e+06 1.9825996e+06
000360 98 53 ee 4a d4 53 40 49 7d 8d 16 49 0e b0 00 49
       7.809484e+06 787773.25 616663.8 527104.9
000370 6c 6e 00 4a 19 eb 91 49 75 45 fe 48 6c 50 08 49
       2.104219e+06 1.1953631e+06 520747.66 558342.75
000380 53 e9 29 4a 64 35 4e 49 cc 2c 32 4a 68 0e 10 48
       2.7838288e+06 844630.25 2.919219e+06 147513.62
000390 5a 83 6e 49 fa c2 21 4b 7a 2d aa 4a 6e 19 f4 48
       976949.6 1.060121e+07 5.576381e+06 499915.44
0003a0 85 7f 90 48 6a 5a fa 48 4f 57 26 4a 40 b7 1a 49
       295932.16 512723.3 2.7253318e+06 633716.0
0003b0 6c 53 e6 49 31 95 76 49 77 79 53 49 97 d4 1e 4a
       1.8868295e+06 1.01000306e+06 866199.44 2.6022778e+06
0003c0 35 2d 5e 49 f2 24 d1 49 9c ef 1d 4a 29 d2 5d 4a
       910035.3 1.7133102e+06 2.587623e+06 3.6343142e+06
0003d0 6b 3b a0 49 4d 4e 71 4b 8e 12 32 48 e9 82 3e 48
       1.3126214e+06 1.5814221e+07 182346.22 195083.64
0003e0 ae b4 9d 49 b1 1e be 48 fd a1 d6 4b f2 88 65 4a
       1.2919258e+06 389365.53 2.8132346e+07 3.7607005e+06
0003f0 13 f3 f9 49 31 57 52 4b d6 78 63 49 c0 6a 75 4c
       2.0475864e+06 1.3784881e+07 931725.4 6.433459e+07

layers.4.weight f4 [256, 512]
000000 ab d4 87 c0 7d 23 1d be 92 6e 8b be 67 07 a4 3f
       -4.2447104 -0.15345569 -0.27232796 1.2814759
000010 ba 4d 8e bf 8d 90 81 3e 72 d7 a3 be d6 10 8f bf
       -1.111747 0.25305596 -0.3200031 -1.1177013
000020 e8 29 b3 3e 9e 99 39 3d ba fa 11 c0 55 ec 08 3f
       0.3499291 0.045312516 -2.2809281 0.53485614
000030 ba ee 52 40 f1 d0 24 bf c5 d3 ca be c4 2a 9a c0
       3.2958207 -0.6438132 -0.39614692 -4.8177204
000040 40 47 72 be 16 c3 5b c0 3f b4 0f c0 57 bb f3 3d
       -0.23659992 -3.433782 -2.2453763 0.119009666
000050 12 d5 d2 c0 18 99 ad 3f a1 8e f8 be c6 bc 80 c0
       -6.5885096 1.3562346 -0.48546317 -4.0230436
000060 7d 6e 07 be 69 a7 07 c1 07 1f 5c 40 61 d1 df c0
       -0.13225742 -8.478372 3.4393938 -6.994309
000070 4b 3d 3b be e7 fe 92 bf 40 81 91 3f 22 37 56 bf
       -0.182851 -1.148404 1.1367569 -0.83677876
000080 44 2c 8e c0 16 d9 36 bd 85 79 24 bf d8 03 e8 be
       -4.4429035 -0.044640623 -0.64247924 -0.45315433
000090 85 51 fe bf 84 4a 2d be 96 b0 ca 3e 0e 39 12 40
       -1.9868628 -0.16922957 0.3958785 2.2847323
0000a0 cf c1 b2 c0 81 e1 a3 3f 56 c7 34 bd 2f 2a 07 c0
       -5.5861583 1.2803193 -0.044135414 -2.1119497
0000b0 f5 db 49 bf 42 76 e2 3e 08 4d 3e bd 14 b2 89 c0
       -0.7885125 0.4423085 -0.04646018 -4.302988
0000c0 25 d5 c3 c0 ae 59 82 c0 a4 90 ff be 77 9c 3e bf
       -6.1197686 -4.073447 -0.4991504 -0.74457496
0000d0 05 20 0f be 53 c5 5a be 94 88 cc be 61 f5 61 3e
       -0.13977058 -0.21364336 -0.3994795 0.22066261
0000e0 d1 12 36 40 16 66 53 3f 96 53 bf bf 5f ee a6 bf
       2.8448985 0.82577646 -1.4947383 -1.3041495
0000f0 84 fd 16 bf 41 35 92 c0 f7 33 bd be 68 2e 87 bf
       -0.58980584 -4.5690007 -0.3695371 -1.0561037
000100 ef 37 93 3e 00 cb 13 bf e6 76 fa c0 60 90 75 bf
       0.2875361 -0.5773163 -7.827014 -0.95923424
000110 78 b5 c3 be 50 13 a4 be 02 11 3e bf 31 af 39 be
       -0.38224387 -0.32045984 -0.742447 -0.18133236
000120 42 cf 10 c0 b8 8a 11 bf 43 67 9b 3f 05 33 f7 be
       -2.26265 -0.56852293 1.2140888 -0.48281112
000130 0d 55 5b bf 56 7f 29 3f 62 fc 3c bf a8 7a 15 bf
       -0.8567665 0.66209924 -0.73822606 -0.58390284
000140 07 63 16 c0 aa 2b 24 bf 70 0b a7 bf 56 13 09 3e
       -2.3497941 -0.64129126 -1.3050365 0.13386282
000150 f2 e0 47 bf 46 ae 3c bf 71 ad 6d be 2b ec 77 3d
       -0.78077614 -0.7370342 -0.23210694 0.06052796
000160 bb 92 40 3f 28 0e a5 3e 87 13 ef 3f cf 56 98 be
       0.7522389 0.32237363 1.8677834 -0.2975373
000170 ac 7a 03 c0 1a c6 a7 bf 8a 3b 02 c0 ea df 10 3f
       -2.0543623 -1.3107331 -2.034884 0.56591666
000180 46 49 c0 bd a2 61 93 be 28 f5 15 3f e9 70 f6 be
       -0.09388976 -0.28785425 0.58577204 -0.4813302
000190 a6 d4 3c bf 69 7e ef be a3 9b ba be 26 be 39 40
       -0.73761976 -0.4677613 -0.36446866 2.9022307
0001a0 c1 19 93 bf 35 da 42 3d 81 35 7c 3f 94 dd 2e bf
       -1.1492234 0.04757138 0.9851914 -0.6830685
0001b0 ac 93 13 3c c2 90 26 40 c7 d7 c7 3f 01 cb 9b 3f
       0.009007376 2.6025853 1.5612725 1.2171327
0001c0 e1 d9 99 be c7 6f 29 bf 01 a0 35 3f cb b8 1a bf
       -0.3004904 -0.66186184 0.7094727 -0.6043822
0001d0 77 8f c3 3e 0e 25 02 bf d3 ef 4c 40 03 96 17 bf
       0.38195392 -0.5083779 3.2021377 -0.59213275
0001e0 d7 38 7e 3f db 3a ff bf da dd e8 c0 e9 ad a3 c0
       0.9930548 -1.9939836 -7.2770815 -5.1149793
0001f0 3e ef 10 c0 b6 58 25 be ef f1 3c 3c c2 f2 38 c0
       -2.2646022 -0.16147122 0.011532291 -2.8898168
000200 5f 49 b5 bf 4b 0a d7 bf fb fd 05 bf a3 6e d6 3f
       -1.4163016 -1.6800016 -0.5234067 1.6752514
000210 44 7d d0 3e fc 79 97 bf 5b ae fe bf dd 31 f9 bd
       0.4072057 -1.1834102 -1.9896959 -0.12167714
000220 40 bc f3 3f e2 40 1a bf b9 ec 07 3f 97 ab ae bf
       1.9041824 -0.60255253 0.53095585 -1.3646115
000230 cc 5c 2c c0 bf 2d 83 3e 11 8f 6f 3f 3e a0 83 bf
       -2.6931639 0.2562084 0.93577677 -1.0283277
000240 2e 3d 6f 3e 8d 36 58 c0 d0 df 80 3f 12 da 14 bf
       0.23363182 -3.3783295 1.0068302 -0.5814525
000250 c6 21 cc 3f 0a 4a 6f bf 91 81 3d 3d 70 bc 11 c1
       1.5947807 -0.9347235 0.046266142 -9.108505
000260 57 59 03 bf 7f be 4d bf 38 85 1d 3e 8f b0 a1 be
       -0.51308197 -0.803688 0.1538285 -0.31580016
000270 35 60 51 40 2e 79 7a bf fb 17 8d be 95 f7 01 b9
       3.271497 -0.97841156 -0.27557358 -0.0001239463
000280 83 b9 00 40 7b 15 15 3e d4 fd a1 3e 97 9a a5 be
       2.0113227 0.14558975 0.31638968 -0.32344505
000290 27 36 7f 40 ec ab e6 3f 2b ad 36 3f f1 73 c3 3f
       3.9876802 1.8021216 0.71357983 1.5269758
0002a0 c6 bd 1f bf bc 53 29 3f 10 6f 8f bf ae af b5 be
       -0.62398946 0.66143394 -1.1205769 -0.35485595
0002b0 2e d5 0e 40 48 d1 ea bf ca 98 21 bf 5f 69 2d c0
       2.2317615 -1.8345118 -0.6312376 -2.7095563
0002c0 d3 a3 9b be 0c 25 a4 40 fc e6 0c c0 89 ad 4e 3f
       -0.30398425 5.1295223 -2.2015982 0.80733544
0002d0 da 05 39 40 4b 41 a6 3f 9c 1c 7a 3f 9a 62 dc be
       2.8909822 1.2988676 0.97699904 -0.43043977
0002e0 64 ba 26 bf dd 36 13 bf d6 27 a8 be f5 ea 69 40
       -0.6512816 -0.5750559 -0.32842892 3.6549656
0002f0 63 4c a4 bf 6b f4 a3 bf 77 a4 4f bf 2e c0 f9 be
       -1.2835811 -1.2808965 -0.8111033 -0.48779434
000300 42 06 a8 bf ef bf 7e 3e 90 f7 87 3d e4 60 8c bf
       -1.312691 0.24877904 0.06639016 -1.0967069
000310 66 1c 5d bf e7 c7 0f bf bd 24 a8 40 e6 52 98 be
       -0.8637146 -0.561644 5.2544847 -0.29750746
000320 da ec 54 be 77 45 9e bc 99 a3 4f bf 82 7b 04 3e
       -0.20793477 -0.019320233 -0.81109005 0.1293774
000330 8a 71 2c c0 c0 0f 1f bf a9 54 8c bf 1a 81 89 bf
       -2.6944299 -0.6213341 -1.0963336 -1.0742524
000340 12 bb ff 3d 3f c4 66 bf d2 4b 8f 3e 57 67 a9 be
       0.12486853 -0.901432 0.27987534 -0.33086655
000350 4a 59 44 bf 08 8d 4b bf 6a 66 34 40 0d e7 44 c0
       -0.76698744 -0.7951207 2.8187509 -3.0766022
000360 5e 9a 2b c0 5b b3 a7 bf 0d 1f a6 3d b3 19 49 be
       -2.6812968 -1.310161 0.08111391 -0.1963871
000370 42 91 b2 3e 50 8b b8 bd d9 4a 04 c0 90 0b 48 bf
       0.34876448 -0.09010947 -2.0670683 -0.7814264
000380 79 fe 1a 3e b4 45 2c be b4 03 73 40 21 b9 0f be
       0.15136136 -0.16823465 3.797101 -0.14035465
000390 bb 93 9b bd 24 01 8d be 99 08 df 3f ce ea bc be
       -0.07596537 -0.27539933 1.7424499 -0.36897892
0003a0 8b 85 75 be c5 79 76 bf 81 e4 46 be dc 1e 8d bc
       -0.23976724 -0.96279556 -0.19423105 -0.017226629
0003b0 2c f3 37 bf 84 e5 98 bf aa e7 9a be d5 95 41 be
       -0.71855426 -1.1945043 -0.3025487 -0.18904813
0003c0 b3 02 55 bf b4 1c cb bf d3 fc 6a bf 85 37 c8 3f
       -0.83207244 -1.5868134 -0.9179203 1.5641943
0003d0 ad b7 45 bf 71 92 62 40 28 86 7d bf 0f 98 68 bc
       -0.7723339 3.540188 -0.9903283 -0.01419641
0003e0 41 50 03 bf 38 ba 6f be 2a 5d f8 bf 39 a5 88 ba
       -0.5129433 -0.2341088 -1.9403431 -0.0010425217
0003f0 13 f1 60 bf 2a 08 87 3f 5f 3b 15 bf ef 11 b1 bf
       -0.8786785 1.0549366 -0.5829372 -1.3833598
