model_results/Victoria/Transformer_PSO_Model/2025-08-25_05-42-20/best_model.pth (torch, 147061 bytes, 15 tensors)

encoder.weight f4 [44, 10]
0	0xbc41f59d	-0.011838344
1	0xbd7b19f1	-0.061304037
2	0x3dc81579	0.097697206
3	0x3e843ff8	0.25830054
4	0xbd896bb4	-0.06709996
5	0x396eb508	0.00022764888
6	0x3c60ecdb	0.013728346
7	0x3e91cd3b	0.2847689
8	0x3e68d328	0.227368
9	0x3d142130	0.036164463
10	0xbd53f8fd	-0.051751126
11	0xbe98a915	-0.298165
12	0xbe71b93c	-0.23605818
13	0xbeb3e2cf	-0.3513398
14	0xbe498e2b	-0.19683139
15	0x3dd33f0a	0.10314758
16	0xbea08be9	-0.31356743
17	0x3e81ddf7	0.25364658
18	0xbdd012cf	-0.101598375
19	0xbea3713b	-0.31922325
20	0xbe89c01f	-0.2690439
21	0x3e262f52	0.16228989
22	0xbddec9c9	-0.10878331
23	0xbe6a0596	-0.22853693
24	0xbe696d1c	-0.22795528
25	0xbe8ed202	-0.27894598
26	0x3cdaab5c	0.026693039
27	0xbe360039	-0.17773522
28	0x3e8c220f	0.27369735
29	0x3dfcb7e9	0.123397656
30	0xbe0f5518	-0.13997304
31	0xbd3487d5	-0.044074852
32	0xbe1938ff	-0.14963149
33	0xbe91cbbd	-0.28475752
34	0xbd9d7e03	-0.076900505
35	0x3e78843a	0.2426919
36	0x3e80ed59	0.25181082
37	0xbe874f91	-0.26427892
38	0x3e2dfd0d	0.16991062
39	0x3dd5079c	0.10401842
40	0x3e936479	0.28787592
41	0xbe0306a2	-0.12795499
42	0xbde14175	-0.10998813
43	0x3d0541d9	0.0325335
44	0xbe6c9daf	-0.23107027
45	0xbe9cceb9	-0.30626467
46	0x3ea84afd	0.32869712
47	0xbe55a813	-0.20864896
48	0x3e3c3632	0.18380049
49	0x3e0ddfd8	0.13854921
50	0xbdea7024	-0.114471704
51	0xbe849984	-0.25898373
52	0x3e0f2aee	0.1398122
53	0xbe8c7208	-0.2743075
54	0xbc6a9224	-0.014317069
55	0xbd43829e	-0.047731988
56	0x3d81f5b3	0.063456915
57	0xbeaad537	-0.33365795
58	0xbe4e0209	-0.20117964
59	0x3e819693	0.25310192
60	0x3e192967	0.149572
61	0x3bdc4f4d	0.0067233206
62	0xbe4d5d8b	-0.20055215
63	0x3d92d1fd	0.07168958
64	0xbdfb7469	-0.12278063
65	0x3d915a65	0.070973195
66	0xbe97ca23	-0.29646406
67	0xbe543b7c	-0.20725816
68	0xbe2b8ff9	-0.1675414
69	0x3e3aa96b	0.1822869
70	0x3c5124ff	0.012765168
71	0x3e064044	0.13110453
72	0x3e56c748	0.20974457
73	0xbe36cb98	-0.17851102
74	0x3dc021ff	0.09381484
75	0xbe640efd	-0.22271343
76	0xbe544736	-0.2073029
77	0xbeb22488	-0.34793496
78	0xbe67f383	-0.22651486
79	0xbc8bd68d	-0.01707008
80	0x3e6a38d2	0.22873238
81	0x3e478024	0.19482476
82	0xbe20735b	-0.15669005
83	0x3e6e9e32	0.23302534
84	0x3ea35581	0.31901172
85	0xbd9f58ec	-0.077806324
86	0xbe580395	-0.21095116
87	0xbe64bf78	-0.22338665
88	0xbcbdc5bb	-0.023165574
89	0x3d1275e7	0.03575697
90	0x3d8047b1	0.06263674
91	0x3e358db4	0.17729837
92	0x3d28438c	0.041080043
93	0xbde3170b	-0.110883795
94	0xbe465d7d	-0.193716
95	0x3eb91dd9	0.36155584
96	0xbe6778bc	-0.2260465
97	0x3ea8eed6	0.32994717
98	0xbe70b211	-0.23505427
99	0x3cb9a3a2	0.022661034
100	0x3c70ecbb	0.014704878
101	0x3e1c1b85	0.15244873
102	0xbd1180f7	-0.03552338
103	0x3ec10837	0.3770158
104	0x3e88e47c	0.2673682
105	0xbe8c7343	-0.27431688
106	0x3de2904c	0.11062679
107	0x3e2ea3a2	0.17054608
108	0x3e11e9a4	0.14249283
109	0xbe834483	-0.25638208
110	0x3e7cee79	0.24700345
111	0xbc8786d4	-0.016543783
112	0x3e539305	0.20661552
113	0xbde93c5f	-0.11388468
114	0x3dd11c02	0.1021042
115	0x3d1e44ff	0.03864002
116	0x3dff8c45	0.12477926
117	0x3e0a1308	0.13483822
118	0xbdd79df3	-0.10528173
119	0xbdf85835	-0.12126199
120	0xbe73716e	-0.23773739
121	0x3e89f705	0.26946273
122	0x39c023e7	0.00036647843
123	0xbe23c769	-0.15994038
124	0xbe9c4642	-0.30522352
125	0xbe9d31ce	-0.3070206
126	0xbe46ec97	-0.1942619
127	0x3d6af5e7	0.057363417
128	0x3e99f09b	0.3006638
129	0x3e3d0520	0.18458986
130	0xbe8c30f4	-0.27381098
131	0xbd493f8f	-0.04913288
132	0xbe48ab1d	-0.19596525
133	0xbea319f9	-0.31855753
134	0x3e411416	0.18855318
135	0xbcc5b9fc	-0.024136536
136	0xbe4837f2	-0.19552591
137	0x3dcaad99	0.098963924
138	0x3e1712d6	0.14753279
139	0xba8036ea	-0.0009781991
140	0x3e5ccb05	0.21561821
141	0xbe60d437	-0.21955954
142	0xbe2157bd	-0.15756126
143	0xbd6813c4	-0.056659475
144	0xbe02a6e8	-0.12758982
145	0xbe44858e	-0.19191572
146	0x3dacfd6f	0.08446776
147	0x3de265ac	0.110545486
148	0x3e3ec832	0.18631056
149	0xbcc3850a	-0.023867149
150	0xbda7d91b	-0.081957065
151	0xbe29928f	-0.16559814
152	0x3e851337	0.25991222
153	0x3e313cfa	0.17308417
154	0xbe979b28	-0.29610562
155	0x3cb0583f	0.021526454
156	0xbe230532	-0.1591995
157	0x3e5023ff	0.20326231
158	0xbe5b19b1	-0.21396519
159	0xbe049865	-0.12948759
160	0xbdb4109c	-0.087922305
161	0xbde6953d	-0.11258934
162	0x3e6b66ab	0.22988383
163	0x3e641404	0.2227326
164	0xbeaf7f87	-0.34276983
165	0x3deb74f2	0.11496915
166	0xbc9c4ad0	-0.019078642
167	0x3e5357f8	0.20639026
168	0xbeb59545	-0.35465446
169	0x3e74f3f1	0.23921181
170	0xbd6c1322	-0.057635434
171	0xbe4e308e	-0.2013571
172	0xbe0f1286	-0.1397191
173	0x3e602b15	0.21891434
174	0xbe0b0bac	-0.13578671
175	0x3e1c2fc3	0.15252595
176	0xbe9af5e3	-0.30265722
177	0xbe802b52	-0.2503305
178	0x3e06e28f	0.13172363
179	0xbe8e94b6	-0.27847832
180	0xbe046ccb	-0.12932126
181	0xbeaf7a53	-0.34273013
182	0x3e21cf12	0.15801647
183	0xbe91c74d	-0.28472367
184	0xbc9c9502	-0.019114021
185	0x3e3454e4	0.17610508
186	0x3e629b5a	0.22129574
187	0xbb8d7e0d	-0.004318005
188	0xbe0adc1c	-0.13560528
189	0x3cb20c2d	0.021734321
190	0x3da9b6f1	0.082868464
191	0xbe92b81f	-0.28656098
192	0x3df03409	0.11728675
193	0xbe2197e2	-0.15780595
194	0x3d85867d	0.06519792
195	0x3de2c65d	0.11072991
196	0xbd2e850d	-0.042607356
197	0xbe9a56c4	-0.30144322
198	0xbe3cd0d6	-0.1843904
199	0x3dca32f0	0.09872997
200	0x3d92cd30	0.07168043
201	0x3eb403c8	0.35159135
202	0x3cfce548	0.030871049
203	0x3e40af60	0.188169
204	0x3e2f808d	0.17138882
205	0x3e43be35	0.19115527
206	0xbdcf00c8	-0.10107571
207	0xbe54b79c	-0.20773166
208	0xbe4e62ae	-0.20154831
209	0x3e0eaf68	0.139341
210	0x3ea633ef	0.32461497
211	0xbe478502	-0.19484332
212	0x3e484a9c	0.19559711
213	0x3dc407db	0.09571811
214	0x3e5a1a51	0.21299101
215	0x3e9bba93	0.30415782
216	0xbcd4bf42	-0.025970105
217	0x3e8a2c69	0.26987007
218	0xbe2c4aa5	-0.1682535
219	0xbe05cb5f	-0.13065861
220	0x3d877f71	0.066161044
221	0x3d9f7f0f	0.077879064
222	0x3e48ac95	0.19597085
223	0xbd7cefd9	-0.061752174
224	0xbe91c242	-0.2846852
225	0xbe63a011	-0.22229029
226	0x3e6ea5dd	0.2330546
227	0xbe8d2185	-0.27564636
228	0x3daa99b1	0.083300956
229	0xbe9764e7	-0.2956917
230	0x3d9c6a63	0.07637479
231	0x3e360db4	0.17778665
232	0xbe8cff03	-0.27538309
233	0x3e87f88a	0.26556808
234	0xbd856b8e	-0.06514655
235	0xbe862ce0	-0.26206112
236	0xbe520e18	-0.20513189
237	0x3dadd6c6	0.084882304
238	0xbc2a0dd2	-0.010379272
239	0x3e8bdaf7	0.27315494
240	0x3e387417	0.18013035
241	0x3e7b688e	0.24551603
242	0x3dc0b3ff	0.094093315
243	0x3e472b46	0.19450101
244	0x3cee2b3e	0.029073354
245	0x3e2e8657	0.17043434
246	0xbe773129	-0.24139847
247	0xbd2e30b8	-0.04252693
248	0x3e27fa08	0.16403973
249	0xbc9862a8	-0.01860173
250	0x3d855ab8	0.06511444
251	0x3e9a7423	0.3016673
252	0x3db71a03	0.08940508
253	0xbd0b74db	-0.03404699
254	0x3d7e2fdb	0.062057357
255	0x3e937aab	0.28804526

encoder.bias f4 [44]
0	0x3dff49e1	0.12465263
1	0xbe4b3436	-0.19844136
2	0x3e193afd	0.14963908
3	0xbda482c3	-0.08032753
4	0x3cd2d1cc	0.025734805
5	0x3d98d8a3	0.07463195
6	0xbead5044	-0.338503
7	0xbe632736	-0.22182927
8	0xbca4b088	-0.020103708
9	0x3dc16fdd	0.09445164
10	0xbe2d34e5	-0.16914709
11	0xbe0ab487	-0.13545428
12	0x3cb3939d	0.021920973
13	0x3e37b8f5	0.1794165
14	0x3e566439	0.2093667
15	0xbea63247	-0.32460234
16	0xbdad4a05	-0.08461384
17	0x3e366b81	0.17814447
18	0x3dc3dc9c	0.09563562
19	0x3e4f72bf	0.20258616
20	0xbd656fb8	-0.056014746
21	0xbe68e43f	-0.22743319
22	0xbea48ddd	-0.32139483
23	0x3dd07b55	0.10179774
24	0xbd607568	-0.054799467
25	0xbe2c76a2	-0.1684213
26	0xbe1f5851	-0.15561034
27	0xbe529486	-0.2056447
28	0x3ea4d002	0.32189947
29	0xbdd79e5e	-0.10528253
30	0xbddc16bd	-0.107465245
31	0xbdbb94b7	-0.091592245
32	0x3eb1e5a1	0.34745505
33	0xbe39101e	-0.18072554
34	0xbdefdfc5	-0.117126025
35	0x3d86481c	0.065567225
36	0xbe4bc507	-0.19899379
37	0xbcb8bca7	-0.022550894
38	0xbe489d88	-0.19591343
39	0x3cb61928	0.022228792
40	0xbeac64d7	-0.33670685
41	0xbc3ca076	-0.011512866
42	0xbe80a473	-0.25125465
43	0x3ec66258	0.38746905

transformer_encoder.layers.0.self_attn.in_proj_weight f4 [132, 44]
0	0xbe33ad72	-0.17546633
1	0xbe374bb9	-0.1789998
2	0x3d5354bf	0.051594492
3	0x3e2c26c7	0.16811667
4	0xbe2219b6	-0.1583012
5	0x3e157c4c	0.14598197
6	0xbdb26fc9	-0.087127276
7	0xbde061ac	-0.109561294
8	0x3da24214	0.0792276
9	0x3d0f2328	0.034945637
10	0x3e05c2e3	0.13062625
11	0x3e03ec2f	0.12883066
12	0xbd5e1932	-0.054223247
13	0x3e24309a	0.16034165
14	0xbdf5fa3d	-0.1201062
15	0x3d10e1d5	0.03537162
16	0xbcb3e9a5	-0.021961996
17	0xbd996206	-0.074893996
18	0x3cd86307	0.026414407
19	0xbe1a7a41	-0.15085699
20	0x3e067d03	0.13133626
21	0x3dadfb33	0.08495178
22	0xbd2bd5ce	-0.041951947
23	0x3e0f678a	0.14004341
24	0xbac42aa6	-0.0014966324
25	0xbdb60a00	-0.08888626
26	0xbe121e7a	-0.14269438
27	0xbda434be	-0.08017872
28	0x3d345882	0.04402972
29	0xbdc21b31	-0.094778426
30	0x3df1303f	0.1177678
31	0xbc75050e	-0.014954818
32	0x3dbc66e5	0.09199313
33	0xbd2f01f4	-0.042726472
34	0xbe0f13bd	-0.13972373
35	0x3dc967aa	0.098342255
36	0xbd8530c3	-0.06503441
37	0x3dcc717f	0.09982585
38	0x3e233d62	0.15941384
39	0xbda074b7	-0.078347616
40	0x3d892f65	0.06698493
41	0x3e0661e1	0.13123275
42	0x3e0d91ae	0.13825104
43	0x3e1262e8	0.14295542
44	0xbcf4c5cb	-0.029879471
45	0x3e08e301	0.13367845
46	0x3d9b2de3	0.075771116
47	0xbd33fda8	-0.043943077
48	0xbba89233	-0.0051443814
49	0x3df72ea1	0.12069441
50	0xbdf4b8b6	-0.11949293
51	0xbdca4f40	-0.09878397
52	0x3d913079	0.070893236
53	0x3e217751	0.15768172
54	0xbcc3109d	-0.023811633
55	0x3cb7fd51	0.022459658
56	0xbdd65895	-0.104661144
57	0x3e1bbdc6	0.15209112
58	0x3dc8fb65	0.09813575
59	0x3e245416	0.16047701
60	0xbe2e7b81	-0.170393
61	0xbe0ce4f7	-0.13759218
62	0x3d8ec25f	0.06970667
63	0x3dc158ff	0.09440803
64	0xbc4f8e29	-0.012668171
65	0x3dc22e12	0.094814435
66	0xbe01350a	-0.12617889
67	0x3e2b04e5	0.16701086
68	0x3b5d2208	0.0033742208
69	0xbbd0939c	-0.0063652527
70	0x3d626a99	0.05527744
71	0x3e1579c2	0.14597228
72	0xbd3e5e62	-0.04647673
73	0xbdb4082a	-0.0879062
74	0x3ab3ce58	0.0013718111
75	0xba9be1a9	-0.0011892813
76	0x3da1be1e	0.0789759
77	0xbe0c2753	-0.13686876
78	0xbc3a0884	-0.011354569
79	0xbcd94958	-0.02652423
80	0xbdbf0855	-0.09327761
81	0xbe3ea0f7	-0.1861609
82	0x3d945e2c	0.07244524
83	0x3d80f926	0.06297521
84	0xbd9dfa0f	-0.077137105
85	0xbd9e6f86	-0.07736115
86	0x3e40a930	0.1881454
87	0x3da27110	0.07931721
88	0x3cdf030f	0.027223138
89	0xbe329758	-0.17440546
90	0x3dd943db	0.106086455
91	0x3be06616	0.006848107
92	0xbc52498d	-0.012834919
93	0xbe1d1c7f	-0.15342902
94	0x3d8fede1	0.07027794
95	0x3da316ea	0.07963355
96	0xbdceccad	-0.100976326
97	0x3e30bd06	0.17259607
98	0xbdd3d596	-0.10343473
99	0x3d83b288	0.064305365
100	0x3cd987db	0.026554039
101	0x3de0ee0f	0.10982906
102	0xbd4ff31c	-0.050768957
103	0x3dcb05db	0.09913226
104	0xbd90e58e	-0.07075034
105	0xbe30fa73	-0.17283039
106	0x3d8c5660	0.06852412
107	0x3d8a7d48	0.06762177
108	0xbdc24fb3	-0.09487858
109	0x3e30d410	0.17268395
110	0x3d580ca0	0.052746415
111	0x3c947448	0.018121853
112	0x3d1c40f8	0.038147897
113	0x3e29a76f	0.16567777
114	0x3d93565f	0.07194208
115	0xbe051feb	-0.13000457
116	0xbe31d8f3	-0.17367916
117	0xbe08ce2d	-0.133599
118	0x3e29473d	0.16531081
119	0x3e00732b	0.12543933
120	0xbb4799da	-0.0030456693
121	0xbda17a5c	-0.07884666
122	0x3deb0938	0.11476368
123	0x3e06ef1f	0.13177155
124	0x3c10ef46	0.00884611
125	0xbe3753be	-0.17903039
126	0xbde67def	-0.11254489
127	0xbe1edd5a	-0.15514126
128	0x3bcba473	0.0062146722
129	0xbdc42354	-0.09577051
130	0x3caa3429	0.020776825
131	0x3bbad9dd	0.005702241
132	0xbe2a1c5c	-0.1661238
133	0x3e0548d3	0.13016061
134	0x3e1f4b52	0.15556076
135	0xbce30e0e	-0.027716663
136	0xbd962513	-0.0733129
137	0x3d74ad7f	0.05973577
138	0x3e27b96c	0.16379327
139	0x3e22f68a	0.1591436
140	0x3dae3da8	0.08507854
141	0x3dc8e63d	0.098095395
142	0xbc9cd719	-0.019145535
143	0x3e2dd4aa	0.16975656
144	0xbb4f24e9	-0.0031607694
145	0xbe38c064	-0.18042141
146	0xbdd82de4	-0.10555628
147	0x3e0d81c8	0.13819039
148	0x3e2be9a9	0.16788353
149	0xbe16b3ee	-0.14717075
150	0x3dba433b	0.090948544
151	0xbe1897da	-0.14901677
152	0xbc2e8fea	-0.010654429
153	0x3c85085e	0.016239341
154	0x3e1fc2aa	0.15601602
155	0x3d4d5cc3	0.050137293
156	0xbe26f47f	-0.16304205
157	0xbe02ea45	-0.12784679
158	0x3b37f858	0.0028071608
159	0x3e312b54	0.17301685
160	0xbd10e8fc	-0.03537844
161	0xbc1785a1	-0.009248168
162	0x3d386786	0.045020603
163	0x3d884326	0.066534325
164	0xbe0cce35	-0.13750537
165	0x3d27d40f	0.04097372
166	0x3d061e0e	0.032743506
167	0xbd833786	-0.06407075
168	0x3e3b1d82	0.18272975
169	0x3d2ed41c	0.042682752
170	0xbe113b3e	-0.14182755
171	0x3b0109a9	0.0019689596
172	0xbceedc25	-0.029157707
173	0xbd471cdf	-0.048611518
174	0x3e218ef5	0.1577719
175	0xbe303e6a	-0.17211309
176	0xbe10ef17	-0.14153706
177	0xbc174909	-0.0092337215
178	0x3bcee51f	0.0063139345
179	0xbd481712	-0.048850127
180	0xbdd2e732	-0.10298003
181	0xbc5fa12a	-0.013649264
182	0xbda31c70	-0.079644084
183	0xbe277473	-0.16353016
184	0x3dd85ad5	0.105642
185	0x3e21be5b	0.15795271
186	0xbe212a84	-0.15738875
187	0xbc747839	-0.014921241
188	0xbd45d6d8	-0.048300594
189	0x3b7d18aa	0.0038619437
190	0x3c492af5	0.012278308
191	0xbe1fefea	-0.15618864
192	0xbe0bd21b	-0.13654368
193	0xbd1298a0	-0.035790086
194	0x3e0c7d54	0.13719684
195	0xbd35f57f	-0.044423576
196	0xbe1f862f	-0.1557853
197	0xbe2f26bb	-0.17104618
198	0x3d1825ed	0.037145544
199	0x3ddfab77	0.10921376
200	0x3e220edf	0.15825985
201	0x3d9c5125	0.076326646
202	0xbb43bada	-0.002986601
203	0xbd962259	-0.0733077
204	0x3cc33cba	0.023832668
205	0x3c8c1ce1	0.017103614
206	0x3e20e086	0.15710649
207	0x3dc90aa5	0.098164834
208	0xbd6c6ffc	-0.057723984
209	0xbd0c43ba	-0.034244277
210	0xbe0fcc93	-0.14042883
211	0x3df82fc1	0.12118483
212	0xbd8e289b	-0.06941339
213	0x3de8854d	0.1135355
214	0xbe210fd0	-0.15728688
215	0xbd87c40d	-0.066291906
216	0xbda47bdf	-0.08031439
217	0x3ccc2fb3	0.024925089
218	0x3dd953a2	0.10611655
219	0x3d34c709	0.044135127
220	0x3decf200	0.11569595
221	0xbd5f3083	-0.054489624
222	0x3c619cb7	0.013770274
223	0x3e11b605	0.14229591
224	0xbca8c613	-0.020602262
225	0xb91f6bed	-0.00015203627
226	0x3dfa591f	0.1222403
227	0xbd38559d	-0.045003522
228	0xbd80a7f3	-0.06282034
229	0xbd5b9059	-0.053604458
230	0xbe3e6a2b	-0.18595187
231	0x3e18f199	0.14935912
232	0xbe2ac2f7	-0.16675936
233	0x3c94363b	0.018092265
234	0xbd65dffc	-0.05612181
235	0x3d6db8f5	0.058037717
236	0x3d6f5cee	0.058438234
237	0xbde9e27f	-0.11420154
238	0xbdf73aa0	-0.12071729
239	0xbdb8fcf7	-0.09032624
240	0xbd562176	-0.052278005
241	0xbe28f16d	-0.16498347
242	0xbe03a2e4	-0.12855107
243	0x3e32b04d	0.17450066
244	0xbe008b3c	-0.12553114
245	0xbc469ab1	-0.012121842
246	0xbd492970	-0.049111784
247	0xbe304078	-0.17212093
248	0xbe16ca0b	-0.14725511
249	0xbd819592	-0.063273564
250	0x3dfc21b3	0.12311115
251	0x3d5d6e4f	0.054060277
252	0xbc6413f1	-0.01392077
253	0x3d296e5e	0.04136502
254	0xbe2e6e95	-0.17034371
255	0x3cf51583	0.029917484

transformer_encoder.layers.0.self_attn.in_proj_bias f4 [132]
0	0x3b3b9627	0.0028623433
1	0x3b1ba0ae	0.0023746896
2	0x3b6d69b7	0.003622634
3	0x3b9bf22e	0.0047590947
4	0x3bd8849c	0.006607605
5	0xbbb857e4	-0.0056257118
6	0x3c334794	0.0109423585
7	0x3ca620ca	0.020279307
8	0x3a3e5a41	0.00072613737
9	0xbbe5eff3	-0.0070171296
10	0x3b9c1d43	0.0047642305
11	0xbb277bd7	-0.0025555992
12	0xbb842380	-0.0040325522
13	0x3c5b55bd	0.013387141
14	0xbc1108c6	-0.008852189
15	0x3bf68f99	0.0075244424
16	0x3a46557e	0.000756584
17	0x3bb0a3e3	0.0053906306
18	0xbbd34c70	-0.006448321
19	0xbbc8417d	-0.0061113224
20	0xba3d0eeb	-0.0007212001
21	0x3ae6fc33	0.0017622769
22	0x3a75917d	0.0009367688
23	0x3b0ede7d	0.0021800094
24	0x3b9d520f	0.004801042
25	0xbc3f4fa9	-0.011676707
26	0xbbf0f089	-0.007352893
27	0xb78fdf42	-1.7150891e-05
28	0x3b4c4ca3	0.0031173609
29	0xbbeab482	-0.0071626315
30	0xbbd87415	-0.006605635
31	0x3c7ec53b	0.015549953
32	0x3bd9fc97	0.0066524255
33	0xbb9cc3d5	-0.004784087
34	0xbc18eb91	-0.009333507
35	0x3ae7ab9d	0.0017675046
36	0xbbb7c103	-0.0056077256
37	0xbbcd256e	-0.0062605655
38	0x3bcec5a2	0.0063101808
39	0x3ce2ad23	0.027670449
40	0x3aa49404	0.0012556319
41	0xbb1f0d0a	-0.0024269246
42	0x3c768a3d	0.015047607
43	0x3bc30d5a	0.0059525194
44	0xbc9e181d	-0.019298607
45	0xbcbd0da5	-0.023077795
46	0xbd11071f	-0.03540718
47	0x3d0e0c5e	0.034679763
48	0x3d2a8a97	0.041636076
49	0x3d2aeecc	0.04173164
50	0xbd3c282e	-0.045936756
51	0xbd1e8bb7	-0.03870746
52	0xbb187588	-0.0023263413
53	0xbd070524	-0.032963887
54	0xbc812de4	-0.015768953
55	0xba16a24f	-0.0005746232
56	0x3ac62b8f	0.0015119183
57	0x3b808d0c	0.003923064
58	0x3b120658	0.0022281613
59	0x3b81f31c	0.0039657485
60	0x3ad31a17	0.0016105798
61	0xbb256261	-0.002523564
62	0x3c2bdace	0.010489179
63	0xbaf83998	-0.0018938063
64	0x3bd0414c	0.0063554402
65	0xbbd4becd	-0.006492472
66	0x3c30bc0b	0.01078702
67	0x3ca4674d	0.020068789
68	0xbd1bf0b7	-0.03807136
69	0x3d85e18c	0.0653716
70	0x3da89353	0.08231225
71	0xbd4d5b76	-0.050136052
72	0xbd363092	-0.044479914
73	0x3d5eac62	0.054363616
74	0xbd95543b	-0.07291456
75	0x3cb67c48	0.022276059
76	0xbd14c64f	-0.036321934
77	0xbb748eda	-0.0037316591
78	0x3c4aae13	0.012370604
79	0xbb833942	-0.0040046284
80	0xbc2ca8c5	-0.010538285
81	0x3c821cef	0.015882937
82	0x3ad013dd	0.001587506
83	0xbbe612c0	-0.007021278
84	0x3b35d42d	0.0027744875
85	0xbc9112ef	-0.017709224
86	0xbc93701a	-0.01799779
87	0x3c61c39d	0.013779548
88	0x3c4730d3	0.012157637
89	0xbb8546bf	-0.0040672715
90	0xbd3ecfb0	-0.046584785
91	0x3d878e99	0.06618995
92	0xbcfc075f	-0.030765234
93	0x3d0bd7ad	0.03414123
94	0x3be7e2fe	0.00707662
95	0xbd173f76	-0.036925755
96	0xbb53fdca	-0.0032347315
97	0x3cb749dc	0.022374086
98	0xbce6aa6a	-0.028157432
99	0xbda1eed0	-0.07906878
100	0x3a988b48	0.0011638189
101	0x3d1fb15d	0.038987506
102	0xbd3a0f79	-0.045424912
103	0x3d06ff27	0.032958176
104	0xbd22a25e	-0.039705627
105	0x3d01489d	0.03156339
106	0x3cc83f77	0.024444325
107	0xbd6b6eb8	-0.057478637
108	0x3c8f223c	0.017472379
109	0x3d5238ba	0.05132363
110	0xbd21c45e	-0.03949391
111	0x3c5eca03	0.013597968
112	0x3d1374b4	0.03599997
113	0x3c700c09	0.014651307
114	0x3d32c821	0.04364789
115	0xbd3301b8	-0.04370281
116	0x3caadf41	0.020858409
117	0xbcd13051	-0.025535734
118	0x3c31caf4	0.01085161
119	0x3d11cf0d	0.03559785
120	0x3d3e2a98	0.04642734
121	0xbb9b0900	-0.0047312975
122	0xbc856a14	-0.016285934
123	0xb9376825	-0.00017491037
124	0x3b1fd7b2	0.002439004
125	0x3ba69b5f	0.0050844396
126	0x3cb444a9	0.022005396
127	0x3d935f8b	0.07195958
128	0x3d2253d0	0.03963071
129	0xbca347ab	-0.019931635
130	0xbcb51929	-0.022106724
131	0xbcc662ed	-0.024217093

transformer_encoder.layers.0.self_attn.out_proj.weight f4 [44, 44]
0	0x3cb09d01	0.02155924
1	0xbe176ed5	-0.14788373
2	0x3aebb00a	0.0017981541
3	0x3c65e059	0.014030539
4	0x3e6da834	0.23208696
5	0xbd8e203d	-0.06939743
6	0x3d47c92f	0.048775848
7	0xbc156fc1	-0.0091208825
8	0xbce4a8e0	-0.027912557
9	0x3a9ac052	0.0011806583
10	0x3e082265	0.1329437
11	0xbe022e82	-0.12713054
12	0x3e173648	0.147668
13	0x3dc6390c	0.096788496
14	0x3e20ef69	0.15716328
15	0x3d581254	0.052751854
16	0x3d4f250b	0.050572436
17	0xbd1ee2ad	-0.038790394
18	0x3c53cbd0	0.012927011
19	0xbdc9a34e	-0.09845601
20	0xbe0b6aa3	-0.13614897
21	0xbd435ac0	-0.047693968
22	0x3df14b82	0.1178198
23	0xbe23051a	-0.15919915
24	0x3b1456c4	0.0022634724
25	0x3ddf3c77	0.10900205
26	0xbdeb277f	-0.11482143
27	0xbd2f3a52	-0.042780228
28	0xbc29bbde	-0.010359732
29	0x3e4e6e9a	0.20159379
30	0x3dc0bc03	0.094108604
31	0xbd6e7f9c	-0.058227167
32	0x3def6324	0.116888314
33	0x3e9801fa	0.29689008
34	0xbc507f55	-0.012725671
35	0xbe704edb	-0.23467581
36	0xbbdb7f66	-0.0066985367
37	0xbd5c69b2	-0.053811736
38	0x3e2f3349	0.17109407
39	0xbbf58fb8	-0.0074939393
40	0xbc7d4bfd	-0.015460012
41	0x3df24a40	0.11830568
42	0x3cbaffcb	0.02282705
43	0x3e02503f	0.12725924
44	0xbd7c687c	-0.06162308
45	0x3daeecaf	0.085412376
46	0x3d11cb1f	0.035594102
47	0xbe3c3ba6	-0.18382129
48	0xbcc145e1	-0.023592891
49	0xbe50fb8a	-0.20408455
50	0x3dda86cc	0.10670242
51	0xbe2d5d96	-0.16930231
52	0x3c9e9cec	0.019361936
53	0x3d2e5267	0.042559054
54	0x3e0ac447	0.13551436
55	0xbdc87312	-0.09787573
56	0xbe03c0e6	-0.12866554
57	0xbc13adcf	-0.009013607
58	0xbe29ed54	-0.1659444
59	0xbd1ddac3	-0.038538706
60	0x3c9500b4	0.018188812
61	0xbdcabbad	-0.098990776
62	0xbd7ab446	-0.06120708
63	0xbd8bdfd2	-0.068298
64	0xbdbcca81	-0.09218312
65	0xbd9dc32c	-0.07703242
66	0xbdc10afc	-0.09425923
67	0xbe19efd0	-0.15032887
68	0xbdda4b9b	-0.10658952
69	0xbe351f38	-0.1768769
70	0xbd4558be	-0.048180334
71	0xbcad9b45	-0.021192202
72	0xbc46ba1f	-0.012129336
73	0x3d987993	0.074450634
74	0x3dedc444	0.116097
75	0x3e130e78	0.14360988
76	0xbe3a0e62	-0.18169549
77	0x3bdced6e	0.006742171
78	0xbd9806b3	-0.07423153
79	0xbe478cc6	-0.19487295
80	0x3bd91dd7	0.0066258716
81	0xbe48dc5b	-0.19615309
82	0x3df6d2cd	0.12051926
83	0xbcc9f32e	-0.02465209
84	0xbd7f618a	-0.06234888
85	0x3dff43da	0.124641135
86	0xbe23337a	-0.15937606
87	0x3e18566c	0.14876717
88	0xbd79afb2	-0.06095857
89	0x3d41aa18	0.047281355
90	0xbd80e8a1	-0.062943704
91	0x3b09965a	0.0020994158
92	0x3c978261	0.018494787
93	0x3c1bfd13	0.009520787
94	0xbb961850	-0.004580535
95	0xbd7cf42d	-0.0617563
96	0x3daa8575	0.08326236
97	0xbdac2adc	-0.08406612
98	0xbe396480	-0.18104744
99	0x3daea9a8	0.08528453
100	0x3e3150dc	0.17316002
101	0xbd9d6086	-0.07684426
102	0xbd98f9d5	-0.07469527
103	0xbda99723	-0.0828078
104	0xbd94ddd1	-0.072688706
105	0x3e03b6af	0.12862657
106	0x3d873de3	0.06603601
107	0x3d799d06	0.060940765
108	0x3d85e950	0.065386415
109	0x3e08ffcf	0.13378833
110	0x3dccef91	0.10006631
111	0x3d0c3e11	0.03423888
112	0x3e339ebe	0.17541024
113	0xbd216aa3	-0.039408337
114	0x3d0f8517	0.035039034
115	0xbd7c1bd4	-0.061549976
116	0xbd06209a	-0.032745935
117	0x3e2084f8	0.15675724
118	0xbd04b31a	-0.032397367
119	0xbddec4e2	-0.10877396
120	0xbd84aa31	-0.06477774
121	0x3d1dbb99	0.038508985
122	0x3d47aaf2	0.04874701
123	0xbd0adc16	-0.033901297
124	0xbdade2bb	-0.08490511
125	0x3d2772f8	0.040881127
126	0x3e433786	0.1906415
127	0x3e4b44b3	0.19850425
128	0xbdae3427	-0.08506041
129	0x3e3d5cb8	0.184924
130	0x3d0a4f36	0.033766948
131	0x3d7f8756	0.062384926
132	0xbc0490f0	-0.008091196
133	0x3e018ce9	0.12651409
134	0x3cc9edcd	0.024649525
135	0x3d251857	0.040306415
136	0x3ca45eee	0.020064797
137	0xbe344a83	-0.17606549
138	0xbdbd78d9	-0.092515655
139	0xbe08b6af	-0.13350938
140	0x3e0e1190	0.13873887
141	0xbd2b698b	-0.0418487
142	0x3cdcb316	0.026940864
143	0x3d0f4c50	0.034984887
144	0x3dae7709	0.08518798
145	0xbd8263b1	-0.06366671
146	0x3dab65b6	0.08369009
147	0x3da8762a	0.08225663
148	0x3dbf78d5	0.09349219
149	0xbd331533	-0.04372139
150	0xbd3f4421	-0.046695832
151	0xbe0c382d	-0.13693304
152	0x3d5877d9	0.05284867
153	0x3caf1a71	0.021374913
154	0xbc681cfd	-0.014167068
155	0xbdbb3200	-0.09140396
156	0x3d3aad52	0.045575447
157	0xbe10101f	-0.1406865
158	0x3d544779	0.051825974
159	0x3d9791b5	0.07400838
160	0xbe234f69	-0.15948261
161	0x3ded7247	0.11594062
162	0x3d9ecf29	0.077543564
163	0xbdba676e	-0.09101759
164	0x3d81cc00	0.06337738
165	0x3dea13ef	0.11429583
166	0x3dc4e60c	0.096141905
167	0xbd0152be	-0.03157305
168	0xbd2ebde5	-0.042661566
169	0xbd9335fa	-0.071880296
170	0x3d151232	0.036394306
171	0xbc0e7786	-0.008695489
172	0xbd36fd9e	-0.044675462
173	0x3e0adb71	0.13560273
174	0xbd7d08e8	-0.06177607
175	0xbdad37fb	-0.08457943
176	0xbcc50ac3	-0.024052983
177	0x3d6c0f6c	0.057631895
178	0xbcd9c0b3	-0.026581144
179	0x3c1d8525	0.009614264
180	0xbca012e5	-0.01954026
181	0xbc9f7e1a	-0.01946931
182	0x3d500cc4	0.050793424
183	0xbc42223d	-0.011848983
184	0x3d49fe89	0.04931501
185	0xbd836698	-0.064160526
186	0xbcddc721	-0.027072491
187	0xbdbcfb33	-0.092276
188	0xbd6a84dd	-0.057255615
189	0x3e014bb8	0.1262654
190	0xbd0c07a0	-0.03418696
191	0x3da25b1e	0.079275355
192	0x3e17d34c	0.14826697
193	0x3d8f3dfb	0.06994244
194	0x3cc4c7cd	0.024021054
195	0xbdc8ad43	-0.09798672
196	0xbdc2cf2d	-0.09512172
197	0xbdc293b8	-0.09500831
198	0x3d2f3769	0.042777453
199	0xbd0778fe	-0.03307437
200	0x3deee46e	0.11664663
201	0xbce3d2d6	-0.027810495
202	0x3df3e230	0.11908376
203	0x3c6c287d	0.01441395
204	0x3e2749e1	0.16336776
205	0x3e31e454	0.17372257
206	0x3d0abdeb	0.033872526
207	0xbc71101c	-0.014713313
208	0xbe0e9198	-0.13922727
209	0x3e7344c7	0.23756705
210	0x3dbf7774	0.09348956
211	0xbe0e322a	-0.13886324
212	0x3d8297b9	0.06376595
213	0x3cdb0033	0.026733493
214	0x3d678bfb	0.05652998
215	0x3e227a0d	0.15866871
216	0xbdb1614a	-0.086611345
217	0x3e28cb7c	0.16483873
218	0xbe3ba3b7	-0.18324171
219	0x3e235a4c	0.15952414
220	0x3b48571c	0.00305695
221	0xbb941edd	-0.0045202808
222	0x3bebaccc	0.00719223
223	0x3d68ac32	0.056804843
224	0x3d41cba8	0.047313362
225	0xbda60485	-0.08106331
226	0xbd43e429	-0.047825012
227	0xbd94e882	-0.0727091
228	0x3d45f2bd	0.048327196
229	0xbe05de6a	-0.13073125
230	0x3ddf5bc3	0.10906174
231	0x3e0565a4	0.13027054
232	0x3dccd635	0.10001794
233	0x3dbc9e4a	0.09209879
234	0x3db27279	0.0871324
235	0xbdc25952	-0.09489693
236	0x3e1e7da9	0.15477623
237	0xbda513dc	-0.080604285
238	0x3da164fd	0.0788059
239	0xbde6630d	-0.11249361
240	0x3e034863	0.12820582
241	0x3dfe6eae	0.12423454
242	0x3e230910	0.15921426
243	0xbcff56c2	-0.031169299
244	0xbd83285f	-0.064041846
245	0xbe360f3e	-0.17779252
246	0xbda72639	-0.08161587
247	0xbdc4fbeb	-0.09618362
248	0xbe0a22ee	-0.13489887
249	0x3e011f74	0.12609655
250	0xbcfc2ef7	-0.030784113
251	0x3d969acb	0.07353743
252	0xbe315eec	-0.17321366
253	0x3e9505af	0.291059
254	0x3d05abeb	0.032634657
255	0xbe680c85	-0.22661026

transformer_encoder.layers.0.self_attn.out_proj.bias f4 [44]
0	0xbe9abbeb	-0.30221495
1	0x3e419a94	0.18906623
2	0x3e6ff864	0.23434597
3	0xbde1559c	-0.11002657
4	0x3d80f51b	0.0629675
5	0xbe704f77	-0.23467813
6	0xbddfeb06	-0.10933499
7	0xbeb746d0	-0.35796213
8	0xbe874caf	-0.26425692
9	0x3ec0e1f6	0.37672395
10	0xbd2104a0	-0.03931105
11	0x3e0c3bea	0.1369473
12	0x3e35f1ea	0.17768064
13	0xbe44af9e	-0.19207618
14	0xbdadd8a8	-0.084885895
15	0x3de9a406	0.11408238
16	0x3e2357cb	0.15951459
17	0x3d9fa0e2	0.07794358
18	0xbe6f91cd	-0.23395462
19	0xbe95f0d8	-0.29285312
20	0x3bd9a1db	0.006641609
21	0xbdf591ed	-0.11990724
22	0x3d5bfa79	0.053705666
23	0xbeb391bd	-0.35072127
24	0x3e64ee7a	0.22356597
25	0x3e05ccd4	0.13066417
26	0xbeb8420a	-0.35987884
27	0x3e99019a	0.29884034
28	0x3db3f0f9	0.08786196
29	0x3e8b3e2e	0.27195877
30	0xbde341b5	-0.11096517
31	0x3eaaa114	0.33326018
32	0x3d3f9d68	0.046780974
33	0xbea737b4	-0.32659686
34	0xbeb3bdf0	-0.35105848
35	0xbdc6f10a	-0.09713943
36	0xbe5ee3f3	-0.21766643
37	0x3edb74bd	0.42862502
38	0xbe8ce0d8	-0.27515292
39	0x3ebd3f1e	0.36962217
40	0xbea7efb7	-0.32800075
41	0xbe0a92fa	-0.1353263
42	0xbe9ab101	-0.30213168
43	0x3eb09ffb	0.34497055

transformer_encoder.layers.0.linear1.weight f4 [298, 44]
0	0xbd22b6f6	-0.039725266
1	0xb9c33cbd	-0.00037238552
2	0xbd96ce4e	-0.07363568
3	0xbdaa513c	-0.083162755
4	0x3d64345a	0.05571399
5	0x3db01412	0.08597578
6	0xbd69324e	-0.05693274
7	0xbd721f0c	-0.05911164
8	0xbdfc0dc7	-0.12307315
9	0xbdd2f2bd	-0.10300205
10	0x3e1498e4	0.14511448
11	0x3d059e6c	0.032621786
12	0x3dfd054d	0.12354527
13	0x3dc28661	0.09498287
14	0xbda64683	-0.08118918
15	0xbc274f32	-0.010211753
16	0xbd178f1a	-0.037001707
17	0x3dfbd648	0.1229673
18	0xbe18357b	-0.14864151
19	0x3d56d7c2	0.052451856
20	0xbd716322	-0.05893243
21	0x3e04d03e	0.12970063
22	0xbe16faad	-0.14744063
23	0x3cc51918	0.024059817
24	0xbdb3f68f	-0.08787262
25	0xbdf05c1a	-0.11736317
26	0x3d749fdf	0.059722777
27	0x3c8485ab	0.01617702
28	0xbdfa7ce4	-0.12230852
29	0x3dc9b7ea	0.09849532
30	0x3d26c91e	0.040719144
31	0x3e1223bb	0.14271443
32	0xbe1d838a	-0.1538221
33	0xbe0f09ae	-0.13968536
34	0x3c712b08	0.014719732
35	0x3bce685e	0.0062990626
36	0x3e181636	0.14852223
37	0x3d8d06ea	0.068860844
38	0x3d6aaaf7	0.05729195
39	0x3cab0e58	0.020880863
40	0xbd693a2e	-0.05694025
41	0x3e0f44e9	0.13991131
42	0x3e44b076	0.1920794
43	0xbe1cea6c	-0.153238
44	0xbd05ca74	-0.032663777
45	0x3de19812	0.11015333
46	0xbe2425c3	-0.1603003
47	0xbd288b45	-0.041148443
48	0x3e1cffff	0.1533203
49	0xbdf652a5	-0.12027482
50	0xbe311b05	-0.17295463
51	0x3d358850	0.04431945
52	0x3d045e49	0.03231648
53	0xbda75230	-0.08169973
54	0xbd1da27a	-0.038485028
55	0xbdb15263	-0.08658292
56	0x3ddf50c5	0.109040774
57	0xbd9e7923	-0.07737949
58	0xbda1df0b	-0.0790387
59	0x3dca4bb0	0.098777175
60	0x3c3c8d70	0.011508331
61	0x3d54ead2	0.051981755
62	0xbc75beea	-0.014999131
63	0xbc4bf846	-0.01244933
64	0x3e473438	0.19453514
65	0x3dd0f89b	0.10203668
66	0xbd1b3634	-0.03789349
67	0xbde9e56c	-0.11420712
68	0x3c62d2f2	0.013844239
69	0xbc990d78	-0.01868318
70	0x3dfc90e9	0.12332327
71	0xbdab3c4e	-0.083611116
72	0x3e0d6a67	0.1381012
73	0x3de0a5e8	0.10969144
74	0x3e2daf35	0.16961367
75	0xbd827c56	-0.063713714
76	0x3ca3201d	0.019912774
77	0xbd4e0ff0	-0.050308168
78	0x3db9b5b2	0.09067859
79	0x3e41196f	0.18857358
80	0x3c91d82f	0.01780328
81	0x3dc8c100	0.09802437
82	0xbd4a1ed2	-0.0493458
83	0x3d86b9af	0.06578385
84	0x3e0acc70	0.13554549
85	0x3d84ed6c	0.06490597
86	0x3cd2f6d9	0.025752472
87	0xbd53aa7a	-0.05167625
88	0xbdaed762	-0.08537175
89	0x3d0d3020	0.034469724
90	0x3ddfc643	0.10926487
91	0x3cf01492	0.029306684
92	0x3dea0a7b	0.1142778
93	0x3e4b219f	0.19837044
94	0xbdfeb0d3	-0.1243607
95	0x3dab084b	0.08351191
96	0x3e1424d1	0.1446717
97	0xbdcbe389	-0.09955508
98	0x3cc733b3	0.024316644
99	0xbd975091	-0.07388414
100	0xbde5a4bf	-0.112130634
101	0x3ba8b5aa	0.005148609
102	0xbde8d0ef	-0.11367976
103	0xbe357471	-0.177202
104	0x3e01542d	0.12629767
105	0x3d12c375	0.035830934
106	0x3d6e66b7	0.058203425
107	0xbe12749a	-0.14302292
108	0xbe0d3d67	-0.13792954
109	0xbda6a867	-0.08137589
110	0x3e084714	0.13308364
111	0x3d205628	0.039144665
112	0xbd913f93	-0.07092204
113	0x3caa1c2d	0.020765388
114	0x3c15075b	0.009095992
115	0x3dc98e7e	0.09841631
116	0xbc575fd0	-0.013145402
117	0x3de64479	0.11243529
118	0xbd2949ab	-0.04133002
119	0x3d4ca418	0.04996118
120	0xbd3000b8	-0.042969435
121	0x3d05bdad	0.032651592
122	0x3d9c12f1	0.076208
123	0xbe4ec3c2	-0.20191863
124	0x3db87e2e	0.09008442
125	0xbc8ed40b	-0.017435094
126	0x3d8b5a02	0.06804277
127	0x3ce1c904	0.027561672
128	0xbd26d712	-0.04073245
129	0xbd49c0ec	-0.04925625
130	0xbe00729d	-0.12543721
131	0x3c933d41	0.017973544
132	0xbdab774d	-0.08372364
133	0xbc776c1d	-0.01510146
134	0xbde99431	-0.114052184
135	0xbd91d3e6	-0.071204945
136	0x3ccd19ab	0.025036654
137	0xbd02561b	-0.031820398
138	0xbdcc949f	-0.09989285
139	0x3d83f130	0.06442487
140	0xbd2f0cee	-0.04273694
141	0x3d2f212d	0.04275625
142	0xbd7ed7a4	-0.06221737
143	0x3e11804f	0.14209102
144	0x3d117553	0.03551228
145	0x3d82dade	0.06389402
146	0x3ca039cf	0.019558815
147	0x3df62c74	0.120201975
148	0xbe3e45e5	-0.1858135
149	0xbdc2ad90	-0.09505761
150	0xbdbe2d38	-0.092859685
151	0x3d9c4fee	0.07632433
152	0xbd7e97bd	-0.062156428
153	0x3dd530c2	0.104096904
154	0x3e0d8b7b	0.13822739
155	0x3e0b731e	0.13618132
156	0xbccd88f3	-0.025089717
157	0xbe2b1e88	-0.16710865
158	0xbc61f0dd	-0.013790336
159	0xbe243f1c	-0.160397
160	0xbdd196b9	-0.10233826
161	0x3d8982f6	0.06714432
162	0x3d6f7f0a	0.058470763
163	0xbc0a8c68	-0.008456327
164	0x3ca24a27	0.01981075
165	0xbc9d0fbe	-0.019172546
166	0x3d99cb2c	0.07509455
167	0x3d56556c	0.05232756
168	0xbe31e41a	-0.1737217
169	0xbc8adbc2	-0.016950492
170	0x3dfa7fea	0.12231429
171	0xbdb8a284	-0.090153724
172	0xbd823676	-0.06358044
173	0xbdb461e8	-0.08807737
174	0x3e2bbf5c	0.16772217
175	0x3dc4a6b0	0.096021056
176	0xbe174a3c	-0.14774412
177	0xbb0f3827	-0.0021853538
178	0x3ddc29fd	0.10750196
179	0x3d8d1b5a	0.068899825
180	0x3ba041fb	0.004890678
181	0xbca6364a	-0.020289559
182	0x3d98e70f	0.07465946
183	0x3e378962	0.17923501
184	0x3ca090c8	0.019600287
185	0x3c1dd6c3	0.009633723
186	0x3e0947e7	0.13406335
187	0xbca78cca	-0.020452876
188	0xbe4bc2c2	-0.19898513
189	0x3c888f60	0.016669929
190	0x3d298c9f	0.041393872
191	0x3e45244d	0.19252129
192	0x3e212c9d	0.15739675
193	0x3b26d5f2	0.0025457111
194	0xbd522684	-0.051306263
195	0x3d865103	0.065584205
196	0x3d2f2712	0.04276187
197	0x3db0c560	0.08631396
198	0xbdc9318f	-0.09823906
199	0xbd80ec12	-0.06295027
200	0x3d0926de	0.033484332
201	0xbe6a83c4	-0.22901827
202	0x3c582420	0.013192207
203	0x3cda6e1f	0.026663838
204	0xbe3d3743	-0.18478112
205	0x3ccfeaf2	0.025380585
206	0x3cffcbdf	0.031225143
207	0xbd55f6c4	-0.052237287
208	0xbdd719a7	-0.1050294
209	0x3d890bc9	0.06691701
210	0xbcc0024d	-0.023438597
211	0xbc07c2fc	-0.008286234
212	0x3e11f06d	0.14251871
213	0x3bec5092	0.007211753
214	0x3d8e0e7f	0.06936359
215	0x3d8178fb	0.06321903
216	0x3cd55d21	0.026045384
217	0xbcd826ae	-0.026385631
218	0x3cf9b3f7	0.030481322
219	0xbd7ba622	-0.061437733
220	0xbded09ac	-0.115741104
221	0xbd9db5f7	-0.07700723
222	0x3d6ec7cc	0.05829601
223	0x3c904e3d	0.017615432
224	0x3e523776	0.20528969
225	0xbdb7ef1f	-0.089811556
226	0x3e16680e	0.14688131
227	0xbb5deb6c	-0.0033862246
228	0xbd877b83	-0.06615355
229	0x3caefa1a	0.021359492
230	0xbd05f7af	-0.032706913
231	0x3df3c261	0.11902309
232	0x3d846298	0.06464118
233	0x3e0acf4a	0.13555637
234	0xbdc2a1a0	-0.09503484
235	0xbd7127bf	-0.058875795
236	0x3e389341	0.18024923
237	0xbe5183df	-0.20460461
238	0x3c76ce40	0.015063822
239	0xbcb2665d	-0.021777326
240	0xbd0bd24e	-0.03413611
241	0x3de7fb12	0.11327185
242	0xbc784fae	-0.015155716
243	0xbd99a25f	-0.07501673
244	0xbda0f151	-0.078585275
245	0xbdc59d86	-0.09649186
246	0xbddf3491	-0.10898698
247	0xbdb5e336	-0.08881228
248	0xbe64b357	-0.22334038
249	0xbcb65157	-0.022255583
250	0xbe207cd1	-0.15672614
251	0xbe482b1e	-0.19547698
252	0xbb8c63e4	-0.004284369
253	0x3b9cd108	0.0047856607
254	0xbcc533bb	-0.024072519
255	0xbdf286fe	-0.11842154

transformer_encoder.layers.0.linear1.bias f4 [298]
0	0xbc346fe6	-0.011013007
1	0xbd7ae94c	-0.061257645
2	0xbd040308	-0.032229453
3	0x3ddeb51d	0.10874388
4	0x3e18c927	0.14920484
5	0x3dbd0177	0.09228795
6	0x3d5adff6	0.053436242
7	0xbd462351	-0.048373524
8	0x3d801ac5	0.06255106
9	0x3dd4ed3a	0.1039681
10	0x3c8d7ba0	0.017270863
11	0x3e3b99d9	0.18320407
12	0x3da3ef23	0.08004596
13	0x3e2325a1	0.15932323
14	0xbc7d3d4b	-0.015456508
15	0xbd6daddf	-0.058027145
16	0x3e41c41a	0.18922463
17	0xbdf5d8eb	-0.120042644
18	0xbd6de3c6	-0.05807855
19	0xbd396f0e	-0.045271926
20	0xbc3ed489	-0.011647352
21	0xbd15e630	-0.036596477
22	0xbda472e6	-0.08029728
23	0x3e325179	0.17413892
24	0x3d8d7fd9	0.06909151
25	0x3d1733b5	0.036914546
26	0x3db2a62a	0.087230995
27	0x3da9f7f6	0.08299248
28	0x3d92fe47	0.07177406
29	0x3d5c6009	0.053802524
30	0x3dad29ce	0.08455239
31	0xbbb0ec82	-0.0053992877
32	0x3e075f54	0.13219959
33	0xbd10a3b3	-0.035312366
34	0x3e202555	0.15639241
35	0xbc641760	-0.013921589
36	0x3e17a0f3	0.14807491
37	0x3d623b6b	0.055232447
38	0x3dca3eb9	0.09875245
39	0x39929dab	0.00027964762
40	0xbd88bd1f	-0.06676697
41	0x3d8783d8	0.06616944
42	0x3d97e957	0.07417553
43	0xbd8064b5	-0.06269208
44	0x3de65056	0.112457916
45	0xbdbe3ad9	-0.09288568
46	0xbd2396a5	-0.039938588
47	0xbc65dca2	-0.014029654
48	0xbded0ddc	-0.11574909
49	0x3de90c1e	0.11379264
50	0xbbf2b0ce	-0.0074063307
51	0x3bbd3494	0.00577409
52	0x3b51a96d	0.0031991855
53	0xbc78400d	-0.01515199
54	0x3e1fd215	0.15607484
55	0xbddd9030	-0.10818517
56	0xbcdff07d	-0.027336353
57	0xbcd1b9a0	-0.025601208
58	0xbd563572	-0.052297063
59	0xbc6db5b3	-0.0145086525
60	0xbc08056b	-0.008302073
61	0xbcc6ccc9	-0.024267571
62	0xbd4696c8	-0.04848364
63	0x3da12db7	0.078700475
64	0x3e210676	0.15725121
65	0x3b7eebdd	0.003889791
66	0xbde8ef3c	-0.11373755
67	0x3c7cd266	0.015431022
68	0x3d69e0d5	0.057099182
69	0x3d230f07	0.039809253
70	0xbbb9c114	-0.0056687687
71	0x3db28950	0.087175965
72	0x3dac52c8	0.08414227
73	0x3e12480b	0.14285295
74	0xbd9350e8	-0.07193166
75	0x3d96e5dd	0.07368062
76	0xbd62f3ad	-0.05540817
77	0xbd7ada09	-0.06124309
78	0x3c8cd8e3	0.017193263
79	0x3d571767	0.052512553
80	0x3c025d57	0.007956824
81	0x3da28f6e	0.07937513
82	0x3e2791bb	0.16364186
83	0x3e406cc0	0.18791485
84	0xbb3c22c5	-0.0028707248
85	0xbdc335ce	-0.09531747
86	0x3d85faa5	0.06541947
87	0x3dbe0b67	0.092795186
88	0x3dea00ba	0.1142592
89	0xbd45e121	-0.048310403
90	0x3e21b76b	0.15792625
91	0x3e28cd42	0.1648455
92	0x3c35731d	0.011074808
93	0xbc1c5c6a	-0.009543518
94	0xbde12a0e	-0.109943494
95	0x3da8ad0d	0.08236132
96	0xbdce9285	-0.1008654
97	0x3e16a762	0.14712289
98	0xbd94a910	-0.072588086
99	0x3e0d6eaa	0.13811746
100	0xbcd743f2	-0.026277516
101	0x3dd1965b	0.10233756
102	0xbd4998f9	-0.04921815
103	0xbd38e976	-0.04514452
104	0xbd138ee9	-0.03602496
105	0x3db8c368	0.09021646
106	0x3d962faf	0.07333314
107	0x3dc4494e	0.09584294
108	0x3e1f0e1f	0.1553273
109	0xbdb9c957	-0.09071606
110	0x3c90b0e2	0.01766247
111	0xbbc469c9	-0.005994056
112	0xbd60b899	-0.054863546
113	0xbd6ea7fb	-0.058265667
114	0x3c7a1263	0.015263173
115	0xbdd98147	-0.10620361
116	0xbd5415b0	-0.051778495
117	0x3d5f4e0c	0.05451779
118	0xbdad0689	-0.08448512
119	0xbda2bedc	-0.0794656
120	0x3dc7b531	0.097513564
121	0x3d612998	0.054971308
122	0x3e0c3de6	0.13695487
123	0xbd75bca5	-0.05999436
124	0xbd0c1a6c	-0.034204885
125	0x3d902c15	0.07039658
126	0x3b77e8a2	0.003782787
127	0x3d32c6f8	0.043646783
128	0xbd8e4e04	-0.06948474
129	0xba0df44d	-0.0005415127
130	0x3dccefd2	0.100066796
131	0x3d160b98	0.03663215
132	0x3be161ba	0.006878105
133	0x3dfc3bca	0.12316091
134	0xbce4f0e6	-0.0279469
135	0x3e010c86	0.12602434
136	0xbdbe960e	-0.093059644
137	0x3d661c25	0.056179184
138	0x3e1af936	0.15134129
139	0x3ced9b97	0.029004855
140	0xbd3bbf46	-0.04583671
141	0x3dc6747a	0.09690185
142	0xbcecd2d0	-0.028909117
143	0xbcb6a868	-0.0222971
144	0x3c3bd8ff	0.01146531
145	0xbe139109	-0.14410795
146	0x3e0d750d	0.13814183
147	0xbd5f37d2	-0.054496594
148	0x3d44ca7d	0.04804467
149	0x3cd5c71e	0.026095923
150	0x3d0006ab	0.03125636
151	0x3e01548f	0.12629913
152	0x3d9f2ff6	0.0777282
153	0x3cba8b5b	0.022771528
154	0xbdc5c350	-0.096563935
155	0x3d95102c	0.07278475
156	0x3e17ff55	0.14843495
157	0x3d65d5eb	0.05611221
158	0xbd9d6e6d	-0.07687078
159	0x3ddb9be6	0.10723095
160	0x3bf5c78c	0.0075005945
161	0xbdb780b7	-0.08960097
162	0x3e43d487	0.19124041
163	0xbe0bdb55	-0.13657887
164	0x3cec7565	0.028864572
165	0x3c9d2660	0.019183338
166	0xbdd30c5d	-0.103050925
167	0x3d75f8b7	0.060051646
168	0xbca888a3	-0.020572966
169	0xbcaf653c	-0.021410577
170	0xbce7dafd	-0.028302664
171	0xbd38a50a	-0.04507927
172	0xbcd640d3	-0.026153957
173	0xbd933667	-0.07188111
174	0x3e0ee662	0.13955072
175	0x3e2b179a	0.16708222
176	0xbdf5cae1	-0.12001587
177	0x3da6870f	0.08131229
178	0xbd8053ca	-0.062659815
179	0x3e20e232	0.15711287
180	0x3d0c0e24	0.034193173
181	0x3c54420d	0.012955201
182	0xbd97288e	-0.07380782
183	0xbd983a84	-0.07433036
184	0x3d6214a8	0.05519548
185	0x3d2941e7	0.041322615
186	0x3c05e6a1	0.008172662
187	0x3dce53d2	0.10074581
188	0x3d681121	0.05665696
189	0xbdb65097	-0.0890209
190	0x3dd52afe	0.10408591
191	0x3e52defd	0.20592876
192	0x3cfefcb4	0.031126358
193	0xbd9fc5e6	-0.07801418
194	0xbe003e62	-0.12523797
195	0x3db62f99	0.08895797
196	0xbdd9c558	-0.106333435
197	0xbd9bf4e2	-0.07615067
198	0x3a7c5d3a	0.0009626929
199	0xbb3bc317	-0.0028650218
200	0x3d54b21b	0.051927667
201	0x3daf9510	0.08573353
202	0x3deaf154	0.11471811
203	0xbe15caa8	-0.14628088
204	0xbd1ed230	-0.03877467
205	0x3d18cb3c	0.037303194
206	0x3cac8328	0.021058634
207	0x3d0dc9de	0.034616344
208	0x3e18aba1	0.14909221
209	0xbdc3eea1	-0.09566999
210	0xbd669f93	-0.056304526
211	0x3d5ad835	0.053428847
212	0xbd9444ec	-0.07239708
213	0x3deee31d	0.11664412
214	0x3be9aba3	0.0071310564
215	0x3e23ef2a	0.16009203
216	0xbd068ddb	-0.032850128
217	0x3b8cc74e	0.00429622
218	0x3e268924	0.16263252
219	0x3d0338d2	0.03203661
220	0xbdbdb9d9	-0.09263963
221	0x3d603d26	0.054745816
222	0x3e11dcc5	0.14244373
223	0x3dd44239	0.103641935
224	0x3e3b373a	0.18282786
225	0xbd1b2660	-0.037878394
226	0xbcc63c86	-0.024198782
227	0xbdedfeb9	-0.1162085
228	0x3ba93340	0.00516358
229	0x3d8e8dd8	0.06960648
230	0x3e08ac9f	0.133471
231	0xbbafeddd	-0.0053689317
232	0x3de3ccd7	0.111230545
233	0x3e304fbd	0.17217918
234	0x3d8870f1	0.06662167
235	0xbdb62081	-0.088929184
236	0x3c913ee9	0.017730193
237	0x3c878b44	0.0165459
238	0x3cb6a434	0.022295095
239	0x3e0181a2	0.12647107
240	0xbd806890	-0.06269944
241	0xbdc2fc94	-0.09520832
242	0x3e26233c	0.16224378
243	0x3e09a288	0.13440907
244	0xbd792424	-0.060825482
245	0x3bf0247e	0.007328569
246	0x3e043211	0.12909724
247	0xbda916d9	-0.08256311
248	0xbb9cb9e8	-0.004782904
249	0xbd925f00	-0.07147026
250	0x3bd43c3e	0.006476908
251	0xbdaacaf2	-0.0833949
252	0xbb7c9541	-0.003854111
253	0x3de39773	0.11112871
254	0xbe0ad15f	-0.13556431
255	0xbe148604	-0.14504248

transformer_encoder.layers.0.linear2.weight f4 [44, 298]
0	0x3d5a43a4	0.053287163
1	0xba0b80f6	-0.0005321646
2	0x3d8c67d9	0.06855745
3	0x3db01a59	0.085987754
4	0x3e2027ab	0.15640132
5	0x3dc2a905	0.09504894
6	0xbdaf127a	-0.08548446
7	0xbd61294d	-0.054971028
8	0xbcc3d705	-0.02390624
9	0xbbcaffdc	-0.0061950516
10	0xbdb9312c	-0.09042582
11	0x3d18b80b	0.037284892
12	0xbd84140b	-0.064491354
13	0x3cdd56a2	0.027018849
14	0xbcb4fcd1	-0.022093209
15	0xbc9df3d5	-0.019281307
16	0xbc8e756b	-0.017389974
17	0x3cf72b95	0.030172149
18	0x3d443d6e	0.047910146
19	0x3d9b72ce	0.07590257
20	0x3c9f0844	0.019413121
21	0x3db95a1e	0.090503916
22	0xbd9232ad	-0.07138572
23	0xbd913d22	-0.07091738
24	0xb9ede5f6	-0.00045375497
25	0xbd6fb577	-0.058522668
26	0xbc5a20aa	-0.013313452
27	0xbd23ddb1	-0.040006343
28	0x3d6325ad	0.055455852
29	0xbb528c52	-0.0032127094
30	0x3b537927	0.0032268257
31	0x3b835fb2	0.0040092105
32	0x3ba8ce91	0.0051515778
33	0x3a2ce1d0	0.0006594928
34	0xbcedbc9b	-0.029020598
35	0x3c70967a	0.014684314
36	0xbe10b85d	-0.14132829
37	0x3bb5f48d	0.0055528344
38	0x3dc79396	0.09744947
39	0x3d21c147	0.039490964
40	0x3d4b2f66	0.04960575
41	0x3ca01670	0.019541949
42	0x3d138ea9	0.036024723
43	0x3d66e9bf	0.05637526
44	0x3d55a6e6	0.05216112
45	0xbd00ee71	-0.031477395
46	0x3c9f6c58	0.019460842
47	0x3d948cef	0.072534434
48	0x3ac2c4be	0.0014859659
49	0x3d283ae9	0.041071806
50	0x3db00713	0.08595099
51	0xbd74fbbf	-0.059810396
52	0xbd38ed42	-0.04514814
53	0xbcd1a651	-0.025592001
54	0xbbd4da75	-0.0064957687
55	0x3d4df33a	0.050280787
56	0xbd3ed46d	-0.046589304
57	0x3bb58874	0.005539948
58	0xbc7f92e7	-0.015598989
59	0x3b3720c8	0.0027943123
60	0xbd817942	-0.06321956
61	0x3d09ad09	0.033612285
62	0xbb71fcf0	-0.0036924444
63	0xbd52d7d1	-0.05147535
64	0x3c726c2b	0.014796297
65	0x3b60b91f	0.0034290028
66	0xbb3184ba	-0.0027087168
67	0xbd833776	-0.06407063
68	0xbd164291	-0.036684576
69	0x3d19d26e	0.037554197
70	0xbd371c25	-0.044704575
71	0x3cc98348	0.024598733
72	0xbc1ca0d8	-0.0095598325
73	0x3924b3f6	0.000157073
74	0x3b6f6a4a	0.003653186
75	0x3d5e7aeb	0.054316442
76	0x3c790284	0.015198354
77	0x3d0c6800	0.03427887
78	0x3d120cc3	0.0356567
79	0x3d6643c6	0.056216978
80	0x3d92b79e	0.071639284
81	0x3dc05fa6	0.093932435
82	0xbd2b59dd	-0.041833747
83	0xbd2cf23e	-0.042223208
84	0xbc6f0e57	-0.014590821
85	0xbcd748a6	-0.026279759
86	0xbdb97c60	-0.09056926
87	0x3d72f5fc	0.05931662
88	0xbd3682c7	-0.044558313
89	0xbd85a476	-0.06525509
90	0xbd335dc8	-0.04379061
91	0x3c21a583	0.009866121
92	0x3dc270db	0.09494182
93	0xbc9dcf9f	-0.01926404
94	0x3d9bd400	0.07608795
95	0xbd16f67d	-0.036856163
96	0xbb8a51e9	-0.00422119
97	0xbc74db47	-0.014944858
98	0xbb80d6a0	-0.0039318353
99	0x3da2f255	0.079563774
100	0xbd1ef6d5	-0.038809616
101	0xbcf9c5d9	-0.030489849
102	0x3ddae42a	0.1068805
103	0x3d52416b	0.05133192
104	0xbdb3f2bd	-0.08786533
105	0x3d98294c	0.07429752
106	0xbd5346ec	-0.05158131
107	0x3b49f887	0.00308183
108	0xbd7f02bf	-0.06225848
109	0xbd4206f8	-0.047369927
110	0x3d6757b4	0.056480125
111	0x3d235fdd	0.039886344
112	0x3d22b236	0.039720736
113	0x3ce4edea	0.027945478
114	0x3c3ac3f3	0.011399257
115	0xbd8fcb67	-0.07021218
116	0xbd1f0896	-0.038826548
117	0x3ce12abe	0.027486201
118	0xbdb8fb58	-0.09032315
119	0x3d139cb5	0.03603812
120	0x3c989f02	0.018630508
121	0x3d0f9a2e	0.035059147
122	0xbd49a98c	-0.049233958
123	0xbc39713d	-0.011318502
124	0x3d395a38	0.045252055
125	0x3d76f96b	0.060296457
126	0x3d954f8b	0.07290562
127	0xbd81a908	-0.06331068
128	0xbd0779c8	-0.033075124
129	0xbcf16f0a	-0.029471893
130	0x3d9a7139	0.07541127
131	0x3cf7bf05	0.030242452
132	0xbda0ff40	-0.07861185
133	0x3cc2e2a2	0.023789708
134	0x3d740b02	0.05958081
135	0x3c14bd30	0.009078309
136	0xbba29766	-0.0049618958
137	0x3cea23c1	0.028581502
138	0xbc060c01	-0.008181573
139	0x3d722a43	0.059122335
140	0x3d059470	0.032612264
141	0x3da6bc66	0.08141403
142	0xbcc49a0c	-0.023999237
143	0x3d932585	0.07184891
144	0xbd7f8080	-0.062378407
145	0xba980738	-0.0011598831
146	0xbc196ef4	-0.009364832
147	0xbc9ec5d9	-0.01938145
148	0xb9f1ca86	-0.00046117994
149	0x3ae29a4c	0.0017288416
150	0x3d33145c	0.043720588
151	0x3da1918f	0.07889091
152	0xbd28bb29	-0.041194115
153	0xbd4f18b1	-0.050560657
154	0x3c92a17f	0.017899273
155	0xbbe767bd	-0.007061927
156	0xbd5ab6ac	-0.053396866
157	0xbd818523	-0.06324222
158	0x3d918887	0.07106119
159	0x3d3b35df	0.045705672
160	0xbb8133c8	-0.0039429404
161	0x3d874c82	0.066063896
162	0xbd3a49d5	-0.045480568
163	0x3cad3a06	0.021145832
164	0xbcc32c84	-0.023824938
165	0xbd4269dd	-0.04746424
166	0x3d02b3bc	0.03190969
167	0xbbfb6c3a	-0.0076728137
168	0x3cdd002d	0.026977623
169	0x3d298efb	0.041396122
170	0xbdb0eb48	-0.08638626
171	0x3c40de6a	0.011771778
172	0xbc615934	-0.013754178
173	0xbcc43803	-0.02395249
174	0xbcb7cc2e	-0.022436228
175	0x3c445c70	0.011984929
176	0x3d91de2b	0.07122453
177	0x3ce7b5ec	0.02828499
178	0x3d5bd585	0.053670425
179	0xbd37d883	-0.044884216
180	0x3c8f71c3	0.0175103
181	0x3cb7c858	0.022434399
182	0x3c9b8de8	0.018988565
183	0x3dd947b2	0.10609378
184	0xbc96f496	-0.018427175
185	0x3da56fb7	0.080779485
186	0xbd210486	-0.039310955
187	0x3de38a08	0.11110312
188	0xbd4f66f5	-0.050635297
189	0x3d158f7a	0.036513783
190	0xbd85e963	-0.065386556
191	0x3d50e16b	0.050996225
192	0xbd46cee4	-0.04853715
193	0x3d17c8ac	0.03705661
194	0x3daba305	0.08380703
195	0x3ba72129	0.0051003885
196	0x3d8c5ae7	0.06853276
197	0x3d389f97	0.04507407
198	0x3d29dc31	0.041469757
199	0x3d133db2	0.03594751
200	0x3d9a9a52	0.075489655
201	0x3ce7fdb6	0.028319221
202	0x3d56b215	0.052415926
203	0xbdb0d231	-0.08633841
204	0x3dc60a20	0.096699
205	0xbd34eaf8	-0.044169396
206	0x3dc73cfd	0.097284295
207	0xbd0327d2	-0.032020397
208	0x3cd9fdf2	0.026610348
209	0xbd7eec4f	-0.06223708
210	0xbca2b533	-0.019861793
211	0xbd2ea4f3	-0.042637777
212	0x3cd92240	0.02650559
213	0x3c829f81	0.015945198
214	0xbce805d2	-0.028323088
215	0x3c9cec39	0.019155608
216	0xbc30bf38	-0.010787778
217	0x3d7df95d	0.06200539
218	0x3d39d283	0.045366775
219	0xbc3aef70	-0.011409625
220	0x3da95854	0.082688004
221	0x3a65f595	0.00087722513
222	0xbdf5fa97	-0.12010687
223	0x3cf6e9e9	0.030140834
224	0xbd47a3fe	-0.04874038
225	0x3d26a93e	0.040688746
226	0xbc6c7140	-0.014431298
227	0x3c9ee91d	0.019398266
228	0x3c2b14b2	0.010441946
229	0xbdbde3fd	-0.09272001
230	0x3dbf0b03	0.09328272
231	0x3c4eeeb8	0.012630157
232	0xbd1a013c	-0.037598833
233	0xbd0d9fa0	-0.03457606
234	0xbd91d8a4	-0.07121399
235	0xbd1801e2	-0.03711117
236	0xbcab495a	-0.020909
237	0xbd42d44a	-0.047565736
238	0x3d38a673	0.045080613
239	0xbd24d521	-0.040242318
240	0x3c413f0d	0.011794818
241	0x3d955d49	0.07293183
242	0x3d4280c3	0.047486078
243	0x3d11ff64	0.03564395
244	0x3d02c788	0.03192857
245	0xbd28fe88	-0.041258365
246	0x3cbc1d37	0.02296315
247	0xbd1db277	-0.038500275
248	0x3d21f398	0.03953895
249	0x3d476ede	0.048689716
250	0xbdc1332f	-0.094335906
251	0x3d24c697	0.040228453
252	0x3d387443	0.04503275
253	0x3c620bec	0.013796788
254	0x3c9736cb	0.018458745
255	0x3c053e6a	0.008132556

transformer_encoder.layers.0.linear2.bias f4 [44]
0	0x3d261afd	0.04055308
1	0x3d442c63	0.047893893
2	0xbb379e59	-0.0028017967
3	0xbc0b9e6f	-0.00852166
4	0xbcf498bf	-0.029857991
5	0xbb198970	-0.0023427866
6	0xbaf709b3	-0.0018847495
7	0x3c14768b	0.009061466
8	0x3c354b9f	0.011065393
9	0x3cbead8d	0.023276115
10	0x3d23f330	0.040026844
11	0xbd972b3b	-0.073812924
12	0x3d15afe3	0.03654469
13	0x3d720114	0.05908306
14	0x3d19b128	0.037522465
15	0x3d1750ff	0.03694248
16	0x3c0fa1ef	0.008766635
17	0x3d1bb3b0	0.03801316
18	0xbb1d069c	-0.0023960238
19	0x3c941f86	0.018081438
20	0xbc9f27fa	-0.019428242
21	0xbd596f7b	-0.05308483
22	0x3b016a3d	0.001974716
23	0xbcc4d8f4	-0.024029233
24	0xbc89a309	-0.016801374
25	0x3d1434a5	0.03618302
26	0x3d35f608	0.044424087
27	0xbb728175	-0.0037003432
28	0x3cba01ff	0.02270603
29	0xbd07f021	-0.03318799
30	0x3d4ece28	0.050489575
31	0xbc8128f1	-0.015766593
32	0x3a4aa059	0.0007729582
33	0x3d269bc3	0.04067589
34	0x3cf33488	0.029688135
35	0xbbe42d2f	-0.006963394
36	0xbd8d410c	-0.06897172
37	0xbd2f9600	-0.04286766
38	0xbc98f64e	-0.018672135
39	0xbd1b50e7	-0.03791895
40	0x3bb305dd	0.0054633454
41	0xbcc990bb	-0.024605146
42	0x3d19c15c	0.037537917
43	0xbd8a1790	-0.067427754

transformer_encoder.layers.0.norm1.weight f4 [44]
0	0x3eb0043b	0.34378228
1	0x3f03a097	0.51416916
2	0x3f1f8e0c	0.6232612
3	0x3f1fdf83	0.62450427
4	0x3f23963e	0.63901126
5	0x3eef0729	0.4668515
6	0x3ef12897	0.4710128
7	0x3eae4c77	0.34042713
8	0x3f8285cf	1.0197085
9	0x3ebfe3ff	0.37478635
10	0x3fa96903	1.3235172
11	0x3fa9f376	1.3277423
12	0x3f214ff3	0.6301262
13	0x3f0ae3ce	0.5425385
14	0x3f0f71fd	0.5603331
15	0x3f369a25	0.71328956
16	0x3f25f905	0.648331
17	0x3f254a54	0.6456654
18	0x3f13c36e	0.5772008
19	0x3edfd092	0.43713814
20	0x3fa8d526	1.3190048
21	0x3f9c8538	1.2228155
22	0x3f2645c1	0.64950186
23	0x3f17eb37	0.59343284
24	0x3fa47a44	1.2849813
25	0x3fa1cb12	1.2640097
26	0x3eb55f86	0.3542444
27	0x3f92991c	1.1452975
28	0x3f9a6af7	1.2063893
29	0x3f865012	1.0493186
30	0x3f1413e2	0.5784284
31	0x3f565f97	0.8373961
32	0x3fa962e7	1.3233308
33	0x3f07dbb9	0.53069645
34	0x3f00b4ae	0.50275695
35	0x3f18747a	0.5955273
36	0x3f93aacf	1.1536502
37	0x3eb7b450	0.35879755
38	0x3f02b1c3	0.5105249
39	0x3e83f881	0.2577553
40	0x3ec39a47	0.38203642
41	0x3ee98670	0.4561038
42	0x3f21c675	0.63193446
43	0x3f724eca	0.9465147

transformer_encoder.layers.0.norm1.bias f4 [44]
0	0xbf0f89bb	-0.56069535
1	0xbe90dae8	-0.28292012
2	0xbebaef58	-0.3651073
3	0xbec9c5b4	-0.39408648
4	0xbed8e0b5	-0.42358938
5	0xbefcfca7	-0.49411508
6	0xbf006cb4	-0.5016587
7	0xbf09f8e6	-0.53895414
8	0x3ebd5e3e	0.36985964
9	0x3f2b2a38	0.66861296
10	0x3ef1dd8e	0.47239345
11	0x3ec9a7eb	0.39385924
12	0xbedb0bb3	-0.42782363
13	0xbecca29b	-0.39967808
14	0xbf035ce6	-0.51313627
15	0xbee460e2	-0.44605166
16	0xbedd99be	-0.43281358
17	0xbed54ea3	-0.41661558
18	0xbef92ad7	-0.48665497
19	0xbf07df47	-0.5307507
20	0x3ed362d4	0.41286337
21	0x3ebfc475	0.37454572
22	0xbefa2463	-0.48855886
23	0xbf0249ca	-0.50893843
24	0x3ed8ec16	0.4236762
25	0x3edc526a	0.43031627
26	0xbf044c0f	-0.51678556
27	0x3f016324	0.505419
28	0x3ef92d9e	0.48667616
29	0x3ef7f9cf	0.48432776
30	0xbeb54dc7	-0.35410902
31	0x3efc585c	0.49286163
32	0x3f01f426	0.50763166
33	0xbf0354e0	-0.51301384
34	0xbefc05b8	-0.49223113
35	0xbee8ee6a	-0.45494395
36	0x3eae3f30	0.34032583
37	0x3f0e5810	0.5560312
38	0xbee4f6b5	-0.44719473
39	0x3f2423dc	0.6411722
40	0xbf076c0a	-0.5289923
41	0xbec0eda8	-0.37681317
42	0xbefb63ca	-0.4909957
43	0x3f051542	0.5198556
