model_results/Victoria/ANN_PSO_Model/2025-08-20_13-43-33/best_model.pth (torch, 424949 bytes, 19 tensors)

layers.0.weight f4 [256, 10]
00000000: b511 85bf 604d 09c1 5763 64c0 8af8 38c1
00000010: cd06 18c0 2fcb bdbf 04b5 b8c0 a1ca c841
00000020: 4906 1dc0 1f99 afbf 0c0a cf3d d224 aebe
00000030: fdce 9a40 a670 00c0 5bb2 57c0 2a97 ed3e
00000040: 5ddc e740 7283 a9be 9083 69bf 7719 c43f
00000050: 079f 21be b39b 2ac1 63ae b9c0 32be 34c1
00000060: 2837 47c0 a038 b53f 1480 88c1 6724 b141
00000070: e6da 86c0 d747 6bc0 c0cf f83f d3f3 80bf
00000080: 68e3 16c0 08d5 0841 fe52 4fbf ffff 0641
00000090: 44d3 9440 0321 d5c0 83bc aa40 5f44 cebf
000000a0: 186c 2a3f 6689 023f 51ba 8a40 58fe acbe
000000b0: d331 7cc0 d3c8 3a3f 0144 c840 c358 14c0
000000c0: d80e 013e 9b56 803f a459 0a3d 8867 f8bf
000000d0: d4aa 77be a407 2bc0 654f 4540 9e2c 253f
000000e0: 7c5c 09c0 be49 49bf fc06 8bbf 7d08 0dbe
000000f0: 3cdf 81bf 307e 3b3f 5128 6140 4e07 863e
00000100: d4af 1fc0 1fa2 6e3f 73c6 0541 29d8 b4bf
00000110: d476 c7bf b022 3fbf ec35 48bf bc03 d840
00000120: 195d c1bf a166 a6c0 75cb 4a41 9dbd 0941
00000130: 22a9 953f f1b3 c840 251c 1640 7148 81c0
00000140: 200d 89bf 824b 3240 b007 debf a91e f53f
00000150: eed0 6440 a777 1ebf c672 f53f 73e4 a6c0
00000160: 3ed1 cb3f eace 0fc0 f038 b23e 422a 9e3f
00000170: 671a 6d3f befa f2be bece 2fbf b893 48c0
00000180: b734 8a3f f25c d33f a89f d93e a15e 16bf
00000190: 0527 093e b3c0 363e 3f47 1b3e a334 8641
000001a0: 2a1c c640 cc64 9d40 98c0 71c0 abea 56c2
000001b0: 472b 36bf 785b 913d 0bef 8b3f 8935 6640
000001c0: 6996 f9c0 4bcb a13f bbec c940 b49d e4be
000001d0: 920f 1741 859c 5dbf fbe3 b6bf dbf8 55c0
000001e0: d1a6 4b3e d0f6 7a3f a786 9a3e 1b82 2a40
000001f0: 78ed b2bf b5a7 92be a993 79bf 4324 cfbe
00000200: 98b8 0a3e 77bc 123d a829 5dc0 00f2 fc3f
00000210: 666d 1340 9d27 2dc0 a52a f540 326e b7bf
00000220: 1179 1bc1 d494 2ec1 4651 1d3e ca9e e8bf
00000230: 4f6e 003f e873 7140 d6d0 5a3f 6841 9c40
00000240: 859f f2be 2219 20c1 ba9d 9141 ae6e b2c0
00000250: af6f 3cbe 90a8 bfbf 72ac 2e41 709a 1b40
00000260: a413 273f c11d c7c0 028a 2ac1 61cf 923f
00000270: 7b0a 8840 14b4 b540 fdc1 e7be d5fb 09c0
00000280: c5a3 ecbf 5faa 84c0 79ed 04bf 25df 58c1
00000290: dc23 4e3e 8e55 92c0 68a3 dac1 cf30 4241
000002a0: be2e 67c0 022a 6b3f bcaf c33d 02eb 823d
000002b0: 71ef d33f 91d7 68bf 817f 06c0 16e4 763f
000002c0: c760 9e40 72c2 4840 9a9f 01bf 84e9 333f
000002d0: 7fd2 debf c24c 02c1 2605 05c0 ede5 8bc1
000002e0: 6d84 7c40 51dc 603f 02e8 74c1 cba7 ec41
000002f0: 7d6f e4be 1975 8bbf 2d2f 8ebf a89d 9fbf
00000300: 49fe e0bf 23b1 8d41 f58e 03c1 4e72 46c1
00000310: 4260 4cc1 6cff bec0 7d57 97bf 45db fb3f
00000320: b6ae 4f41 87eb 0f3f 7719 143f 02fb e1c0
00000330: 850d 0dc1 a6ec 34c0 c0bc 6240 5976 9940
00000340: c024 1cc0 6c45 d2bf b0ce 32bf 2716 7e40
00000350: bf25 d7bf f04c a93e 3c5b 80c1 6f14 0bbf
00000360: a3bc 0842 36f6 1a42 7c66 3a3d be4e 39bf
00000370: 48cb 96bd 9bdd 4bbf 7eb2 d6bf 2512 97c0
00000380: 9fe4 863d 89e1 15c0 7b54 5d40 159c b440
00000390: a93f 91bf 175e 90c0 c858 e43f 65f1 b13f
000003a0: fe72 8c3e e469 1041 bf10 ae40 b1b4 dfbf
000003b0: aaf4 c5c0 acae acc1 5780 353c f99e 4dbf
000003c0: 2d98 1d3e 92c2 5fc1 eacf 0ac1 0449 41c1
000003d0: 1ffb 633e 173d ea3d 23ef 3ac1 61b4 9e41
000003e0: 96a8 40c0 dbeb 8abe 6f9e 91bf b83b 8340
000003f0: 3612 07c0 9721 5240 2caa 4941 d70a 0441
-1.0396029 -8.58139 -3.5685632 -11.5606785 -2.375415 -1.4827632 -5.7720966 25.09894
-2.4535086 -1.3718604 0.10109338 -0.34012467 4.837767 -2.0068755 -3.370261 0.46404392
7.24565 -0.33108097 -0.91216373 1.5320271 -0.1578332 -10.6630125 -5.8025374 -11.296434
-3.1127415 1.4157906 -17.062538 22.142775 -4.214221 -3.6762598 1.94384 -1.0074409
-2.3576298 8.55201 -0.8098601 8.437499 4.6507893 -6.6602798 5.3355117 -1.6114615
0.6657119 0.50990903 4.3352437 -0.337878 -3.940541 0.72962683 6.2583013 -2.3179176
0.12603319 1.002643 0.033776894 -1.9406595 -0.2418626 -2.6723413 3.0829709 0.64521205
-2.1462698 -0.78628147 -1.0861506 -0.1377277 -1.0146251 0.7323942 3.5180857 0.26177448
-2.4951067 0.9321613 8.3609495 -1.4128467 -1.5583138 -0.74662304 -0.7820728 6.750456
-1.5106536 -5.200028 12.674672 8.608792 1.169224 6.2719655 2.3454678 -4.040093
-1.070713 2.7858586 -1.7346096 1.9149982 3.575252 -0.61901325 1.9175651 -5.215387
1.5923231 -2.247004 0.34809065 1.2356646 0.9261841 -0.47456926 -0.6867484 -3.134016
1.0797337 1.651274 0.4250462 -0.5873814 0.13393791 0.17846946 0.15163897 16.775702
6.190938 4.9185543 -3.77738 -53.729168 -0.71159786 0.070975244 1.0932325 3.5970175
-7.7996106 1.2640165 6.310148 -0.44651568 9.441301 -0.86566955 -1.4288324 -3.343314
0.19887854 0.98032856 0.30180857 2.664191 -1.397872 -0.28643575 -0.97490937 -0.40457353
0.1354698 0.035824265 -3.4556675 1.9761353 2.3035522 -2.7055428 7.6614556 -1.4330504
-9.717057 -10.911335 0.15363035 -1.8173459 0.5016832 3.7726994 0.8547491 4.882984
-0.4738733 -10.006136 18.202015 -5.5760107 -0.18401979 -1.4973316 10.917101 2.431301
0.65264344 -6.222382 -10.658693 1.1469537 4.2512794 5.678232 -0.4526519 -2.1559956
-1.8487478 -4.1457973 -0.51924855 -13.554479 0.20130867 -4.5729437 -27.329788 12.136916
-3.612228 0.91860974 0.09555003 0.063924804 1.6557447 -0.9095393 -2.1015322 0.9644178
4.9493136 3.136868 -0.5063416 0.7027819 -1.7407988 -8.14374 -2.0784392 -17.487268
3.9455826 0.87836176 -15.306643 29.58193 -0.4461631 -1.089511 -1.1108147 -1.2469988
-1.7577602 17.711493 -8.222402 -12.402906 -12.7735 -5.9686794 -1.1823574 1.9676291
12.980154 0.5621876 0.57851356 -7.0618906 -8.815801 -2.8269439 3.5427704 4.7956967
-2.439743 -1.6427436 -0.6984663 3.970102 -1.6808394 0.3306651 -16.044548 -0.54328054
34.184216 38.74044 0.045507893 -0.72385776 -0.073629916 -0.7963502 -1.6773221 -4.720965
0.06586575 -2.3418906 3.4582813 5.644053 -1.1347553 -4.5114856 1.7839594 1.3901793
0.27431482 9.025852 5.439544 -1.7477018 -6.186116 -21.585289 0.011077962 -0.803207
0.15390082 -13.9850025 -8.67576 -12.080326 0.22263764 0.11437433 -11.683383 19.838076
-3.0102897 -0.27133068 -1.1376475 4.10104 -2.1104865 3.2833002 12.604046 8.252646

layers.0.bias f4 [256]
00000000: 0e58 8ec0 d1b2 3f3f 2fef ebbf f804 1dc0
00000010: be60 5abf 6e68 51be afe7 d53f dfde 4740
00000020: 514d 2f3f b3c3 f23c a386 a13f 1a8a 78bf
00000030: bf0a a03c 4a5b 18bf 1c91 4540 ddc4 9d3f
00000040: 3e73 1ec0 ff3f 58be e94f a1bf 3997 7640
00000050: 1365 5cbe a5e6 aebf d773 9cbe 573e ff3f
00000060: 4cca 18c0 69a5 0c41 2a67 a6bf 23a8 01c0
00000070: fd5c 2bc0 eb0d 7dbd 95ad b63d 9faa 253e
00000080: a768 123e 1858 d0c0 5295 e7bd 94c7 e43f
00000090: 06ca 9b3e 1fe9 9c3d f87f 96be 31c8 92bd
000000a0: 8fa4 683e 36f9 15be b12f 0d3d 8d7b a9bf
000000b0: 1001 aebe 9fc3 dbbd 0edd c0bf 6bcf 9dbe
000000c0: 4e42 1b40 8d4a 35be bec6 03c0 d558 93bf
000000d0: 9373 e23d b45b 12c0 4094 803d 75d8 0dbe
000000e0: 657a 5bc0 b63c 943e 1cf4 2340 7387 da3e
000000f0: 6d5e 84c0 04ce cb3d 50fd 103f 81ee 90c0
00000100: 58cd 863d 1196 0b3f c3bc 16bf 3e67 403f
00000110: be61 a3bf c8fc 92c0 6a0b 883f a62f de3e
00000120: 711e 3240 cd20 5e3e d476 95bf d16a 7e3d
00000130: c299 2240 494c ac3f bcb5 d5bf 7e07 ce3e
00000140: d543 c540 1a0a 32be 3e59 cd3d 68f5 993f
00000150: 8e65 aec0 f900 c6bd 4f8e c93d 1cfd b13e
00000160: 21d7 df3d a730 5d3e a5ce 6ec0 55d9 44bf
00000170: 66cf 17c0 03b6 a03f 50a3 a1bf c239 b83f
00000180: f00b 803d 0b1b 043f 1ec4 bdbf 58f3 8b3f
00000190: 5e31 dec0 f971 eebf 10c0 50bc ce95 753f
000001a0: 1fe5 60c0 c131 2e40 57cf 683f ccde 8dbe
000001b0: c844 dcc0 8a75 5cbe 52c6 bf40 f31b 013f
000001c0: da7f 2a40 5679 2040 8f0c 073e 5b07 5640
000001d0: f442 41c0 8f30 90be ed35 9b3f 8268 40bc
000001e0: 89bb dfbf 61a1 3940 6f77 8440 346c ffbf
000001f0: 82c7 72c0 01a2 0ebf 702d 6a3f fe9b 87bf
00000200: 3ebf 9cbe e6b6 df3e 71a4 94bf 65e3 00bf
00000210: ba8f 663e cc44 7a3e 941f fc3d 547e 29be
00000220: 4e6e 083f abc2 5dc0 e074 2a40 8dcd 88bf
00000230: 27ac c23e 7a2f 92be ca0f 2dbf 926c c3be
00000240: c23e d8bf 1850 9040 d75a a4bf 7bb1 3abf
00000250: 90ee d3bf 2c8a 32be c713 1740 00ba 6abd
00000260: 6a39 d7bc acca b03e 4961 c9bf 6705 18bf
00000270: 249c a63f d1cb f83f 91b3 903d 0b88 1140
00000280: 64c5 60bf 7f6b 203e 2648 22be 24d7 413e
00000290: 0078 a0c0 124d 473f b204 a23f 668e ca3f
000002a0: 73ec 40c0 f927 c5be 9cf0 c43f 924f ddbf
000002b0: cc5c 3d3f f795 89bf eeb5 e03f 57b6 133f
000002c0: ad1a 723f 75cd 8ebf 9f57 0d3f c73a 11c0
000002d0: 4396 ff3f 4f52 9f40 650b be40 4912 bac0
000002e0: 4d62 5dbe 69f9 f13f 93f9 c7bf e17b b13e
000002f0: e9c8 bcbe 5cff b1be 0096 b8bf 7f88 673e
00000300: aacc 03bf 357c b740 ab1d 81c0 42b4 67c0
00000310: 1ff8 1ebe e71d 57bf 5391 c53e 941b 59bc
00000320: b86f 7840 482a a73e 74f8 0440 38aa 113f
00000330: 1602 5ebf 6db2 c040 0428 eebf bfcd b7bd
00000340: 6e35 4e3e 73d7 f7bf f3c9 603f 41b9 2dc0
00000350: ed2c 9abf 8846 0d40 b7cf 11c0 346e 75c0
00000360: 2b06 febc 375c 92c0 80e8 2140 e565 813f
00000370: f39a 8c3f 72eb 653f 0a93 3fc0 633e 3fc0
00000380: 0b03 843e fbea 5440 f2de 11be 82fd e8bf
00000390: 33b8 453e d605 a93e 7855 f4bc ba29 08bf
000003a0: 0c60 9c3f ace9 8c3e c292 e2bc 8775 9cbf
000003b0: 4a2e bbbf 0cef 0440 5f5c 9fbf 0207 10c0
000003c0: c04c 90be 3fd6 2240 3fa9 d73c 34cd 0041
000003d0: ebff d93f 6e5c 8abe 589e 9dbe 6ebd 783f
000003e0: d6e2 6ebe 92d6 e5bf 250f 793e 27e7 153e
000003f0: 5672 32c0 cd7d 1740 bd59 8f3e 0503 bec0
-4.448249 0.7488223 -1.8432368 -2.4534283 -0.85303867 -0.20449993 1.6711329 3.122978
0.6847735 0.029634332 1.2619213 -0.97085726 0.019536374 -0.59514296 3.0869818 1.2325703
-2.4757838 -0.21118163 -1.2602512 3.85298 -0.21522932 -1.3664137 -0.3055713 1.99409
-2.3873472 8.790383 -1.3000233 -2.0258873 -2.6775506 -0.06178085 0.08919827 0.16178368
0.14297734 -6.5107536 -0.113077775 1.7873406 0.3042757 0.07661652 -0.29394507 -0.0716709
0.22719024 -0.14645848 0.03446931 -1.324083 -0.33985186 -0.10730671 -1.506746 -0.3082231
2.425922 -0.1770422 -2.0590053 -1.1511484 0.110572 -2.286847 0.062782764 -0.13852103
-3.4293454 0.2895257 2.5617743 0.42681465 -4.1365266 0.09951404 0.56636524 -4.5291142
0.06582135 0.5452586 -0.5888178 0.75157535 -1.2764204 -4.593357 1.0628483 0.43395728
2.783108 0.216922 -1.1676888 0.062113587 2.5406346 1.346078 -1.6696086 0.4024009
6.1645303 -0.17386666 0.10026787 1.2028017 -5.449897 -0.09668154 0.09841596 0.3476342
0.109297045 0.2160059 -3.7313626 -0.7689412 -2.3720336 1.2555546 -1.2627964 1.4392626
0.06252277 0.51603764 -1.4825475 1.0933638 -6.9435263 -1.8628532 -0.012741104 0.9593171
-3.5139844 2.7217867 0.90941375 -0.27709043 -6.883396 -0.21529213 5.992959 0.5043327
2.6640534 2.5074058 0.13188384 3.344199 -3.0197115 -0.28162047 1.2125832 -0.011743667
-1.7479106 2.9004748 4.1395793 -1.9954896 -3.793427 -0.5571595 0.9147558 -1.059448
-0.30614656 0.43694228 -1.1612684 -0.50346977 0.22515765 0.24440306 0.123107105 -0.16552097
0.5329331 -3.4650066 2.6633835 -1.0687729 0.38021967 -0.28551847 -0.6760222 -0.3816877
-1.6894152 4.509777 -1.2840222 -0.72927064 -1.6557178 -0.17435521 2.360582 -0.05730629
-0.026272494 0.34529626 -1.5732814 -0.59383243 1.30164 1.94372 0.070654996 2.2739284
-0.87801194 0.15666007 -0.15847835 0.18929726 -5.0146484 0.77851975 1.2657683 1.5824707
-3.0144317 -0.3850706 1.5385928 -1.7289908 0.7396972 -1.0748891 1.755552 0.57700104
0.94571954 -1.115645 0.55211824 -2.2692125 1.9967731 4.9787974 5.938891 -5.814732
-0.2161953 1.8904239 -1.5623039 0.34664825 -0.36872032 -0.34765136 -1.4420776 0.22610663
-0.5148417 5.733912 -4.0348716 -3.620377 -0.15524338 -0.8403 0.38587436 -0.013251204
3.8818188 0.32649446 2.0776644 0.5690036 -0.8672193 6.0217805 -1.8605962 -0.0897479
0.2013757 -1.9362625 0.8780815 -2.714432 -1.204496 2.20743 -2.278303 -3.8348513
-0.0310088 -4.5737567 2.5298157 1.0109221 1.0984787 0.89812386 -2.9933496 -2.9881828
0.25783572 3.326842 -0.14245203 -1.8202364 0.19308548 0.33012265 -0.02982591 -0.5318867
1.2216811 0.27522027 -0.02765787 -1.2223366 -1.4623501 2.0770903 -1.2450064 -2.2504277
-0.28183556 2.5443265 0.02632582 8.050098 1.7031225 -0.27023643 -0.3078487 0.97164047
-0.23328719 -1.7956107 0.24322183 0.14638959 -2.7882285 2.3670533 0.27998152 -5.9378686

layers.1.weight f4 [256]
00000000: dda7 8540 cbdc db3d 0d65 9240 4d27 8f40
00000010: 80dc 8fba 486f 863f 5e87 70bd 7931 a140
00000020: 2147 563f 6740 203d 8dec 0d41 5a38 6b40
00000030: 3ce9 2d3e d80b ff3e fe2b 153f f1ad 4f40
00000040: 3e27 6a40 c5a1 023d 9e2a b140 fadb 8540
00000050: 38de 873f cfc3 d040 ab95 2e3f 2d83 7dbd
00000060: f75c ae40 dbae cd40 4997 8e3e 3328 b040
00000070: 4062 e140 84d8 8c3a 32f1 913e 36ad 253f
00000080: 0b2d c4bd 6f25 8040 a5e7 d93c f200 8a40
00000090: 4d8b e040 41ee ab3e b16b bf3e 8cea e73c
000000a0: 162f bf3e d981 863f cc14 503d ce09 d340
000000b0: 3e23 033f 4f91 bbbc 77ab 163f 41dd 9e40
000000c0: cdd9 8b40 f164 5e40 3df7 3c3e bcbc d340
000000d0: 27a7 d4bd 8377 c340 0fa9 8e40 735d 913f
000000e0: 8b1a c440 a51c 0d3f 0a4b e93f ca1f 743e
000000f0: 187c 2640 30b1 9e3e 42c5 ca40 5910 9540
00000100: 6a2d 313e 20c4 a83e f3a4 40bd 54d5 083e
00000110: dc9c 2540 a2d1 013f 7e76 4140 9027 ac3e
00000120: d499 153e fdec 0e3e 18b6 4540 5655 1640
00000130: 563b c540 bd76 1f3c 3d58 3e3f 7a15 e23f
00000140: 450c f740 06e1 093f be34 8d3e 705b a940
00000150: 4ab4 bc40 797b 843f 6770 4340 40ab a840
00000160: 5821 8d3f 6434 0b3f e9bd 5640 1377 cc3e
00000170: fba9 3640 edeb 423e 15fb 7a3e e1be c640
00000180: 041f 5340 afb0 3540 cf68 3e3e 2651 8940
00000190: 3c90 7940 8780 8440 fa05 803d a9f9 5a40
000001a0: dfbe 7940 a3ab 1140 d026 e0bd a39f 973e
000001b0: 2e3a ac40 3f6c a43d 738e 8a40 5626 a03e
000001c0: 2a79 003f 2f62 b03f a161 4640 12a2 ec40
000001d0: b917 8f40 273c 1f3e d988 4f40 52f9 f73e
000001e0: 2ed6 6b3f 7e22 ef40 d22f 9940 4648 ad40
000001f0: 1306 1640 3d97 603e 69e9 243d f60f 3240
00000200: 34bb 7e3e a1c2 9840 6736 a840 f418 5dbe
00000210: 7388 00be 2f70 a73e a3d3 b63e f371 a23e
00000220: 9b38 b33f b9be a240 f178 9140 a41b d340
00000230: a0ac 56be e05f c63e ceb4 e93f cc3a aa40
00000240: 6b29 393f 0c21 c540 42d3 6b40 9251 203e
00000250: a2ab 0641 a101 873e 8af5 bc40 1305 d53e
00000260: e0d1 bf3e eb1f 2a3e 971e 1540 c640 2f3f
00000270: b451 b240 05a7 0240 a401 353f 1dd1 6e40
00000280: 5e91 1140 b482 1c3f 54e9 e440 c402 cb3e
00000290: 34d5 9c40 6c08 c13e 213f d740 f359 333f
000002a0: f4c7 b340 fa4c 1040 a56a a040 6924 77bc
000002b0: 43bd 783f 41a6 2b3e 7e9a 0c41 f46e 2d3c
000002c0: 5355 8240 f3a1 0c3f 0070 473e 2110 123f
000002d0: 354d cc40 c5d1 bd40 fd92 c140 5faa d83f
000002e0: b73e 4bbd d3ab a640 4b26 c640 6c9a 4e3e
000002f0: 4027 36bd 4cc2 313f b9c4 4e40 c3d7 f53d
00000300: 0290 ae3d 07b1 f640 3cd3 7c40 c3c8 c43f
00000310: 501d 303f fce6 613d 296d af3d cde9 99bd
00000320: 56bf 8c40 8f9d 00bd 8808 38bc 1c1c 8f3f
00000330: ad71 d63d b6f9 ca40 f259 9a40 5e97 a73d
00000340: 532c b53d 6616 a440 585b e1bc 728d f43d
00000350: ee02 f13f 0e30 e73f dd93 6640 cba7 a040
00000360: 3e5e d03d 90c1 2340 72a0 3640 c154 943d
00000370: 4e23 583e caf0 2a3f 9f4a 7740 a803 b13e
00000380: be9a 5040 9653 3640 0c6d a93c 27da 14bd
00000390: b654 c03f 8437 613e aefc 053f ea00 bc40
000003a0: 792b 6f3e 814c cd3f 04ec 1a3d 8996 193e
000003b0: b1d7 0e40 35a7 db40 6447 da3e 01ac 8c3e
000003c0: acb9 843c 6529 c140 5ca8 fc3d 37f1 ba40
000003d0: 0de4 f93f 0b33 c1bc 8652 6ebb aca1 2d40
000003e0: 550e 8fbc 2877 9040 aa04 263c 1f46 1e40
000003f0: bcc6 2b40 918d 08be 416a 163e cbbf e040
4.176741 0.10735472 4.5748353 4.4735475 -0.0010975748 1.050271 -0.058722846 5.037289
0.83702284 0.03912392 8.870252 3.6753144 0.16983503 0.49813724 0.5827025 3.2449915
3.6586452 0.031892557 5.5364523 4.1831026 1.0614691 6.5239024 0.68197125 -0.061892677
5.4488482 6.4275947 0.27849796 5.504907 7.0432434 0.0010745679 0.2850433 0.64717424
-0.09578904 4.0045695 0.026599715 4.3126154 7.0170045 0.3358021 0.3738685 0.028310083
0.3734061 1.0508376 0.050801083 6.594947 0.5122565 -0.022896437 0.58855385 4.9645085
4.370337 3.474911 0.18453689 6.616789 -0.10383444 6.108339 4.458137 1.1356643
6.12824 0.55121833 1.8226025 0.23840252 2.601324 0.30994558 6.3365793 4.6582456
0.1730248 0.32962132 -0.047032308 0.13362628 2.587699 0.507105 3.0228572 0.33623934
0.14609462 0.13957591 3.0892391 2.3489585 6.163493 0.009732899 0.7435339 1.7662804
7.7202477 0.53858984 0.27579302 5.292412 5.897008 1.0350181 3.0537355 5.2709045
1.1025801 0.54376817 3.3553412 0.39934596 2.8541248 0.19035311 0.24509843 6.2108006
3.298768 2.838909 0.18594669 4.291156 3.8994284 4.1406894 0.0625114 3.421488
3.9022748 2.2761009 -0.10944903 0.2961398 5.382102 0.08028459 4.329889 0.31279248
0.5018488 1.3779963 3.0997088 7.394784 4.471646 0.1555029 3.2427275 0.48432404
0.9212369 7.4729605 4.7870874 5.4150724 2.3441207 0.21932693 0.04026166 2.7822242
0.248761 4.7737584 5.256641 -0.2159155 -0.12552051 0.32702777 0.3570834 0.3172756
1.400165 5.0857816 4.5460134 6.597124 -0.20964289 0.38745022 1.8258302 5.3196774
0.72328824 6.160284 3.6847692 0.15656117 8.416903 0.2636843 5.904973 0.41605434
0.3746481 0.16613738 2.329992 0.6845821 5.5724735 2.041444 0.7070563 3.7315133
2.2744975 0.6113694 7.1534824 0.39650548 4.901026 0.37701738 6.726456 0.70059127
5.6181583 2.2546983 5.013018 -0.015084364 0.9716379 0.1676264 8.787718 0.010585535
4.0729156 0.54934615 0.19476318 0.5705586 6.3844247 5.9318566 6.049193 1.6926993
-0.049620356 5.2084746 6.1921744 0.20176095 -0.044471025 0.694371 3.230757 0.12004044
0.08523561 7.70911 3.9503927 1.5373768 0.6879473 0.055151924 0.085657425 -0.07515297
4.3983564 -0.03140026 -0.011232503 1.1180453 0.10470901 6.3429823 4.8234797 0.08183168
0.08846345 5.127734 -0.027509376 0.11941041 1.8829019 1.806154 3.6027749 5.0204825
0.10174225 2.558689 2.8535428 0.07242728 0.21107218 0.66773665 3.8639295 0.34573102
3.2594447 2.8488517 0.02068188 -0.03634086 1.5025852 0.21993834 0.52338684 5.8751116
0.23356427 1.6038972 0.03782274 0.14998831 2.2319148 6.864161 0.42632592 0.2747498
0.016201816 6.036303 0.123367995 5.841945 1.952272 -0.02358391 -0.0036365106 2.7129927
-0.017462889 4.5145454 0.010132948 2.4730299 2.6840048 -0.13335253 0.1468897 7.023412

layers.1.bias f4 [256]
00000000: 15c7 48c0 d114 f4be 4866 48c0 25df 83c0
00000010: 0dea 87bf 9da2 f2bf 97f7 88be e3bb 2e3f
00000020: c2f2 f3bf 735c cdbf 9c30 84c0 5b9e 343f
00000030: a594 4ebf af18 e6bf 00ad 3cc0 013d 88be
00000040: d402 1ac0 5a5d febd c606 04c0 a2b2 54c0
00000050: dd9f 0140 60cd 2b3d f6ba b3bf 3434 c6bf
00000060: a408 51c0 1a75 c5bf 808f 9cbf 23c2 de3e
00000070: 5f45 85bf 0e4a cabd 3df5 34bf 172c 8fbf
00000080: daf4 82bf 4520 15c0 5e57 09bf 3fda 06c0
00000090: 4db5 60c0 0cb5 30bf 87d7 9ebf dcaf 15be
000000a0: b721 29bf 2f0d 11c0 f97a 4cbf 29d3 86bf
000000b0: b490 cbbf f5b3 87bf 383e acbf 38c2 1ac0
000000c0: 3dce 81c0 5178 093f 7afb d53f 00a1 57c0
000000d0: 1c72 4fbf d3c9 66bf d5bf 71c0 4e74 29c0
000000e0: b173 86c0 4487 c6bf ffe0 c63e 531c 38bf
000000f0: bff2 c4bf 447f 19bf 7e4c 48c0 cd7b e4bf
00000100: ee5e 6cbf 05fb 58bf 3b4b 35be 1577 b2bf
00000110: 6b7c 8a3f c2c1 f0bf 1d50 5f3f d01b 7cbf
00000120: 1531 e1be b710 61bf cdb1 46bf d84d adbe
00000130: b4c4 3fc0 5bb8 89be 961d e8bf c58e 8b3e
00000140: 212d 81c0 ec61 fcbf 77b3 4ebf 587e 8cc0
00000150: 4dc1 e4bd 1d43 d6bf 1860 463f 0e76 9c3e
00000160: 6abc dfbf 4887 a6bf 9fe6 6bc0 8bf3 6dbf
00000170: 4817 d63e 6cc0 3bbf 489d ecbf 7ec6 90bd
00000180: 58ff 8dc0 d849 d8bf 6bad 53bf 4485 4ac0
00000190: fcb1 fabf b2af 94bf 6d6a fdbe 1fc8 ea3f
000001a0: 8f77 bc3e 8fb0 523f 2844 54bf 0ff5 66bf
000001b0: 9f05 40bf 2466 30bf 8851 293e 09a9 90bf
000001c0: 4dd5 f3bf 20fd e13e 3be6 1c3f f481 3ec0
000001d0: 2d7c 79c0 78e3 75bf cb83 45bf d377 17c0
000001e0: 7c01 0fc0 87ff e03f 0329 64c0 0f7e 353f
000001f0: 329a 07c0 e2cd dcbf a85a 7cbf dc34 a8bf
00000200: 03fb 18bf 16cd 55be 9597 f63e 0dd4 14bf
00000210: e797 1cbf 6a89 8abf 05e4 4fbf 2d95 65bf
00000220: c678 24c0 dd45 39c0 6a50 9e3f 9a32 64c0
00000230: bdbe bdbe dea4 b2bf 6a0d 2ac0 d154 823f
00000240: 897d 14c0 2d2d ddbd be14 1e3f 82fd 92bf
00000250: d701 9bbf f64d 15c0 2315 c43e 63c9 47bf
00000260: 35c9 bbbf 7951 69bf 690b a5bf 2add bdbf
00000270: a0ea 32c0 b6a5 52c0 16e9 d7bf 2268 30c0
00000280: 9b64 b6bf 4b62 93bf 6ed5 44c0 0129 76bf
00000290: ee42 6b3f 88b6 c5bf 9baa 5ec0 94e4 5fbf
000002a0: 0b64 34c0 c861 603f bd01 e3bf 76fb bebe
000002b0: c0f4 853e 8a4d 48bf f94e 11bf 55ae 33bd
000002c0: de1c 70bf 1922 9cbf 9fa6 2bbf 8755 23c0
000002d0: b02f 1ac0 eb35 bdbf efae 27c0 20ea 273f
000002e0: 1a5b b9bf 33ad b93e 8875 a53f a94f 45c0
000002f0: ed65 71be 5d03 e9bf d47e 163f f4e3 82bf
00000300: bf72 bcbe ca12 65c0 b1d1 de3e 5f21 e03e
00000310: 155b b5bf cd48 fbbe 2ce3 10bf 057a 1abe
00000320: e3d4 8b3f 8e91 ccbd 7624 edbd 0cd6 99bf
00000330: 0249 c4be e5f7 71c0 0191 86bf 6c68 4abe
00000340: cb94 bfbe 46e4 3f3e c024 17bf 98a2 fbbf
00000350: b70e 59c0 92ac c33e 0b5c 20c0 ec20 953e
00000360: 800b 26bf 01af 70bf 1d30 42bc 9f57 b2be
00000370: 361c 6ebf 2dad 9dbf 8d02 85c0 ea8c 00c0
00000380: ffb1 33bf d1c5 d73e efb2 16be eb8e 41bf
00000390: fb8f 4dc0 dc17 bfbf c0a4 95bf 4bcd a7bf
000003a0: 3a5f f4bf e215 13c0 beb7 d0be 6b8f 8dbf
000003b0: 76a6 cbbf 74e1 76c0 1b52 e7bf 1868 3fc0
000003c0: 9e04 81bd 1f33 0ebf c089 08bf 1a43 05c0
000003d0: 67fa 34c0 845f 6abf 9f6e d9bd f8ba 65bf
000003e0: 41a1 54be 7a05 c5bf 3eea 98bd f117 8cbf
000003f0: 51c6 af3f 277a eebe 0b8e 81bf 3801 8ec0
-3.137151 -0.47672132 -3.1312428 -4.1209893 -1.0618302 -1.8955876 -0.26751396 0.6825544
-1.9058459 -1.6043838 -4.130934 0.7055413 -0.80695564 -1.7976283 -2.948059 -0.26609042
-2.4064226 -0.12420149 -2.0629134 -3.323403 2.0253823 0.041943908 -1.4041431 -1.5484681
-3.2661524 -1.5426362 -1.2231293 0.4350749 -1.0411795 -0.09877406 -0.70686704 -1.118533
-1.0230973 -2.3300946 -0.53648937 -2.1070707 -3.5110657 -0.69026256 -1.2409524 -0.14617866
-0.6606707 -2.2664297 -0.7987514 -1.0533191 -1.5903535 -1.0601794 -1.3456488 -2.4181042
-4.0564256 0.53699213 1.671737 -3.3692017 -0.8103349 -0.9015171 -3.7773335 -2.6477237
-4.2016225 -1.551003 0.38843533 -0.7191822 -1.538658 -0.59959817 -3.1296687 -1.7850281
-0.9233235 -0.84758025 -0.1770448 -1.3942591 1.0819219 -1.880913 0.8723162 -0.9847994
-0.4398276 -0.8791613 -0.7761505 -0.33848453 -2.9963808 -0.26898465 -1.8134029 0.27257362
-4.036759 -1.9717383 -0.8074259 -4.390423 -0.11169682 -1.6739231 0.7749038 0.3055882
-1.7479374 -1.3010035 -3.685951 -0.9294974 0.41814637 -0.7334049 -1.8485498 -0.070691094
-4.43742 -1.6897535 -0.8268649 -3.164384 -1.9585567 -1.1616118 -0.4949526 1.8342322
0.36809966 0.8230066 -0.829165 -0.9021768 -0.7500858 -0.68905854 0.16535008 -1.1301585
-1.9049469 0.44138432 0.61288804 -2.9766817 -3.898204 -0.96050215 -0.77154225 -2.3666885
-2.2344656 1.7577981 -3.5650032 0.70895475 -2.1187863 -1.725033 -0.9857583 -1.3141131
-0.59758013 -0.20879015 0.48162523 -0.58136064 -0.61169285 -1.0823185 -0.81207305 -0.8968075
-2.5698714 -2.894889 1.236829 -3.5655885 -0.37059584 -1.3956563 -2.6570687 1.0182134
-2.320162 -0.10799632 0.617504 -1.1483614 -1.2109936 -2.3328834 0.38297376 -0.78041667
-1.4670779 -0.9113994 -1.2894107 -1.4833119 -2.7955704 -3.2913642 -1.6868007 -2.7563558
-1.4249452 -1.1514372 -3.0755267 -0.96156317 0.91899 -1.5446329 -3.479163 -0.8745816
-2.8186061 0.876492 -1.7734905 -0.37301224 0.26163292 -0.78243315 -0.5676113 -0.043867428
-0.9379405 -1.2197906 -0.6705112 -2.5520952 -2.4091606 -1.478208 -2.620052 0.6559162
-1.4480927 0.36264953 1.2926493 -3.082987 -0.23574038 -1.8204151 0.58787274 -1.0225816
-0.36806294 -3.5792718 0.43519357 0.4377546 -1.4168421 -0.4907898 -0.56596637 -0.1508561
1.0924343 -0.099887 -0.1157922 -1.2018447 -0.3833695 -3.7807553 -1.0513002 -0.19766396
-0.37418208 0.18739423 -0.5904045 -1.9658995 -3.3915231 0.38217598 -2.5056179 0.2912668
-0.648613 -0.94017035 -0.011852291 -0.34832475 -0.93011796 -1.2318474 -4.1565614 -2.0086007
-0.70193475 0.4214311 -0.14716695 -0.756087 -3.2119129 -1.4929156 -1.1690903 -1.3109525
-1.9091561 -2.2982106 -0.40765184 -1.1059393 -1.5910175 -3.8575106 -1.8071932 -2.9907284
-0.06299709 -0.55546755 -0.5333519 -2.0822206 -2.8277833 -0.91551995 -0.106168024 -0.89738417
-0.20764638 -1.5392296 -0.07466553 -1.0944806 1.3732396 -0.4657757 -1.0121473 -4.437649

layers.1.running_mean f4 [256]
00000000: c467 10c6 b339 0c44 a4a8 3cc6 440d 4c44
00000010: 4aa5 1344 84e8 0845 4527 a3c4 3830 4346
00000020: 1526 ac44 1a17 0c44 83ee b745 edd8 d444
00000030: 6726 23c4 eda4 9745 bc0b 7244 5760 5245
00000040: 3fb8 90c5 305f fec3 45a8 f3c4 c3d7 38c6
00000050: d421 d245 a639 80c6 9108 34c5 7d92 ee45
00000060: 6ded 20c6 6791 3846 24d9 5bc5 a3da a1c5
00000070: bc70 40c6 9195 3d43 864b fb44 496e 50c4
00000080: 7ded bc44 31bd afc5 4d37 b541 d324 a845
00000090: 5af6 05c4 cf60 8ec4 4a68 3845 0eb5 b1c4
000000a0: 659f e0c4 1315 ff44 7685 9e44 5109 64c5
000000b0: 01b9 3f44 f40f f043 83a6 d0c4 e384 b444
000000c0: 38bc 5dc6 c7ee 0546 442f 3a45 e626 16c5
000000d0: 6cc7 3ac2 4a58 9a45 132f 62c6 6117 af45
000000e0: 2c64 14c6 5461 79c5 567e 5ac6 f3b3 cac4
000000f0: 6ff3 be45 4c21 ccc4 af55 3ac5 56e2 63c5
00000100: 6d20 ea44 c2f2 eec4 f802 8c44 ea25 06c5
00000110: 79ef 4bc6 35da f245 320c f245 2808 a2c4
00000120: 1c83 07c4 52dd 0ac5 ab1b 9b46 45ae bc44
00000130: 9b6e afc4 07b7 15c5 cca6 1446 a81b 1fc6
00000140: ade6 0bc5 5454 40c5 c2e7 3ac5 db91 a444
00000150: 4a3f 8a45 6b38 fdc4 35fc ad43 ef17 efc5
00000160: c630 eb44 30fb 9cc5 c152 b1c5 ceb2 10c5
00000170: 9510 50c5 9a30 97c4 994a 8345 1ce4 e2c5
00000180: cf95 09c6 1874 9745 8aca 0ac5 3574 3bc5
00000190: 248e 10c6 ea83 38c6 cc05 fbc4 c84d 9244
000001a0: 4eaa 4146 2cf9 17c4 7214 4cc4 2d31 b844
000001b0: 9efc ac44 774e 7643 a365 40c5 3d53 40c5
000001c0: 5e29 b043 913e 85c6 61ee c1c5 03f2 7cc5
000001d0: c09f d0c5 a192 1d45 0d51 e2c5 6cb7 89c4
000001e0: 2708 3a45 823c 28c5 95aa 06c6 a3d3 4143
000001f0: eb76 9146 9ddb a743 3871 9bc4 f10f 1346
00000200: e957 8cc4 ef17 6ec5 90cd 82c5 6cb7 3045
00000210: da36 22c5 467e 0fc5 29ae e3c4 6ca5 a044
00000220: c7f7 6344 b89b 4dc5 8048 2bc6 7e92 acc5
00000230: edd0 9943 aaba 2bc0 dd90 73c4 a6ec 87c5
00000240: e16c 2a46 f160 25c5 e3bc 5045 76bd 82c5
00000250: f33c 1fc4 fe87 1ac3 11ba 6cc6 98d8 30c5
00000260: e1a5 18c4 2739 1745 2b84 0e46 f93f 5844
00000270: ec1e c444 6962 ddc4 7a45 4b45 7b6c 4cc6
00000280: 6557 4346 0057 6a45 1eb8 98c4 4101 57c4
00000290: 88bf a0c6 43e8 81c5 9769 8ec5 e595 a8c5
000002a0: ac81 8ec5 c373 3844 bc5f 1d46 e39b fec4
000002b0: 5f8b dd45 0ea7 c843 f081 c044 2fe1 41c2
000002c0: 3e67 da45 7ded b2c5 9681 ddc4 690e 69c6
000002d0: e001 6ec6 5e43 9946 02ae cc42 9e71 d9c5
000002e0: 9030 62c5 8a02 94c5 6ca3 a6c5 fa36 2045
000002f0: abf5 c4c4 ebe0 fc41 0cd6 77c3 f2a0 d1c4
00000300: c763 8a40 c765 82c4 dce6 ee45 6bfd a545
00000310: 384a 3ec5 c413 6b44 eb54 2744 fcb4 64c4
00000320: 9fc8 c7c3 ef53 53c5 33c4 4c45 5ef0 0a46
00000330: 9d37 1dc4 e3f1 9bc5 8acf 5a44 63e6 03c5
00000340: 394b 8bc4 bff3 0fc5 e8c5 3ac5 cc5b bdc4
00000350: 4597 db43 e331 8b46 8538 c7c5 db66 8dc5
00000360: 7ab7 b0c4 48fd 4ac6 ecb6 07c6 5e77 7d44
00000370: 5264 db45 bd01 3445 d48a 03c6 f0fb 48c1
00000380: bfec 9a45 21d5 f1c2 3064 3cc4 cba5 97c5
00000390: ce5f 0b43 4dde d4c4 99da 71c5 dbe1 8045
000003a0: 5945 0ac5 dceb 45c4 c467 94c3 4751 c2c4
000003b0: 9205 e145 e139 7cc4 93df af44 4320 bbc4
000003c0: e6f3 aec4 dcbd fa43 0d61 91c2 32c3 69c5
000003d0: 0d7f dac5 56f3 0fc5 b9eb 26c4 92d7 0446
000003e0: 5b1e c7c4 e1db 24c6 e6cc bbc4 9950 fe45
000003f0: c6ff ccc5 1729 1545 143d 5744 51b1 2d45
-9241.941 560.90155 -12074.16 816.2073 590.58264 2190.5322 -1305.2272 12492.055
1377.1901 560.36096 5885.814 1702.7789 -652.60004 4852.6157 968.18335 3366.0212
-4631.031 -508.74365 -1949.2584 -11829.94 6724.2285 -16412.824 -2880.5354 7634.311
-10299.356 11812.351 -3517.5713 -5179.3296 -12316.184 189.58424 2010.3601 -833.7232
1511.4215 -5623.649 22.652002 5380.603 -535.84924 -1139.0253 2950.518 -1421.658
-1796.9811 2040.6586 1268.1707 -3648.5823 766.8907 480.12463 -1669.2035 1444.1527
-14191.055 8571.694 2978.954 -2402.4312 -46.694748 4939.036 -14475.769 5602.9224
-9497.043 -3990.083 -13983.584 -1621.6234 6110.429 -1633.0405 -2981.3552 -3646.146
1873.0133 -1911.5862 1120.0928 -2146.3696 -13051.868 7771.276 7745.5244 -1296.2549
-542.0486 -2221.8325 19853.834 1509.4459 -1403.4564 -2395.4392 9513.699 -10182.914
-2238.4172 -3077.2705 -2990.4849 1316.558 4423.911 -2025.7631 347.97037 -7650.9917
1881.5242 -5023.3984 -5674.344 -2315.1753 -3329.0364 -1209.5188 4201.3247 -7260.5137
-8805.452 4846.5117 -2220.6587 -2999.263 -9251.535 -11808.979 -2008.1812 1170.4307
12394.576 -607.8933 -816.31946 1473.5367 1383.8943 246.3065 -3078.3523 -3077.2024
352.32318 -17055.283 -6205.7974 -4047.1257 -6675.9688 2521.1643 -7242.1313 -1101.7319
2976.5095 -2691.7817 -8618.6455 193.8267 18619.459 335.71573 -1243.5381 9411.985
-1122.7472 -3809.4958 -4185.6953 2827.4639 -2595.4282 -2295.892 -1821.4425 1285.1694
911.8715 -3289.7324 -10962.125 -5522.3115 307.63223 -2.683268 -974.2635 -4349.581
10907.22 -2646.0588 3339.8054 -4183.6826 -636.95233 -154.53122 -15150.517 -2829.537
-610.59186 2419.572 9121.042 864.9996 1568.9663 -1771.0753 3252.3423 -13083.12
12501.849 3749.4375 -1221.7537 -860.0196 -20575.766 -4157.0327 -4557.1987 -5394.737
-4560.209 737.8088 10071.934 -2036.8715 7089.4214 401.3051 1540.0605 -48.469906
6988.9053 -5725.686 -1772.0496 -14915.603 -15232.469 19617.684 102.33986 -6958.202
-3619.0352 -4736.3174 -5332.4277 2563.436 -1575.6771 31.609823 -247.83612 -1677.0295
4.32468 -1043.1805 7644.8574 5311.6772 -3044.6387 940.30884 669.32684 -914.8279
-399.56735 -3381.2458 3276.2625 8892.092 -628.86896 -4990.236 875.2428 -2110.3992
-1114.3507 -2303.2341 -2988.3691 -1514.8687 439.1818 17816.943 -6375.065 -4524.857
-1413.7336 -12991.32 -8685.73 1013.8651 7020.54 2880.1086 -8418.707 -12.561508
4957.5933 -120.91627 -753.5654 -4852.724 139.37424 -1702.9469 -3869.6624 4124.232
-2212.3342 -791.6853 -296.81067 -1554.5399 7200.6963 -1008.90436 1406.9867 -1497.0082
-1399.6218 501.48328 -72.68955 -3740.1997 -6991.8813 -2303.2085 -667.68317 8501.893
-1592.9486 -10550.97 -1502.4031 8138.0747 -6559.9717 2386.568 860.95435 2779.0823

layers.1.running_var f4 [256]
00000000: 82f4 1d4c 315f 8b4b 0fb4 be4c 27ad e34a
00000010: efa3 854b c241 8c49 74be 0b4b 16df f149
00000020: af3e 034a df60 9f49 7b02 d948 5f63 484c
00000030: 2b87 ae48 4e08 984b 580a 154a 184e f64c
00000040: b935 014b 84e3 094a b0cf a64b ceaf 814a
00000050: d0a9 2f4d 4c1f 8549 7ed5 1d4b 0512 424a
00000060: ab09 0f4d 8a3d 124a 7da2 aa4a 6e8b 7f4b
00000070: d272 a849 47f7 924a f4df 0a49 991a 0e49
00000080: 8793 7a49 e42d b649 266c 8848 5631 2e4a
00000090: 83f4 1d4b 2168 3248 a46a 8d4a 6fe1 c448
000000a0: d76a 8049 ca25 714a c454 af47 f8fd 944b
000000b0: 3d3d d84a dfc5 1648 73b7 824a 85eb f349
000000c0: 57f4 9b48 82f3 a14a a448 b14c 1c88 1a4b
000000d0: ae60 4748 ae71 424a 15ec b648 f6f9 5a4a
000000e0: 4d08 a84a f339 904a f0d3 364a d1e3 5949
000000f0: 6e0a 374b 9c2a ef48 40cb db4a d116 1f4b
00000100: 1cb7 4648 6e44 9a49 f996 064b 104e 6a49
00000110: 3fcc c649 2d0a d849 ce6b 8a4a 30d9 044a
00000120: 33e1 404c cd1b 7948 a5fb a14a 0325 fa4a
00000130: ef4a c44a 38f9 3149 35be 4548 3c41 cc49
00000140: f829 1b4b 9a98 1b4a 2663 8149 d7de 5c4a
00000150: f4bd 784a 536a a34a 3a00 054c 15cf 1c4c
00000160: bd8f 0d4a 39ab 0c4a fee8 464b 4f96 9b49
00000170: ab01 704c 3b3e 434a b3e5 ab4a ed3c d54b
00000180: a3a8 d84a ff71 864a 2b30 d14a c091 b14a
00000190: 1ee5 0c49 8dd7 a54a 3671 a94a 7213 324c
000001a0: 8e87 244b 41be 8e4c 2065 ca49 c035 1a49
000001b0: 4276 534a c2b3 6d48 f780 914a 5051 674a
000001c0: 15ee 444b eeff 464a 39fb c74b 3661 594b
000001d0: de3a 994b 7636 5948 de38 8c4b 7bab 474a
000001e0: 4405 7b4a 42e2 034c b338 814c d6fa e64b
000001f0: 88e7 3549 cfa5 fc4a 0703 3f4a 37a3 6949
00000200: 897a cf48 9295 7d4b 8a8b c54b 6033 234a
00000210: d3cf 8049 3963 cd49 a887 3149 7cf1 6648
00000220: 1c3e e74a 95e7 fa4a 1083 904b a287 d44a
00000230: 87a7 a349 8955 f748 784a fc4a 787d b04b
00000240: 57ed a94a 83b0 7d4b 1c6f 8d4b 7819 b149
00000250: 4c08 044a 07b3 894b 1f59 d74a 77e0 d249
00000260: 2788 5949 9638 f848 e338 9549 1f5f 1f4a
00000270: 105c 4e4a d66b e34b a6c8 f849 9fbe d54c
00000280: c921 2449 fc49 8449 9005 0b4b e8fc 9b49
00000290: fc81 2349 fa17 3b4a 6154 1e4b 8835 604b
000002a0: 94f3 b94a e08e 654b 430b 564a e870 3a4a
000002b0: d628 ab4a ffdc 254b 0d0f 124a 02e7 314a
000002c0: 77a5 b34b a11c 794a 01d1 084a a05b d64a
000002d0: 3ac2 ef48 b414 0f4a ccee 2c4a 3fed 8c49
000002e0: 3e60 e14b a874 c24b 3b6e d74b 1504 274a
000002f0: 278a 584a 68e7 294a 5f92 fc4b 6c31 0149
00000300: 631f 3e4a e97f f94a 8811 824a b7ee 244a
00000310: 9039 4649 1c78 224b 096c 7648 8171 7749
00000320: 38ca 7e4b 0756 8349 f987 c24a c2e5 7f4b
00000330: 186a 104a 4f12 dc4a f8f8 444a 469c 7c49
00000340: b6db a348 4e7e a14b 44c4 e548 7330 b94b
00000350: 39eb b44a 21fb 584d 812b 3e4a eb26 904b
00000360: 2099 b048 3d0f e949 7372 174c ecd4 a649
00000370: f56b 2e4a e9a5 9649 e4ea 4e4b 1a4a 314a
00000380: 6ced 044b e4a1 ac4b bfe5 8d49 90fc a64a
00000390: aa19 bd4a cf45 7b4a f84c 044a 28ec 104a
000003a0: 7652 3f4b 626e bb4a 365c 8947 f2dd 694a
000003b0: b4d2 ab4a 23b3 eb4a fcc3 844a e030 3a4a
000003c0: 971e 9c49 2ad0 334a 6a06 a249 02e4 1c4a
000003d0: 355d b94b dc59 524b dd17 034b f433 654b
000003e0: a55e 704a 3d7c c049 bd3c bb4a 8aa8 034b
000003f0: 89a9 0a4c 6c0f 924b f4f9 7e48 35c5 9448
4.1406984e+07 1.8267746e+07 9.998348e+07 7.4604995e+06 1.751651e+07 1.1489842e+06 9.15826e+06 1.9814108e+06
2.1503158e+06 1.3056279e+06 444435.84 5.2530556e+07 357433.34 1.9927196e+07 2.441878e+06 1.2913478e+08
8.467897e+06 2.259169e+06 2.1864288e+07 4.249575e+06 1.8419635e+08 1.0905375e+06 1.0343806e+07 3.1796492e+06
1.4998597e+08 2.3960025e+06 5.5913585e+06 1.6747374e+07 1.3799302e+06 4.8157795e+06 568831.25 582057.56
1.02636044e+06 1.4924125e+06 279393.2 2.8539735e+06 1.0351747e+07 182688.52 4.633938e+06 403211.47
1.0519949e+06 3.9509625e+06 89769.53 1.9528688e+07 7.0857265e+06 154391.48 4.2833215e+06 1.9981926e+06
319394.72 5.306817e+06 9.294774e+07 1.0127388e+07 204162.72 3.1857715e+06 374624.66 3.5877095e+06
5.5060865e+06 4.7260095e+06 2.995452e+06 892477.06 1.1995758e+07 489812.88 7.202208e+06 1.0426065e+07
203484.44 1.2637578e+06 8.820473e+06 959713.0 1.6285519e+06 1.7697976e+06 4.535783e+06 2.176588e+06
5.0562252e+07 255087.2 5.3078585e+06 8.1967375e+06 6.4321195e+06 728979.5 202488.83 1.6732555e+06
1.0168824e+07 2.5492865e+06 1.0599408e+06 3.6187418e+06 4.075389e+06 5.3547935e+06 3.4865384e+07 4.1106516e+07
2.3193432e+06 2.3047182e+06 1.3035774e+07 1.2745699e+06 6.2916268e+07 3.1988628e+06 5.6327295e+06 2.794953e+07
7.0994735e+06 4.4055035e+06 6.8546775e+06 5.818592e+06 577105.9 5.4343105e+06 5.552283e+06 4.6681544e+07
1.0782606e+07 7.4838536e+07 1.65802e+06 631644.0 3.4645925e+06 243407.03 4.7678675e+06 3.789908e+06
1.2906005e+07 3.2604115e+06 2.6211954e+07 1.4246198e+07 2.0084156e+07 222425.84 1.8379196e+07 3.2713908e+06
4.112721e+06 3.457255e+07 6.774927e+07 3.0274988e+07 745080.5 8.2787595e+06 3.1295378e+06 956979.44
424916.28 1.6618898e+07 2.5892628e+07 2.67388e+06 1.0552264e+06 1.6825351e+06 727162.5 236485.94
7.577358e+06 8.2216425e+06 1.8941472e+07 6.964177e+06 1.3406569e+06 506540.28 8.267068e+06 2.3132912e+07
5.5681715e+06 1.6625795e+07 1.853804e+07 1.450799e+06 2.163219e+06 1.8048526e+07 7.0565275e+06 1.7275029e+06
891010.44 508356.7 1.2224284e+06 2.6111438e+06 3.380996e+06 2.9808556e+07 2.0380368e+06 1.12063736e+08
672284.56 1.0837115e+06 9.110928e+06 1.277853e+06 669727.75 3.0653425e+06 1.0376289e+07 1.4693768e+07
6.093258e+06 1.504432e+07 3.5068968e+06 3.05465e+06 5.608555e+06 1.0870015e+07 2.3930272e+06 2.9147525e+06
2.3546606e+07 4.0814482e+06 2.2416002e+06 7.02408e+06 491025.8 2.344237e+06 2.833331e+06 1.1544719e+06
2.9540476e+07 2.5487696e+07 2.8236918e+07 2.7363892e+06 3.5477858e+06 2.783706e+06 3.3105086e+07 529174.75
3.1149688e+06 8.1756045e+06 4.262084e+06 2.7022538e+06 811929.0 1.064758e+07 252336.14 1.01352806e+06
1.6697912e+07 1.0759049e+06 6.3743965e+06 1.6770498e+07 2.366086e+06 7.2113035e+06 3.227198e+06 1.0346924e+06
335581.7 2.116726e+07 470562.12 2.4273126e+07 5.9283485e+06 2.2752104e+08 3.1157442e+06 1.8894294e+07
361673.0 1.9092236e+06 3.970094e+07 1.3666855e+06 2.8577252e+06 1.2341091e+06 1.3560548e+07 2.9047105e+06
8.711532e+06 2.2627272e+07 1.1624239e+06 5.471816e+06 6.196437e+06 4.1168518e+06 2.167614e+06 2.37441e+06
1.2538486e+07 6.141745e+06 70328.42 3.8316765e+06 5.630298e+06 7.7234095e+06 4.350462e+06 3.050552e+06
1.2789309e+06 2.9460585e+06 1.3273092e+06 2.5704965e+06 2.4296042e+07 1.3785564e+07 8.591325e+06 1.5021044e+07
3.9382172e+06 1.5768396e+06 6.1353905e+06 8.628362e+06 3.6349476e+07 1.9144408e+07 261095.81 304681.66

layers.4.weight f4 [256, 256]
00000000: e4ea ac40 2b82 b7bc c606 8840 ff5c a0bf
00000010: 1396 f53f 6405 253f 224a 0c3f ed5c 1940
00000020: 4b3e f8bf 63d0 88bd 12b9 7dc0 5c28 4e40
00000030: cc98 9dbc 3e05 28bf 4522 00bf d2bd fa40
00000040: 13ce 9d40 4134 803e 9dab 333f 8300 8e40
00000050: b8b6 eb3f 352c 8bbe 43cb 713f c9ad b63e
00000060: 9fd6 d840 a710 0540 60b5 b7be 5ace b3bf
00000070: e02f 80bd e779 64bf 1146 4bbf 87c3 aebd
00000080: a6d1 e1bd e78f 2ac0 5d83 5abe e68f b23f
00000090: e0f0 9840 6ae9 7b3e 303c c93f 5ea5 02bf
000000a0: 03c0 413e 9286 6c3d aa87 acbd 3223 4640
000000b0: 08c2 983f 8699 93bd 568f cf3f 254f 0b40
000000c0: 6a5c a240 231c 1fc0 8cf0 0540 56f6 8540
000000d0: b05e 2bbd 6292 3740 34d0 7b40 8e3a 613f
000000e0: c90f 0041 2b1f 0440 497d 8d40 c840 7dbc
000000f0: 192f 6b40 ed41 c13e 35ae 9940 ca80 3d40
00000100: 0253 e3be bb1c b53e 8acd 553f 8099 3c3f
00000110: 4cd3 8940 8e59 f9bd 1957 fe3f babd b33d
00000120: d063 2040 2ec0 613e 9c66 2940 f746 0b40
00000130: 8a1f 5040 bdae 1a40 ba1c a73f a697 25bd
00000140: 5610 e140 fc7a e8bd 0c6a ff3d 845a a240
00000150: 4c1a 8240 e607 ff3e 0d41 d1be 7d24 eb3d
00000160: dea0 c63e b26b be3f e517 c840 7b23 7bbf
00000170: d2cd e23b 8c43 a2be 0609 70bf 05ca 5240
00000180: 6783 d240 24d1 fcbe dba1 1c3f d96a d240
00000190: 09c1 61c0 aa1f 0f40 45ff 0340 0d9a 1140
000001a0: 0888 51c0 f80d 4840 1a71 193f ae42 6ebe
000001b0: e8ab 7240 ed0f 4dbd ae0d 8440 d575 173e
000001c0: b2ac cc3f f11e cd40 f0e7 ffbf 416e 1f40
000001d0: f3f6 8140 1439 47bf 39f9 0a40 b76c b2be
000001e0: a646 2440 c091 8bbf 3be3 3c40 2463 27bf
000001f0: b42b 1f40 7975 623f 68f3 0fbf 2b42 003f
00000200: f478 8fbd 2f45 50bf dc21 b73e e377 d83e
00000210: f98f 21bd c733 3f3e 6ea2 84bc 3583 59bd
00000220: 4154 023f 87ac 5b40 e01f 93bf 34a0 c540
00000230: f50f 6cbf 71e9 013e 17e3 d13f 7475 99bf
00000240: 5913 66c0 286f 7c40 761c 1fc0 2ef1 0d3f
00000250: 4296 8a3f 5d53 483f b245 3d3f 89e2 f5bd
00000260: fb52 92be 05de 31bf 6cfa 9a40 208d 253f
00000270: ef30 6b40 7ccb ad3f 00cd b93f ee8e ae40
00000280: 8b3a 283f a6d7 b6bf bfd4 ee3f 4278 ebbd
00000290: b444 a2bf 29ac 77bc dc6d 5240 6c94 a5bf
000002a0: 57c3 a340 b7b8 2cbf 9157 913f 5d69 dcbe
000002b0: aba4 ca40 4e52 773f 5601 69bf fdc9 7bbf
000002c0: 1c8c 2140 d8a5 1dbe efaa 323e 0622 5640
000002d0: 4081 a7bf 3dff cc3f 213e 6040 cff2 3cc0
000002e0: 4752 ba3f 2ba9 89bf 7e81 6a3f 4fe4 ea3e
000002f0: 6f0d 2d3f 252e 233f f9c7 1b40 3909 37be
00000300: 020c 773c 2ca9 b040 e6ae 1240 ff0f 0a40
00000310: d893 39bd 543e 0bbf cf52 50be 7dc0 b1bf
00000320: 67f9 563f 2a84 8ebf 128f 18c0 78b3 1240
00000330: 6f3b c8bf af81 0141 e642 cd3f 14c5 23bf
00000340: ca3a c4be 049b cfbf d522 f43e ea27 33bb
00000350: e8e6 cb3f 112d a340 3165 1641 f4f0 733f
00000360: 8dfd 0a3f 4246 7f3d a838 b3bf 6b89 a93e
00000370: cb42 0cbf 0036 193f 7515 e540 225b 5f3f
00000380: 0fc2 4b40 66fe 173d 15a1 f23d 96c3 b6bf
00000390: f04f aa3f e690 9a3b ff1e 91be b83e 413f
000003a0: c879 0340 b5e4 4a40 cc4b 8fbe b96d cabf
000003b0: 8cbb 853e c29d 8340 945b 143f 5131 afbc
000003c0: 3447 19bf 0414 54c0 72ac ffbe 7805 2a41
000003d0: 7b2e 8140 90ed 0840 8c73 873f 97f3 9240
000003e0: 0ea7 0e3f fd71 2d3f a876 2a3f a95f 1e40
000003f0: c821 1540 9d4c 2040 3299 6cbd 0c58 c6bf
5.403673 -0.022400936 4.250827 -1.252838 1.9186424 0.6446135 0.5480062 2.3962967
-1.939401 -0.066803716 -3.9644208 3.2212133 -0.019237898 -0.65633 -0.5005229 7.8356714
4.9314055 0.25039867 0.70183736 4.4375625 1.8415136 -0.27182165 0.9445078 0.35679463
6.776199 2.0791414 -0.35880566 -1.4047348 -0.062591314 -0.8924851 -0.7940379 -0.08533388
-0.110263154 -2.665033 -0.21339174 1.3950164 4.7794037 0.24600759 1.5721493 -0.5103358
0.18920903 0.057745524 -0.08424313 3.0958982 1.1934214 -0.07207017 1.6215618 2.1767056
5.073781 -2.4860923 2.0928068 4.1863203 -0.041838348 2.8683095 3.9345827 0.8797997
8.003854 2.0644023 4.4215436 -0.01545734 3.6747496 0.3774561 4.8025155 2.9609857
-0.44399267 0.35373482 0.8351675 0.7367172 4.307043 -0.12175284 1.987033 0.08776422
2.506092 0.22045967 2.6468878 2.1762064 3.251925 2.4169152 1.3055642 -0.040427826
7.033244 -0.113515824 0.12471399 5.0735493 4.06571 0.49810714 -0.40869942 0.11481569
0.38794607 1.4876616 6.252917 -0.98101014 0.0069215083 -0.3169216 -0.9376377 3.2935803
6.5785403 -0.49378312 0.6118447 6.575543 -3.527407 2.2363076 2.0624554 2.2750275
-3.2739277 3.1258526 0.59938204 -0.23267624 3.7917423 -0.050064016 4.12667 0.14791043
1.5990202 6.410027 -1.9992657 2.4911044 4.061395 -0.7782147 2.1714613 -0.34848568
2.566812 -1.0903854 2.951369 -0.6538565 2.4870424 0.884605 -0.56230783 0.50100964
-0.07005492 -0.81355566 0.3576802 0.42278966 -0.039443944 0.18672095 -0.016190734 -0.053103644
0.5090981 3.4324052 -1.1494102 6.175806 -0.9221185 0.12686707 1.6397427 -1.1988969
-3.594931 3.9442844 -2.486112 0.55446136 1.0827105 0.782522 0.7393447 -0.12006099
-0.28578934 -0.694794 4.843069 0.64668465 3.6748617 1.3577724 1.4515686 5.4549475
0.6571433 -1.4284561 1.8658675 -0.11497547 -1.2677217 -0.01511673 3.2879553 -1.293592
5.117595 -0.6746935 1.1354848 -0.43049136 6.332601 0.9660996 -0.91017663 -0.98355085
2.5241766 -0.15395296 0.17448018 3.3458266 -1.3086319 1.6015393 3.503792 -2.9523199
1.4556359 -1.0754751 0.9160384 0.4587731 0.67598623 0.63742286 2.4340804 -0.17874612
0.0150785465 5.520651 2.291925 2.1572263 -0.04530701 -0.5439198 -0.20344089 -1.3886868
0.8397431 -1.1134083 -2.3837323 2.292204 -1.5643138 8.094161 1.6036041 -0.6397259
-0.38326102 -1.6219182 0.47682825 -0.0027337023 1.5929842 5.0992513 9.399705 0.9528954
0.5429314 0.062322862 -1.4001665 0.33112654 -0.5478942 0.5984802 7.1588693 0.8724843
3.1837194 0.037107848 0.1184713 -1.4278438 1.3305645 0.0047169803 -0.2834396 0.75486326
2.054308 3.1702092 -0.27987516 -1.5814735 0.2611965 4.1130075 0.5795224 -0.02138582
-0.5987427 -3.3137217 -0.49936253 10.626335 4.036924 2.1394997 1.0582137 4.592235
0.55723655 0.6775206 0.66587305 2.4745886 2.3301868 2.504676 -0.057763286 -1.549562

layers.4.bias f4 [256]
00000000: e84b 923e c4c9 01bf a3e8 a540 3739 0441
00000010: e294 8ebf 4164 2c40 288f 15bf 3307 dd40
00000020: cffa 91bd 8e05 89bf aba8 7140 336c b73f
00000030: 8cd1 223f 3644 76bf e076 74bf e9b3 9440
00000040: b4fd ef3f 43a8 223f b2aa 2640 fc46 d6bf
00000050: 39a0 86bf fe47 2c40 c7f6 6140 22cb 1940
00000060: 2423 cf3f 0328 6ebf 907e b43e fe95 203f
00000070: e8d6 9b40 8973 8fbf ad66 ee3e 67bc 1c3e
00000080: e090 7e3f 03b3 ce3f e680 45bf 7e04 5b40
00000090: de79 ef3e f05e c640 6925 d63f 1984 1840
000000a0: 2c51 cf3f 4458 573f 80d2 adbd 0dac aa3e
000000b0: 23c1 963f affb 3640 fdf5 9e40 fa72 f93d
000000c0: 42a8 d0bf b50d 00bf 2b5f 1cc0 414d ec3f
000000d0: 02c8 ecbf b5b1 86bd 90dc 96be 1937 bc3f
000000e0: 030b 19c0 de2a fdbf 816b edbe 6623 a5bf
000000f0: 13db 843f 15b4 2f41 1b07 a23f e304 dcbf
00000100: 1d16 8b3e 248a 403f dbd0 41c0 42a8 8c40
00000110: d409 7fbe b71f 5e40 ee17 1c40 ae80 98bc
00000120: 7fec 03bf 5b12 2abf 78a9 cc3e a8ff a63f
00000130: 7f50 7cbf 8262 ad3f 8213 1c40 ffd0 cc3f
00000140: bae0 f0bc 3463 383f 7f58 f93f 67db e0c0
00000150: 30da bc3f d872 6440 e361 89bf 869f 52bf
00000160: 9744 fc3f 7e9c 36c0 74e5 a3bd e8b7 0bc0
00000170: 813d 513c b9cb aabd fff0 903f 892d 0841
00000180: 9ba7 a03f 3186 8540 42f8 213f b88b 10c0
00000190: 370b 2540 1bee 68c0 d137 6d3f f9cb 5140
000001a0: db1f 5e3f 6271 59bf df8a ab3f 2064 8abe
000001b0: e545 b0c0 783b 0040 b25a 693e fe58 97bf
000001c0: 155d 8bbe b2d6 163f b2c4 47bf 542b d1be
000001d0: ed00 ebbe 28dc 8740 1df1 823e d89d 543f
000001e0: 4ace 5b40 8595 d040 193f ff3f 1e66 d33f
000001f0: 443f 96bf 9d55 3e40 2ee1 4dc0 df41 e13d
00000200: 7e5c 223f 3a29 d1bf 8290 7d40 6df4 c4be
00000210: a50b ec3e 4475 ac40 4643 1940 f914 1abf
00000220: 27fd 5c3f 86ea 92c0 b33f 2bc0 04e4 2cc0
00000230: d194 933f a4e8 a53e 0bf9 01c0 213a 7140
00000240: cb90 fd3f 4f53 88c0 122f 4d3f 81d4 8540
00000250: f238 2bbc 87ea 2abe cf13 4b3d 4663 a43e
00000260: 3e59 6f3e 8ca5 8240 e39f eebd 231f 0bc0
00000270: ed05 423f 0da1 883f 8ae5 053f 573e febe
00000280: 8231 2e3b 658b e73f d9fe 37c0 4241 53c0
00000290: 40f0 23bf 0fed a1be 9c1a 20c0 ad24 cbbc
000002a0: 2a2e adc0 4e47 41bf f834 4240 ac2d 4240
000002b0: 3e5f d3be 9e8e 9040 db5e 2f3e 52b6 0240
000002c0: cc6a 3e40 6b7d 6ebe 518a c9bf ca4c 9140
000002d0: 9e5f da3f cac4 cbbd ecd0 c2bf d95a ed3e
000002e0: d9dc 0c40 ffb1 03c0 cbf9 d63f 5df8 0ec0
000002f0: 6b10 39bf f93d 023f 3b25 15be fed4 73bf
00000300: f99d aa3f 6c1f ef3e be7c 463f afba aac0
00000310: 5ea7 3340 cdd0 85be 2547 673f 68d0 8a3f
00000320: 34c2 6ac0 3344 1bc0 42e0 6c3e db82 bebe
00000330: b8d1 f93f 2bf4 a43f 4a93 bf3e 607b 11c0
00000340: 2df7 333f c509 a740 ec85 ddc0 74d1 da3d
00000350: b9f6 e93c 3082 173f 14b4 1ec0 64f3 083f
00000360: d6e9 babc 09ce a13e 1dd1 9b3e 244f 6b40
00000370: 2f34 d83f 989d 163f 448f c43f 7268 273f
00000380: 5df9 9e3f 0985 fc3f d88d 3040 1fa7 f9bf
00000390: 11c7 a9bd b010 893f cd46 19c0 77fc d5bf
000003a0: f120 bf3d a13f 5bbf 77d3 3d40 535b fd3f
000003b0: 8e9f 053f 1ffb 3a40 b59e 86be 71af aa3e
000003c0: f361 8b40 9fef e63e 58bd 7abf 662e 7140
000003d0: 272c d140 8b66 a83e 6e57 883f 9594 f0be
000003e0: 65f7 e53e 77fd 65bf 3a57 adbc f749 3d3f
000003f0: 500f b33d 4a74 983f 7c39 5040 5acc 763f
0.28573537 -0.50698495 5.184648 8.263968 -1.1139185 2.693619 -0.58421564 6.907129
-0.07127916 -1.070482 3.7759197 1.4329895 0.63600993 -0.9619783 -0.9549389 4.6469617
1.8749299 0.63537997 2.6041684 -1.6740413 -1.0517646 2.691894 3.530687 2.4030232
1.6182599 -0.93029803 0.3525281 0.6272887 4.8699837 -1.1207134 0.4656271 0.15306245
0.9943981 1.614838 -0.7714981 3.4221492 0.46772665 6.199089 1.6730167 2.3830626
1.6196647 0.8411906 -0.08487415 0.3333439 1.1777691 2.8591115 4.967528 0.12180133
-1.6301348 -0.50020915 -2.4433086 1.8461076 -1.8498538 -0.06576864 -0.2946515 1.4704314
-2.391297 -1.9778707 -0.4637108 -1.2901428 1.0379356 10.981465 1.2658418 -1.7188991
0.2716531 0.75210786 -3.0283725 4.3955393 -0.24906093 3.4706857 2.4389606 -0.018616047
-0.5153274 -0.6643426 0.39973044 1.304677 -0.9856033 1.3545687 2.4386907 1.600128
-0.029404033 0.7202637 1.9480132 -7.0267825 1.4754086 3.5695095 -1.0732998 -0.82274663
1.9708432 -2.8533015 -0.08002749 -2.1830997 0.012771011 -0.08339638 1.1323546 8.511117
1.2551149 4.172631 0.63269436 -2.2585278 2.5788095 -3.6395328 0.92663294 3.2780745
0.8676736 -0.84938633 1.3401755 -0.27029514 -5.508532 2.0036297 0.22788504 -1.1824033
-0.27219453 0.5892135 -0.7803451 -0.4085337 -0.45899144 4.2456245 0.2557458 0.8305335
3.434466 6.518252 1.9941131 1.6515539 -1.1738057 2.9739754 -3.2168689 0.10998892
0.6342238 -1.6340706 3.961945 -0.38467732 0.46102634 5.3893147 2.394731 -0.6018825
0.8632378 -4.5911283 -2.675763 -2.701417 1.152979 0.32404053 -2.0308254 3.769173
1.9809812 -4.2601695 0.8014995 4.1821904 -0.010450589 -0.16691028 0.049579438 0.3210699
0.23373887 4.0827084 -0.1165159 -2.1737754 0.7579029 1.0674149 0.52303374 -0.49656937
0.0026579802 1.8089415 -2.8749297 -3.300858 -0.6403847 -0.31626174 -2.501624 -0.024797762
-5.4118853 -0.7549943 3.034483 3.0340376 -0.41283602 4.5174093 0.17126028 2.042378
2.9752684 -0.2329003 -1.5745336 4.5406237 1.706043 -0.09949644 -1.5220008 0.46358374
2.2009795 -2.057739 1.6794981 -2.233909 -0.72290677 0.5087581 -0.14564984 -0.95246875
1.332946 0.4670366 0.7753409 -5.3352885 2.8070903 -0.26135865 0.9034293 1.084485
-3.6681032 -2.4260375 0.23132423 -0.3720921 1.9517126 1.2887014 0.3741706 -2.2731552
0.70299035 5.2199426 -6.922598 0.10684481 0.02856003 0.59183025 -2.479741 0.53496385
-0.02281658 0.31602505 0.30432978 3.6767054 1.6890925 0.5883422 1.5356221 0.65393746
1.241985 1.9728099 2.7586575 -1.9504126 -0.08289922 1.0708218 -2.3949463 -1.6717671
0.09332455 -0.85643965 2.9660318 1.9793495 0.52196586 2.9215772 -0.2629296 0.33336976
4.3557067 0.4510469 -0.97945166 3.768457 6.5366397 0.32890734 1.0651681 -0.4698836
0.4491531 -0.8983988 -0.021159757 0.73940986 0.08743155 1.1910489 3.2535086 0.96405566
