model_results/Victoria/Transformer_PSO_Model/2025-09-02_06-41-35 - Transformed ($)/best_model.pth (torch, 323381 bytes, 27 tensors)

encoder.weight f4 [40, 11]
000000 a5 89 1b 3e c9 38 64 be a2 30 ac 3e a6 0e 30 be
       0.15189226 -0.22287287 0.33630854 -0.17193088
000010 19 75 65 bd de 5c 5e be b8 60 85 3e 60 99 65 be
       -0.056019876 -0.21715114 0.26050353 -0.22421789
000020 45 5c 9e be 7b de 29 3e d6 12 a2 bd a8 50 71 3e
       -0.3092977 0.16588776 -0.07913749 0.23565924
000030 c6 2b a0 3d 0c 2d 52 3d 37 c2 79 3e 07 92 59 3e
       0.07820849 0.05131249 0.24390493 0.21247111
000040 64 4d 3e 3d d6 ed 35 bd d7 65 69 3e 15 4d 87 be
       0.046460524 -0.04441627 0.22792755 -0.26425996
000050 8c b8 ff bc 8f 05 90 3e 8e b6 25 be 9e b6 1b bd
       -0.031215928 0.2812924 -0.1618292 -0.038015954
000060 e7 03 70 be 39 ac 9a 3e 61 c8 24 be ac f5 4e be
       -0.23438989 0.3020952 -0.16092063 -0.20210904
000070 6d 0c bf 3e 7c b8 74 3e 55 ba 0c 3e 71 7d af 3e
       0.37314168 0.238985 0.13742955 0.34275392
000080 1a 39 79 be 6a 5e 9d 3d bd 36 3a be dd a1 58 3e
       -0.24338189 0.07684024 -0.18184943 0.21155496
000090 cf ef 06 be 29 13 96 be 7f 88 35 be 82 c1 3b be
       -0.13177417 -0.29311493 -0.1772785 -0.18335536
0000a0 be cb c8 bd b4 ab 44 be 6a 48 b7 bb 69 24 04 3e
       -0.09804486 -0.19206125 -0.005593349 0.12904514
0000b0 1d e3 73 be a5 08 96 bc 10 fb 6a be bf fc b5 be
       -0.23817106 -0.018314669 -0.22947335 -0.35544392
0000c0 df 52 87 3e c3 5c b2 be 92 c3 b1 be 68 f3 99 be
       0.26430413 -0.34836397 -0.3471952 -0.30068517
0000d0 b6 d6 02 be b6 ea 9d 3d 4c 64 6a 3c 15 85 30 be
       -0.12777218 0.07710783 0.014306139 -0.17238267
0000e0 7e c8 8d be f0 ab 6d 3e 7d 23 f5 3d fb a5 5a be
       -0.27692026 0.2321012 0.119696595 -0.21352379
0000f0 8f 2c 97 3e e8 94 6d bd 48 75 a3 3e d1 c3 0f 3a
       0.29526183 -0.058003336 0.31925416 0.0005484196
000100 36 0f e3 bc c4 38 15 be c3 75 8d bb 2d 1e 98 be
       -0.027717214 -0.14572436 -0.004317017 -0.29710522
000110 2b 5b 4f be 8a 5e 24 3c cb 46 ae bc c7 19 a9 3e
       -0.20249622 0.0100323055 -0.021273991 0.3302748
000120 8f 8a c0 3d 17 90 8b 3e 0e 13 a0 3d 5a 29 3f be
       0.09401428 0.2725837 0.078161344 -0.18668118
000130 2b 4e 6b be 9a c3 37 be f4 8f 98 be 0b 48 28 3e
       -0.22979037 -0.1794571 -0.29797328 0.16433732
000140 c2 9d a2 be d4 86 e4 3d 5c fb 67 3e 54 73 76 be
       -0.31760985 0.11158529 0.2265448 -0.24067432
000150 9b 07 af bd bc c4 a0 be 09 91 2f be a8 c1 80 be
       -0.085463725 -0.31400096 -0.1714517 -0.25147748
000160 97 72 29 bd 35 42 98 be 22 6a 10 bd 65 f2 ff 3e
       -0.041369047 -0.29738012 -0.035257466 0.4998962
000170 8d 4f 42 be e8 53 cf 3e 3e 02 82 be de 48 a6 bb
       -0.18975659 0.40493703 -0.25392336 -0.0050746044
000180 4f ac 3e 3e 4e 66 a5 3d 03 b2 68 bb ea e0 81 be
       0.18620418 0.08076154 -0.0035506494 -0.25366908
000190 14 ae 8c 3d ab 1a 3a bd 8f e3 a0 be 59 2b cc 3d
       0.0686914 -0.04543559 -0.31423613 0.099692054
0001a0 66 26 d6 be 30 19 3b 3e 1d 7b 1f 3e e0 f9 3d 3d
       -0.4182617 0.18271327 0.15574308 0.046380877
0001b0 45 2b 2c 3e 23 1d 85 be b8 53 91 be 0d 45 0e bb
       0.16813381 -0.25998792 -0.28384185 -0.0021708638
0001c0 8a 7d 71 bd ac 6d 0c be b5 ba 74 3e 34 27 88 be
       -0.058957614 -0.13713712 0.23899348 -0.2659241
0001d0 6f ce 3c be 5f 8e 82 3e cc 07 7f 3e 31 fa f0 bd
       -0.18438123 0.25499246 0.24905318 -0.1176647
0001e0 5a 6d 3f be 5c 84 8a 3e 62 d2 ed 3e 85 39 7b be
       -0.18694058 0.27054107 0.46449572 -0.2453366
0001f0 c2 f4 02 3f 4f 4b 64 3d 47 a4 c9 be 8f 82 6e be
       0.5115472 0.055735882 -0.39383146 -0.23291992
000200 84 14 32 3e e0 13 e1 3d e2 83 90 bd 63 9f 78 be
       0.17390639 0.10990119 -0.07056405 -0.24279551
000210 54 39 9c bd 4f 73 0f 3e 09 09 98 be 2f 10 59 be
       -0.07628122 0.1400883 -0.29694393 -0.2119758
000220 3a 82 ed bd eb 93 79 bd b8 85 31 be dd 33 58 bd
       -0.11597104 -0.06093208 -0.17336166 -0.052783836
000230 77 61 a3 ba 84 a2 b9 be 74 9a 63 be 9a 6c 05 3d
       -0.001246496 -0.36256802 -0.22226888 0.032574274
000240 80 3d 91 3d 1c 9d 25 3e 60 23 3c 3e e4 62 e1 bd
       0.07091808 0.16173214 0.1837287 -0.1100519
000250 a5 c3 d8 3d d8 8d d4 be b3 6f 8f be 97 75 a9 bd
       0.10584191 -0.41514468 -0.28014907 -0.082743816
000260 3c fe 95 bd cf 0a 69 be 97 99 1c be f1 a9 a8 3d
       -0.07323882 -0.2275803 -0.15292965 0.08235539
000270 e8 b4 8c 3e ce 7c 7e be d5 9d 36 be f1 38 5d bd
       0.2748177 -0.24852297 -0.17833646 -0.05400938
000280 40 a0 79 3e b0 d1 b9 3e fa ba d4 3d 60 2d 22 3c
       0.24377537 0.3629279 0.103872254 0.009898514
000290 27 55 ff 3d f4 df b4 be de 41 a6 3e 46 f5 fa 3d
       0.124674134 -0.35327113 0.32472128 0.122538134
0002a0 22 e7 5e 3c d5 0a 72 be b7 e1 8f be 8c 99 11 be
       0.013604911 -0.23636945 -0.28101894 -0.1421873
0002b0 54 c4 9f bd 12 a0 d7 bd 28 9a af 3e 41 e6 76 3e
       -0.078011185 -0.10528578 0.342973 0.24111272
0002c0 af a1 5a be 8f 1f 16 be 4d 0e 35 be eb 78 4f be
       -0.2135074 -0.14660476 -0.17681237 -0.2026097
0002d0 2c e7 11 3e 60 69 8f 3e 7d 8c 41 3e 91 dc 9a be
       0.14248341 0.28010082 0.18901248 -0.30246404
0002e0 98 42 4b 3e e2 2a 34 3e b4 9b 0f be 65 1e 80 3e
       0.19849622 0.17594483 -0.1402424 0.2502319
0002f0 9e 99 b7 ba a7 c3 03 bd 94 5f 65 3c 52 b3 4e 3e
       -0.0014007573 -0.03216901 0.013999838 0.20185593
000300 a1 ec a6 bb 36 2a 1c bc 7b a7 26 be 87 7f 68 3d
       -0.0050941263 -0.009531548 -0.16274826 0.056762245
000310 e8 74 66 3e 5c 2f 1f be 51 4f 3b 3e 70 62 82 be
       0.22505534 -0.1554541 0.18291976 -0.25465727
000320 b0 ff 89 be 18 67 04 be f4 b1 82 3d 14 e1 51 bd
       -0.26952887 -0.12929952 0.06381598 -0.05124004
000330 f5 19 e0 bd e8 17 d7 be 81 3a 28 be 23 85 1e 3e
       -0.10942451 -0.42010427 -0.16428567 0.15480475
000340 4e 22 4e 3e 08 1a 23 bd b1 52 5e be 3d 33 4d be
       0.20130274 -0.039819747 -0.21711232 -0.20039077
000350 c1 52 01 3f 90 ee 45 3c 9e 8d b7 be b3 7f 4e be
       0.505169 0.0120808035 -0.35850233 -0.20165901
000360 0b ec 83 3d 4a aa 7c 3e 27 ae 34 3e 57 ac 14 bd
       0.06441506 0.24674335 0.17644559 -0.03629717
000370 cb 16 52 be 7c e7 7a 3e 9c 0a 93 bd 00 ad 7e 3e
       -0.20516507 0.24502367 -0.07179758 0.24870682
000380 05 c1 04 bd 72 9e d7 3d b1 95 b2 3d 4b c2 9b be
       -0.03241064 0.10528268 0.087199576 -0.3042167
000390 83 db 6b be 8a da ae 3e e6 99 57 be b6 b0 5f bc
       -0.23032956 0.34151107 -0.21054801 -0.013652971
0003a0 64 e3 35 bc 03 48 00 bd c8 2a 30 bd f2 fe 3c be
       -0.011101577 -0.031318676 -0.04300955 -0.18456629
0003b0 62 e0 f7 bd 23 6b 8a 3d f6 73 e5 bd 04 c8 0d be
       -0.121033445 0.06758716 -0.112037584 -0.13845831
0003c0 f6 84 cf 3c 29 ec f9 bc cf 42 a6 3d 48 16 cf bd
       0.025331955 -0.030508118 0.081182115 -0.10111672
0003d0 c9 53 66 3e 7c 2f 4e be fa b6 ea 3d d6 32 9d 3e
       0.22492899 -0.20135301 0.11460681 0.30702847
0003e0 f5 cc 65 3d e0 87 91 be a8 dc 18 bd e3 a7 49 3e
       0.056103665 -0.28423977 -0.03731981 0.1969295
0003f0 14 97 9f bc 2a 8d 33 be 60 bd c3 3e 2f 06 ca bc
       -0.01948122 -0.17534319 0.3823042 -0.024661152

encoder.bias f4 [40]
000000 23 e0 2c 3e 28 67 94 bd 4e fb ba bd 96 c3 22 3e
       0.16882376 -0.07246238 -0.09129964 0.15894923
000010 0e a4 6b 3e c3 b9 15 3c 4a 11 ae 3d 37 d3 b4 bd
       0.230118 0.009138527 0.084993914 -0.088293485
000020 f4 33 2d 3e 75 21 95 bc 8c c2 33 be 00 b7 61 be
       0.1691435 -0.01820443 -0.17554682 -0.22042465
000030 2e b1 e6 3d 4f 02 8a 3e 82 72 20 3e 35 c0 23 bd
       0.11264263 0.26954886 0.15668681 -0.039978225
000040 95 b5 89 be 2a 8d 77 3d ce 97 41 3d eb 90 3b 3e
       -0.2689635 0.06043736 0.047263913 0.18317
000050 dd 95 8d 3e fb 35 ac 3e 3b 48 e4 3d 14 f8 7c be
       0.276534 0.33634934 0.11146589 -0.2470401
000060 35 46 6b bd f7 be 0b 3e dc 0c 7f be fe ee 42 3e
       -0.05744 0.13647066 -0.24907249 0.19036481
000070 e4 20 1f be 81 0e c6 bd 7e d2 56 be 3d be ed 3d
       -0.1553989 -0.09670735 -0.20978734 0.11608551
000080 ef e8 d4 3d 58 db 6b 3d 58 34 f9 bd 96 5c 60 be
       0.10395991 0.05758223 -0.12168187 -0.21910319
000090 2e 09 93 bd a0 98 9b be cf ee f8 bd 43 e0 e4 bd
       -0.07179485 -0.3038988 -0.12154924 -0.11175587

transformer_encoder.layers.0.self_attn.in_proj_weight f4 [120, 40]
000000 df c4 c4 bd f1 09 18 3e af 63 bd bd c2 e0 69 bd
       -0.09607863 0.14847542 -0.09247529 -0.05709911
000010 5f 02 3f be e1 d6 2a be aa 8f 4a be 23 f7 66 3d
       -0.18653248 -0.16683532 -0.19781366 0.05638803
000020 90 98 b3 bb 7e 1c 44 be ad 9a 40 3e c6 52 f7 bd
       -0.0054808334 -0.19151494 0.18809004 -0.12076335
000030 e4 95 bb bd 55 b7 a6 3d 58 8f 99 3d f5 67 02 3e
       -0.09159449 0.081404366 0.07498044 0.12734969
000040 77 10 04 be 35 f6 20 bd 42 74 11 be c2 c2 ad 3d
       -0.12896906 -0.0392973 -0.14204505 0.08484413
000050 92 4a 40 bb 82 2c 23 bc 1d 83 05 3e 56 6d 37 3e
       -0.0029341322 -0.009959342 0.13038297 0.17912802
000060 c3 42 8e 3d 33 16 fc bb b6 65 08 3e d9 b3 31 bd
       0.069463275 -0.007693076 0.1332005 -0.043384407
000070 31 11 05 3e fa e9 15 3e 68 78 bd bd 75 78 12 be
       0.12994839 0.14640036 -0.09251481 -0.14303763
000080 65 7d 2b bc cf 4d 1d 3e 4a 39 6d bd af 77 92 3d
       -0.010466908 0.15361713 -0.057915963 0.07151734
000090 fe 9b 9f bc c9 99 2c 3e 4c fc a1 3d 4d 83 04 bd
       -0.019483563 0.1685554 0.0790945 -0.03235178
0000a0 b6 01 61 3e c9 71 0e 3e 21 28 5b bd bd ef cf bd
       0.21973309 0.13910593 -0.053505067 -0.10153148
0000b0 a5 87 9f bb 1a b3 81 3d cf e7 b9 bd 5c f7 0f 3e
       -0.004868465 0.06332989 -0.09077417 0.14059204
0000c0 58 be 25 be d5 1e 6e 3d ee e9 83 3b 48 12 d5 bd
       -0.16185892 0.058134872 0.0040256893 -0.104038775
0000d0 2c e2 5c be dc 0f 1e 3e 99 da bf bd 82 49 65 bd
       -0.21570653 0.15435737 -0.09367866 -0.055978306
0000e0 a8 84 41 be 25 2d e0 3d ca 7a 17 bc b1 cd 69 3d
       -0.1889826 0.10946111 -0.009245584 0.05708093
0000f0 fd ac 6d bd 9f ea 8f b9 8e 60 54 3e 24 69 8c 3c
       -0.058026303 -0.00027449892 0.20739958 0.017139979
000100 c3 41 03 3e da 00 0d 3d 05 68 07 be 82 5a 18 3e
       0.12818055 0.03442464 -0.13223274 0.14878276
000110 1d 49 aa 3d e5 e6 9e 3d f9 ac a3 3d 15 78 5d 3e
       0.083147265 0.077588834 0.07991976 0.21627839
000120 63 c3 52 3e cd 9f 50 bd 58 75 ee bd f1 3f 94 3c
       0.20582347 -0.050933648 -0.11643475 0.018096896
000130 41 17 8f 3d 05 a8 b4 3d af 31 fd bd 60 d8 26 bd
       0.06986857 0.0882111 -0.12362992 -0.040733695
000140 17 12 1d 3d de 8c 70 3d 4a c3 9a 3d 46 9f fe 3d
       0.03834733 0.05872809 0.0755678 0.12432723
000150 67 84 04 3e c4 37 21 3e 99 b0 8f bd c4 fc ff 3c
       0.12941132 0.15743929 -0.07016105 0.031248458
000160 14 3a 64 bd 27 fb 3c bd 9b 15 5e 3d b8 1f 2f be
       -0.05571945 -0.046137955 0.054219823 -0.17101943
000170 15 25 f1 3d 61 1f cb 3d e7 af 83 3d 73 f7 dc 3b
       0.11774651 0.099180944 0.06430035 0.0067433654
000180 2a 42 ef 3d ef e5 32 bb 40 aa 31 3c 90 7c 08 3e
       0.11682542 -0.0027297696 0.010843813 0.13328767
000190 c3 f6 6c bc 7a e4 2d 3e 81 1f 2c 3e b1 fc d6 3b
       -0.014463129 0.16981688 0.16808893 0.006560885
0001a0 7d 41 d3 3d 8b 76 18 bc a4 83 ce bd ab 5d df 3d
       0.10315225 -0.009305607 -0.10083702 0.109065376
0001b0 83 b2 cf 3d ec 78 12 be 94 c9 91 bd 1c bf 14 3e
       0.1014147 -0.1430394 -0.07118526 0.14526027
0001c0 03 04 ea 3d db d9 cf bd 96 86 d8 bd b2 26 22 be
       0.114265464 -0.101489745 -0.10572545 -0.15835074
0001d0 89 e0 d5 3d 13 17 5c 3e 6d 4a f3 3c 53 cf ce 3d
       0.10443217 0.21493177 0.029698575 0.10098138
0001e0 f0 3c d0 bd f1 f0 3d be 4d 59 99 3d 7b 29 aa bb
       -0.10167873 -0.18548943 0.07487736 -0.005192933
0001f0 b4 79 e8 bd e4 9b 90 bd 8a 45 1d bc 9b 37 0c bc
       -0.11351338 -0.07060984 -0.009599099 -0.008558179
000200 8f 02 0a be 00 34 1e 3e 95 81 e6 bd bd a0 ea 3d
       -0.13477539 0.15449524 -0.112551846 0.1145644
000210 bd 9d 28 be 94 28 c2 bc 2a 83 d0 3d b3 71 39 3e
       -0.16466422 -0.02370099 0.101812676 0.18109779
000220 19 09 ee bd e8 ec 64 3d 6b b8 13 be 01 80 35 3d
       -0.11622829 0.055889994 -0.14425819 0.044311527
000230 af 45 81 bc e8 59 d4 bd 7b 28 cb 3d 22 41 d0 bd
       -0.015780298 -0.10368711 0.099198304 -0.10168673
000240 35 e1 80 bc 29 4e a8 3c 58 8e 49 be 15 d5 11 3d
       -0.015732387 0.020545082 -0.19683206 0.0356036
000250 87 c8 e7 bd f3 29 eb 3d 87 a1 01 3e 45 21 61 3e
       -0.113175444 0.114826106 0.12659274 0.21985348
000260 ec 5a f4 3d 37 3e a4 3d 91 82 e5 3d 11 34 32 be
       0.119314045 0.08019679 0.11206544 -0.17402674
000270 39 da 7d 3d 53 a6 1e be 9c 7f c7 3a 04 9b 77 bd
       0.06197569 -0.15493135 0.0015220526 -0.06045057
000280 80 8e 5b bd e9 21 b2 3d 88 64 12 3d 3e b8 b4 bd
       -0.053602695 0.08697874 0.035740405 -0.08824204
000290 37 ce 1b be 4f 6f 46 be e8 7d dc bd 61 e1 42 3d
       -0.15215383 -0.19378398 -0.10766202 0.04757822
0002a0 c5 db 29 be d0 a0 8f 3d 0e 74 19 3e dd 78 86 bd
       -0.16587742 0.070130944 0.14985678 -0.065660216
0002b0 1e 35 00 3e 97 11 1d be ed 09 7d be 07 33 07 be
       0.12520263 -0.15338741 -0.24710818 -0.13203059
0002c0 c9 65 42 bd 84 26 9e bb 60 84 48 3e c5 fb d2 3d
       -0.04746035 -0.0048263688 0.19581747 0.103019275
0002d0 ec 12 23 3e 87 6e 75 3d 3e 54 41 3d fe b4 2a be
       0.15925187 0.05991986 0.04719948 -0.16670606
0002e0 1a 69 18 be 48 c1 30 bc 1a d3 03 3e 84 85 05 be
       -0.14883843 -0.010788269 0.12873498 -0.13039213
0002f0 04 34 09 3e 24 79 00 3e 38 67 18 bd e1 87 6e bd
       0.13398749 0.12546211 -0.037207812 -0.058235053
000300 07 99 26 3d a8 8e a1 bc 33 d9 1d be 92 bf 17 3a
       0.040673282 -0.019721344 -0.15414886 0.0005788739
000310 80 b3 33 3e dd fe 81 3d d9 6d b7 3d eb 5d 4e 3e
       0.17548943 0.063474394 0.08956499 0.20153014
000320 f0 36 5a 3d cf 68 54 3e b8 6f c9 3d 63 03 33 be
       0.05327505 0.20743106 0.09835762 -0.1748176
000330 94 41 95 3d 2c 45 b3 3d e1 53 ab 3d 50 fc 26 be
       0.07287899 0.08753428 0.08365608 -0.16307187
000340 bc 77 25 be 80 a4 61 3d 57 cc c3 bd 05 29 3b 3e
       -0.16158956 0.05508852 -0.09560459 0.18277366
000350 36 b9 0f be 39 29 86 3c fc fe 12 3e fc 62 37 be
       -0.14035496 0.016377078 0.14355081 -0.17908853
000360 2b 8b 74 bd 40 28 b0 3d 6c 39 8a bd 0b a8 50 bd
       -0.059703033 0.08601427 -0.067492336 -0.05094151
000370 13 52 ad 3d 11 97 1d bc 37 97 55 3e e1 7e 5f be
       0.0846292 -0.009618537 0.20858465 -0.21825744
000380 59 8a 72 bc 90 11 8f 3d db f6 af 3d a8 01 d6 bd
       -0.014803492 0.06985772 0.08592006 -0.10449535
000390 28 78 12 3e 36 02 89 3d ef 0b f2 bd 1d 0a b2 3d
       0.14303648 0.06689875 -0.118186824 0.08693335
0003a0 50 51 02 3e e9 18 76 be a4 3c 2d bd a5 ef 55 3e
       0.12726331 -0.2403294 -0.04229416 0.20892198
0003b0 a3 0b cb bd 9f fc 3c 3c 39 78 f4 bd 4c f6 f6 3d
       -0.09914329 0.011534839 -0.11936993 0.12058696
0003c0 6e 68 8d 3d 55 00 0d 3e b4 eb 4a bd 41 49 3c 3d
       0.06904684 0.13769658 -0.04954119 0.045968298
0003d0 03 82 46 3e ba 0c 27 3d fb a1 3b 3e be 7f 1d 3e
       0.19385533 0.04078362 0.1832351 0.15380761
0003e0 2d 0e e3 bc e4 45 df bd f0 b4 30 bd b7 b2 4e be
       -0.02771672 -0.109020025 -0.043141305 -0.20185362
0003f0 da b8 eb bc e4 53 02 be 3e 33 91 bd fc 47 43 3e
       -0.028774668 -0.12727314 -0.07089852 0.19070429

transformer_encoder.layers.0.self_attn.in_proj_bias f4 [120]
000000 74 4b 53 3b c8 93 b0 3c f5 d8 86 3b ee 7b a7 bc
       0.0032241018 0.021554843 0.0041152188 -0.020444836
000010 75 90 33 3d 83 ce 36 3d d2 a9 0a bd c8 68 c3 bc
       0.043838937 0.04463054 -0.03385336 -0.023853675
000020 7f 5c 68 3b 17 39 81 ba d3 ae 0a 3d 2e ce 91 bb
       0.0035455523 -0.0009858933 0.03385813 -0.0044496274
000030 b2 5f 9b bc c5 14 10 3d 22 b7 9d 3c 75 34 d8 3c
       -0.01896653 0.035176057 0.019252364 0.026392201
000040 45 6b fb 3b 89 4b 56 bc 72 d9 62 3c c5 7d 32 3d
       0.0076726996 -0.013079532 0.013845788 0.043576974
000050 3b cd 2b 3d 5b 18 33 bb 67 a2 34 3d 67 e9 4e bc
       0.04194377 -0.002732775 0.04410019 -0.01262889
000060 1f 22 5a bd 6f ad 4c 3c d8 f4 c3 bc 88 fe f8 3c
       -0.053255197 0.012492522 -0.023920462 0.030394807
000070 d5 2b 06 bc dc 1a 82 3c 05 c0 86 3a e3 01 02 bc
       -0.008189161 0.015881948 0.0010280615 -0.00793502
000080 7f 12 43 3d 7c e7 b4 bc b1 1f 89 3c 99 ef a9 bc
       0.04762506 -0.022083037 0.016738744 -0.020744132
000090 58 5c 6e bc 10 97 af bc c9 5e 46 bd a5 04 c3 3c
       -0.014548384 -0.021434337 -0.048430238 0.023805926
0000a0 1b f4 1f 3d e0 73 e1 3c 5b fe 50 3b a1 f1 1b bc
       0.039051156 0.027521074 0.003188989 -0.009518058
0000b0 fc ba 36 3c de ac 05 bc ff bf 78 3d 3f d1 6a 3c
       0.011152979 -0.0081588905 0.060729977 0.014332115
0000c0 b9 3b 54 3d 10 06 1f 3d c2 e2 d0 bc ea 88 14 3d
       0.05181477 0.03882414 -0.025498752 0.036263384
0000d0 17 83 c7 bc 81 93 40 bd 6a 76 fb 39 01 08 c3 bc
       -0.0243545 -0.04701567 0.00047962676 -0.023807527
0000e0 53 fc 12 bd 5f aa 1f 3c dd 03 f6 3c e3 38 ee bc
       -0.035885166 0.0097452095 0.030031139 -0.02907986
0000f0 ef 46 34 3c 4a bd bd 3a 2b d5 b3 3c 87 32 15 bc
       0.01100324 0.0014475968 0.021952232 -0.009106285
000100 c5 eb 9a bc 30 75 ce bc 93 be 41 bc 4b 96 2f 3c
       -0.018911252 -0.025202364 -0.011825222 0.010716985
000110 6d 99 17 3a db 8c dc 38 53 8f 69 bd cf 46 48 bd
       0.0005783055 0.00010516654 -0.05702145 -0.048895653
000120 6a a5 19 3d 0e c8 02 3d 9e 34 23 ba 9e 5f 1f bd
       0.037511267 0.03192907 -0.0006225797 -0.038909547
000130 0a 57 6a bd 65 59 f9 3c df 62 6e bb d1 e4 d1 3c
       -0.057211913 0.030438134 -0.003637485 0.025621803
000140 2e 08 6b 3c b2 8b 54 bc e6 3d 88 3c 7d 8a 0e bd
       0.014345212 -0.012972759 0.016631078 -0.03480004
000150 8f 39 39 bc 50 af 95 3c e1 a3 54 bc 47 b4 5f bc
       -0.011305227 0.018272072 -0.012978525 -0.013653821
000160 11 03 19 3d 9a bf 3d 3d 6a 93 f0 3c ee 0b a1 3b
       0.03735644 0.046325304 0.029367168 0.004914752
000170 94 72 08 3b 6b 25 0a 3d 92 40 2f bd 70 f2 e5 bc
       0.0020820247 0.03372709 -0.04278619 -0.028069705
000180 e1 50 67 3c 3e c0 1b 3d 88 ce e3 bb 43 4a af bc
       0.014118404 0.038025133 -0.0069521107 -0.021397715
000190 8c 3a 91 bb f7 db 8c bc 14 6b d1 3c cc 53 b6 bc
       -0.004432028 -0.017194731 0.025563754 -0.022256754
0001a0 d7 b0 e5 3c 49 72 a8 bc 1b d1 93 3b 60 b4 b9 bb
       0.028038425 -0.020562308 0.0045110113 -0.0056672543
0001b0 f8 ec 9f 3c f6 18 68 3c c3 cd 23 bc a4 0a 0e 3b
       0.019522175 0.014166107 -0.009997788 0.0021673823
0001c0 f8 0c c5 3c cc fb 27 bc 88 fe 63 3c e8 38 ae bc
       0.024054036 -0.010252904 0.013915665 -0.02126737
0001d0 4b e1 81 bc d0 45 03 3d 1e b7 a2 3c b0 33 e1 3c
       -0.015854498 0.032049 0.019862708 0.027490467

transformer_encoder.layers.0.self_attn.out_proj.weight f4 [40, 40]
000000 db 8d 34 bd ed 26 90 bd f8 d7 d3 3c 1c b5 5f bd
       -0.044080596 -0.070386745 0.025859818 -0.05461608
000010 6e b0 9a bd 01 fb 57 bd 25 bc 43 3d 08 f2 5a 3d
       -0.075531825 -0.05272961 0.04778685 0.053453475
000020 b1 81 d5 3c 93 84 a2 bd 0f ac 0a bd 97 fd 81 3d
       0.026062818 -0.07935443 -0.033855494 0.063471965
000030 cb 27 62 3d e6 78 07 3e 69 ac 3d 3d 85 50 bd bc
       0.05521373 0.13229713 0.046307 -0.023109684
000040 89 34 b1 bc db 80 f6 3c ae 37 aa 3b 17 f5 c5 bc
       -0.021631496 0.03009074 0.005194626 -0.02416472
000050 c3 2f 5b bd 9f 5a 70 bc 4a e4 f4 bd d0 1e b3 bd
       -0.053512346 -0.014670043 -0.11957605 -0.087461114
000060 99 9f 9a 3d 83 4a c4 3d 89 61 53 3e d8 25 da bd
       0.07549972 0.095845245 0.20642675 -0.10651749
000070 28 42 b3 3c 42 d0 89 3d 84 59 fa bd 9e 6c 43 bd
       0.021882132 0.06729175 -0.12224105 -0.047711007
000080 06 4b d7 bd 9e 7a f9 3c 72 a6 30 be 84 88 8c bd
       -0.105123565 0.030453976 -0.17250994 -0.06861976
000090 b2 07 a7 3c 2d d1 ec 3b d4 66 9e 3d bf 99 b6 bd
       0.020389412 0.007227084 0.07734457 -0.089160435
0000a0 6f 7d 8a bc 27 f9 ff bd 8c cf 07 be 62 e2 b1 3d
       -0.016905515 -0.12498694 -0.13262767 0.08685757
0000b0 86 6d 1c bd 93 07 4c 3d 7e 8d 7f bd b1 f5 97 3d
       -0.038190387 0.04981191 -0.062390797 0.07419909
0000c0 6d 68 f6 3d 8b f8 f6 3d 16 44 92 3d ff c9 18 3e
       0.120316364 0.120591246 0.071418926 0.14920805
0000d0 67 60 9f 3e 13 4d d0 bc 33 56 76 3d 76 a6 e6 bd
       0.31128237 -0.025427377 0.0601408 -0.11262219
0000e0 4f 86 29 bd b7 e2 0d 3e 7e 48 39 3d 79 fb ba 3c
       -0.041387852 0.13856016 0.04523515 0.02282499
0000f0 80 9f 56 3e 28 15 16 be 45 c9 52 3e 4d 51 80 be
       0.20959282 -0.14656508 0.2058459 -0.25062028
000100 01 22 16 bb e7 e9 0d 3e 01 d0 fe bd b2 e6 32 be
       -0.0022908452 0.13858758 -0.12442017 -0.17470816
000110 14 8c 18 be 8d 92 09 be 6e e7 71 bd e7 c6 dd 3d
       -0.14897186 -0.13434811 -0.0590586 0.10828953
000120 e4 8c 15 3e c4 7e ba bd 12 3f 91 3c 47 d8 ef bc
       0.14604527 -0.0910621 0.01773027 -0.029277934
000130 de 8b bf bd 13 18 4c be fe e1 1b 3e dd 2d b4 3d
       -0.093528494 -0.19931059 0.15222928 0.0879781
000140 cd 26 d7 bd 3e 10 4b bd 97 ad 40 bc 44 56 2f 3e
       -0.105054475 -0.049576037 -0.011760137 0.17122751
000150 e3 45 1a be 3b 5e 2e bb 4d 8f 99 bd f7 94 e0 bd
       -0.15065722 -0.0026606459 -0.074980356 -0.10965913
000160 be ea ec bd 39 51 78 bd 00 65 f9 3d 73 12 ea 3d
       -0.11568211 -0.060624335 0.12177467 0.114293
000170 35 92 1e 3e 23 9c f9 3b e8 43 09 bd 17 ff ba bd
       0.15485461 0.00761749 -0.033512026 -0.09130686
000180 c4 18 ad 3c 60 09 d9 bd c2 16 24 bd 63 a2 f5 3d
       0.021129973 -0.10597491 -0.040060766 0.119938634
000190 41 31 63 3e 78 78 f5 bc a6 54 30 3d f0 d5 80 be
       0.22186758 -0.02996467 0.043049477 -0.2516322
0001a0 8d aa b1 3c 24 ac da 3d ca 90 bf 3c 13 01 cb 3d
       0.02168777 0.106773645 0.02338447 0.09912314
0001b0 80 37 cc 3d 60 50 dc 3c 5b f7 1d be fa 8b 09 be
       0.09971523 0.026893795 -0.1542639 -0.13432303
0001c0 cc 3f df 3d a7 43 4e bd fd 1c be bd d4 be fd 3d
       0.1090084 -0.050357487 -0.09282873 0.12389913
0001d0 ca 04 cd 3d 57 77 ab bd 06 43 41 be 79 46 07 be
       0.10010679 -0.08372372 -0.18873224 -0.13210477
0001e0 fc 7e 57 be a5 e0 cb 3d 79 0a ac bd d7 d2 3e 3d
       -0.21044534 0.09954957 -0.08400435 0.04658779
0001f0 60 d9 55 bd 2c 36 fb 3a ce 98 05 bc b1 57 02 bd
       -0.052209258 0.0019165925 -0.008154107 -0.03182191
000200 44 27 16 bd 88 0c d9 3c 9a c0 55 be f9 d3 f3 3d
       -0.03665854 0.026495233 -0.20874253 0.11905665
000210 bf 2a ac bc eb 59 9f bc 02 c4 bd 3d 9e 18 5f bd
       -0.021016477 -0.019452056 0.09265901 -0.054466836
000220 7a 9f 41 bd 42 5b 9c 3d 7d 61 d2 bd db ac 48 3c
       -0.04727123 0.076345935 -0.10272501 0.012248243
000230 ab 49 42 be d6 b0 8c bc e7 5d 0f 3e c5 bf 71 3d
       -0.18973415 -0.017174166 0.14000665 0.059020776
000240 fa e9 8a bd 7b 9d 43 3c 70 a4 47 3c a0 df 3d 3e
       -0.06782909 0.011939402 0.012185201 0.18542337
000250 e1 66 ae bd e5 2d f1 bd 03 b5 8a bd 3e b5 93 bd
       -0.08515716 -0.11776332 -0.067728065 -0.072123036
000260 9e 78 86 3c d6 13 5d bd c0 65 6a 3d c4 15 dc bd
       0.016414937 -0.053973995 0.057225943 -0.10746339
000270 cc 85 ba bd 44 19 b6 bd 11 31 98 bb f4 4b 36 3d
       -0.09107551 -0.08891538 -0.004644521 0.04450603
000280 70 72 e3 bb 19 61 8e 3d 9d fc 23 be 31 11 b1 bc
       -0.0069411322 0.06952114 -0.16014333 -0.021614643
000290 ac 21 94 3d 6a 72 f1 3d 2b 75 8f bc 04 ec 53 be
       0.07232985 0.11789401 -0.017511925 -0.20695502
0002a0 72 94 6c 3d 80 ef bb bd 72 20 4c bd d1 21 8d bd
       0.057758756 -0.091765404 -0.04983563 -0.068912156
0002b0 1f 69 a1 3d 43 df a6 bc 0c 24 7c 3c 48 6c 22 3e
       0.078813784 -0.020370131 0.015389454 0.15861619
0002c0 8f 94 40 be 8e a2 66 3d 91 91 06 3e b2 56 56 bc
       -0.1880667 0.056307368 0.13141467 -0.013082193
0002d0 ff 52 8b bd cf df ab 3d 7a 8f 70 bd 83 5d 91 bc
       -0.068029396 0.083922975 -0.05873058 -0.017744785
0002e0 99 52 05 3e f6 f9 9d 3b 65 2f 8d 3d c4 38 5c 3e
       0.1301979 0.0048210574 0.068938054 0.2150603
0002f0 ab b2 1c 3e 68 b0 8e 3d 85 13 42 3e a1 f8 ff 3d
       0.15302531 0.069672406 0.18952759 0.12498594
000300 4e 85 01 3c b9 c8 bb 3d b0 3e 89 3d 55 21 06 be
       0.0079053175 0.09169144 0.0670141 -0.13098653
000310 a3 22 63 bd d9 69 d9 3d c4 ca d0 bd 2f ef 14 bb
       -0.055452954 0.10615892 -0.101949245 -0.0022725572
000320 be 01 cb bd c9 a5 80 bd 3a 59 ec 3d 38 81 ed bd
       -0.09912442 -0.06281621 0.11540456 -0.11596912
000330 54 d6 86 3d 4f 48 b2 bc 3a 7b ac 3d 4e 7d 2a bd
       0.065838486 -0.021762995 0.08421941 -0.041623406
000340 d8 92 6f bd 7d ff c1 bb c7 c3 83 3d 2a fa 10 be
       -0.05848965 -0.005920349 0.06433826 -0.1415793
000350 d3 61 e1 3d 23 43 ce bd b1 fa d4 3d 6f 47 0d 3e
       0.110049866 -0.10071399 0.10399378 0.13796781
000360 57 74 ea bd 6d 37 86 3b 04 1b b4 bc 0c bb f8 3d
       -0.11447971 0.0040959627 -0.021985538 0.12145051
000370 ab 7e 6a 3d a4 13 9c bc 0d 72 a9 3d f3 fa d9 bd
       0.057249706 -0.019052334 0.082737066 -0.10643568
000380 1c 30 28 be 6b 21 a4 bd f3 64 fe bd 28 90 95 bd
       -0.16424602 -0.080141865 -0.12421598 -0.07302886
000390 fa bb 80 bc c3 90 1a 3d 38 d5 47 bc 2e 83 92 3d
       -0.015714634 0.03773571 -0.012196831 0.07153927
0003a0 b5 13 79 bd 0f da 73 3d b8 56 c7 bd 49 bb b4 bd
       -0.06080981 0.05953413 -0.09733337 -0.08824784
0003b0 48 7b b7 3d cf 80 b9 3d 0b 97 81 bc d9 64 b3 bc
       0.08959061 0.090577714 -0.015819093 -0.021898674
0003c0 3d 60 47 be 7b 31 43 bd 21 83 70 3d 7a 75 ee 3d
       -0.19470306 -0.04765461 0.058718804 0.116435006
0003d0 bb d7 ac bd a7 48 49 3d f6 f4 07 bd 21 68 0c be
       -0.08439585 0.049141552 -0.033192597 -0.13711597
0003e0 a9 9b e9 3b ae e3 e9 bd 99 01 fb bd 9e f6 b6 3d
       0.007129152 -0.114203796 -0.12256164 0.08933757
0003f0 5a ab a2 3c 0c be 36 be b3 00 61 3b fd 93 a0 3d
       0.019857097 -0.17845935 0.0034332692 0.078407265

transformer_encoder.layers.0.self_attn.out_proj.bias f4 [40]
000000 70 b4 a8 bc d9 26 a7 bc d0 c0 ea 3c 95 20 cc 3b
       -0.020593852 -0.020404266 0.028656393 0.00622947
000010 b6 23 5f 3d a0 9c 7f 3c b2 c2 89 3c 9d 44 44 3c
       0.054477416 0.015601307 0.01681647 0.011979249
000020 fe 39 29 bd d9 43 e8 ba 5a 96 e9 3c 16 ef 3b 3c
       -0.04131507 -0.0017720415 0.028514076 0.011470577
000030 8c 61 ae 3d d9 d1 58 3c 7f 47 6f 3c f2 e8 8a bc
       0.08514699 0.013233625 0.014604448 -0.01695678
000040 92 37 cf 3c f1 5d ae bc 98 74 24 bd 86 a8 e5 3b
       0.025295053 -0.02128503 -0.040150255 0.007008615
000050 b7 e9 ab 3d 1e f1 d8 bc 40 ee e4 bc 9b 74 1d 3d
       0.08394187 -0.026482161 -0.027945638 0.03844128
000060 ce 66 46 3c bb 8e 1c bd fb 0f b9 bc 1a 16 8f bd
       0.0121094715 -0.038222056 -0.022590628 -0.069866374
000070 e1 4e 09 bc 62 b9 bd 3c e2 b0 39 bd f8 75 2e 3b
       -0.008380623 0.023159686 -0.045334704 0.0026620608
000080 00 ae bf bc 79 fa 26 bb a4 ad 6a bd 91 0b 81 bc
       -0.0233984 -0.0025478883 -0.057294503 -0.015752586
000090 a6 99 c8 3c 8d d2 ad 3c 02 67 97 3c 8a 91 77 3d
       0.024487328 0.021218562 0.018481735 0.06044153

transformer_encoder.layers.0.linear1.weight f4 [396, 40]
000000 e0 6e ec bd 96 62 db 3d 43 d3 1b be 71 b4 c2 3d
       -0.11544585 0.10712163 -0.15217309 0.09507073
000010 6b 24 95 bc f1 8c 18 3e 38 ba 21 3e bf f7 34 3e
       -0.018205842 0.14897515 0.15793693 0.17672633
000020 89 10 8c 3d 52 3e bb 3d 86 9b d8 3d c9 66 8e 3d
       0.06839091 0.09142746 0.10576539 0.069531985
000030 81 7f 4e 3d 7b b0 ae bc 51 fd 6f bd 33 b6 4d 3e
       0.050414566 -0.021324387 -0.05859119 0.20089035
000040 f8 cc ec bd ca bf 26 3d 87 c6 46 be dd 5a 4d bd
       -0.11562532 0.040710248 -0.1941167 -0.050135482
000050 11 6d 26 be ca 3e 49 3e cf a1 05 3e 59 3f d6 3c
       -0.16252543 0.19652858 0.13050006 0.026153253
000060 7f 7b db bd ca e5 07 be 3d 42 e3 3d 3a 66 fb bc
       -0.107169144 -0.13271251 0.11096618 -0.030688394
000070 8c c4 3b bd 4a 47 4d 3d 7a 1a 1d be 39 38 46 be
       -0.04584174 0.050116815 -0.15342131 -0.19357385
000080 fc 50 38 3c 49 6c 91 bd 6b 7a 33 3c 30 bf 16 bd
       0.011249777 -0.07100732 0.01095448 -0.036803424
000090 c3 ba dc bd 8c a1 46 bd e8 f4 3b 3e de 3c 2f be
       -0.107778095 -0.048493907 0.18355143 -0.17113063
0000a0 18 ea 4c 3d 6f 55 fe bd 98 87 b1 bd 14 a9 95 3e
       0.050027937 -0.12418639 -0.086684406 0.2923056
0000b0 c6 7d 53 be 54 63 8c bd 22 43 3d 3e e2 48 01 3e
       -0.20653448 -0.06854883 0.1848264 0.12625459
0000c0 b8 b3 b4 3d c6 06 bc bd 45 fc 3b 3d 60 60 2f 3d
       0.08823341 -0.091809794 0.04589488 0.04281652
0000d0 10 48 48 3d 50 50 c4 3d 25 a0 c5 bd ea 08 2e be
       0.04889685 0.09585631 -0.09649686 -0.16995588
0000e0 a2 48 5e 3d 40 a5 18 be 74 3e 97 3d cc 2d 06 be
       0.054268487 -0.14906788 0.07384959 -0.13103408
0000f0 a6 51 6e bd 6f b1 a7 bd 0c ce f1 3c 28 40 c0 bc
       -0.058183335 -0.0818814 0.029517196 -0.023468092
000100 fa 56 2c bd e8 fb 5e be 83 34 6a 3d 2b 65 ce bd
       -0.042075135 -0.21775782 0.057178985 -0.1007789
000110 98 e8 e8 3d d7 1d 15 3e d9 85 e7 3d 1e 89 fd bd
       0.11372489 0.14562164 0.11304826 -0.12379669
000120 b3 8e 62 bd 98 e2 ca 3d 3e 85 57 bd be 49 64 bd
       -0.05531187 0.099065006 -0.052617304 -0.05573439
000130 c9 a3 96 bd dc 8a 1f be ca 65 06 bd 20 fd eb bd
       -0.07355458 -0.15580314 -0.032811917 -0.11522889
000140 e8 26 47 3c 17 2f 34 3d 98 d5 5e 3e be a2 38 bd
       0.012155272 0.04399022 0.21761167 -0.045077078
000150 ec d5 53 bd 90 6e 13 3e 56 eb 05 be d7 44 54 bd
       -0.051717684 0.14397645 -0.13078055 -0.051823463
000160 9f e9 ec 3d ea 09 9d 3d d6 01 10 3e 1a 85 0d 3e
       0.11567997 0.076679066 0.140632 0.13820305
000170 0a 4d 57 3e 25 5e 1e bc ab 2f 6d be 4b 7d ea 3d
       0.21025482 -0.0096660005 -0.23162715 0.11449679
000180 ba 9c 29 3d 2f 9f b8 3d a6 05 d4 bd ec cc 25 3e
       0.04140923 0.09014737 -0.1035264 0.16191453
000190 23 bd b5 3d 3b d8 94 38 cd 05 22 ba 31 1d e0 3d
       0.088739656 7.097466e-05 -0.0006180674 0.10943068
0001a0 87 70 37 3e b4 48 c1 bb db c5 96 3c b3 4f 23 3e
       0.1791402 -0.0058985595 0.018404892 0.15948372
0001b0 b1 39 b7 bc 5b 6d 42 be 0b 92 40 3e 26 62 c7 3d
       -0.022366377 -0.18987028 0.18805711 0.09735517
0001c0 b5 bc 31 be c5 55 5c 3c 1c b8 cb 3d c1 e9 23 3e
       -0.17357142 0.013448183 0.099472255 0.16007139
0001d0 71 73 b0 bd 08 14 ce bc c0 07 83 3c d4 bb 32 bd
       -0.08615769 -0.025156036 0.015994906 -0.043636158
0001e0 97 a0 bc be 91 37 3e be cf 5c 98 3d 16 cb 12 3d
       -0.3684127 -0.18575884 0.07439577 0.03583821
0001f0 78 95 fd 3c ec 67 cc bd 05 41 21 3c f8 9e a1 bc
       0.030955061 -0.09980759 0.009842162 -0.019729123
000200 0b 28 c2 3d 7d f5 88 3d bf 7d 51 be 45 ab a1 bd
       0.09480294 0.06687448 -0.20458125 -0.07893995
000210 b1 24 1d 3e f4 35 61 bd 61 9e 52 3c a3 5b 24 bb
       0.15346028 -0.054983094 0.012855143 -0.0025079034
000220 06 d2 a2 be 0e 82 c8 3d d4 40 a5 3d 54 59 2f 3c
       -0.3180086 0.09790431 0.080690056 0.01070245
000230 07 ed 9b 3d 56 c2 41 3b 44 e9 2c be 94 47 ae 3d
       0.07613569 0.0029565296 -0.16885859 0.08509746
000240 f1 0f 3c 3d 3e c0 05 3e 0e 3f 57 3e 0d 42 6c 3d
       0.04591364 0.13061616 0.21020147 0.05768018
000250 de 50 9c 3d 3b 11 0b be ee a0 14 3e d2 f7 14 3e
       0.07632612 -0.13580792 0.14514515 0.14547661
000260 b4 73 ea bd 74 5d 9c 3d 81 dc dc bd 62 16 4a bd
       -0.1144785 0.07635012 -0.10784245 -0.049337752
000270 c0 df 07 3e 19 37 96 be 95 5a 94 3c 8e b1 96 be
       0.13268948 -0.2933891 0.0181096 -0.29432338
000280 1f c4 c8 3d cb de be 3c 8d 76 92 bb 9b df 85 bd
       0.09803032 0.023299595 -0.0044696988 -0.0653679
000290 52 5a 0c be 29 4c 13 3e e3 2a 13 be 33 53 c3 bd
       -0.1370633 0.14384522 -0.14371829 -0.09537353
0002a0 82 90 92 bd 72 88 f3 3c 73 45 f9 bc c5 ac ba bd
       -0.07156469 0.029728148 -0.030428624 -0.091149844
0002b0 0a dc 96 3d d3 32 45 3e 6c 76 e9 bd 3f 12 f7 bd
       0.07366188 0.19257669 -0.1139954 -0.12064027
0002c0 3a d7 a7 3d f0 7e bf 3d 47 7f 8f 3d 6c 22 f9 3d
       0.08195348 0.09350383 0.07006698 0.121647686
0002d0 11 36 19 be 03 42 14 3e bb e4 96 bc 12 d6 2d bd
       -0.14962031 0.14478306 -0.018419614 -0.04244048
0002e0 38 e5 13 3e c6 65 10 3e bd 0d eb 3d bc 7c 07 3e
       0.14442909 0.14101323 0.1147723 0.13231176
0002f0 1a 79 a7 bd f7 86 f3 bd 52 99 8e bc 3c fd 87 bd
       -0.08177395 -0.11890977 -0.017407093 -0.066400975
000300 6a e4 3c be 96 c1 15 bc 3f ab 0c be 19 98 3a be
       -0.18446508 -0.009140393 -0.137372 -0.18222083
000310 ba c8 4c bb 52 fb c6 3d e7 5c 78 bd a8 59 48 3d
       -0.0031247572 0.09715904 -0.060635474 0.048913628
000320 35 3e ce bd 95 10 45 be 6b 13 03 be 41 2d 05 be
       -0.10070459 -0.19244607 -0.12800376 -0.13005544
000330 13 58 8a bd ac 39 be bd ef 39 83 3d e3 74 37 bd
       -0.0675508 -0.09288344 0.06407534 -0.044789206
000340 a4 fe 4f bd 70 c6 a4 bd 78 63 1b 3b 30 69 3e 3e
       -0.050779954 -0.080456614 0.002371041 0.18594813
000350 cc d0 91 bd dc 66 35 3d e0 60 16 bd 02 bb 03 bd
       -0.07119903 0.044287547 -0.03671348 -0.032160766
000360 4d 1b 00 be 6c 06 96 bd 62 10 ba bd 39 c9 b0 3e
       -0.12510414 -0.073254436 -0.09085156 0.3452852
000370 33 0e 1b 3e c0 2a 2d 3d 00 03 1c bc 41 6e a4 bd
       0.15142135 0.042277098 -0.0095222 -0.08028842
000380 d6 82 4b 3e 4d 88 a9 bd e1 a8 9e bc ef a4 35 be
       0.19874129 -0.082779504 -0.019367637 -0.17738698
000390 56 4f 0a 3e e3 7c c8 3d 87 9c 84 3c 0c ff 1e bd
       0.13506827 0.09789445 0.01618792 -0.03881745
0003a0 05 19 9b bd 35 f2 a6 3d 0f cc f4 3d 46 6b fa bd
       -0.075731315 0.08151666 0.119529836 -0.12227492
0003b0 9d a4 30 3e a6 09 d6 bd 96 4a 68 bd 6e f9 a2 3d
       0.17250295 -0.10451059 -0.056711756 0.07957731
0003c0 41 a1 6a bd e2 ab e8 3d 17 c7 1a bd 4e a9 97 3c
       -0.05728269 0.11360909 -0.037787523 0.018513348
0003d0 73 29 ad 3d cf d2 f4 bd 9b 6f 12 be 40 ac 96 3a
       0.084551714 -0.11954271 -0.14300387 0.0011495426
0003e0 cd ee 07 be 17 d8 d5 3d f0 13 e2 3d ac 0c 8f 3d
       -0.13274689 0.104416065 0.11038959 0.06984839
0003f0 3f d5 a2 3b 67 79 2f 3e 22 75 9d bd ca e1 fd bd
       0.0049692686 0.17136155 -0.07688357 -0.123965815

transformer_encoder.layers.0.linear1.bias f4 [396]
000000 32 27 87 bc 31 45 8b 3c 3c be f8 bc 40 75 ef bd
       -0.016498182 0.017000766 -0.030364148 -0.116922855
000010 80 54 e7 3c 3c 82 93 3c 1a 4b 83 bd 62 96 0f 3d
       0.028238535 0.018006437 -0.06410809 0.035055526
000020 43 4b 56 3d 19 57 88 3d 61 f5 74 bc 73 11 73 3d
       0.05231787 0.066572376 -0.014951081 0.059342813
000030 c5 ca 01 3e a5 b2 fa 3d b7 f5 5c bd 0c 2e 30 be
       0.12675007 0.12241105 -0.05394527 -0.17205065
000040 14 06 e8 bd f1 2a 15 be 74 43 b7 3d ea d0 22 be
       -0.11329284 -0.14567162 0.089484125 -0.15900007
000050 a0 47 1f be 4b 28 82 bc ce 94 08 be 03 00 16 be
       -0.15554667 -0.015888354 -0.13338014 -0.14648442
000060 ee 78 81 3c 81 b9 0d bc a0 a2 0f be 7d 6d 56 be
       0.015804734 -0.008650185 -0.1402688 -0.20940204
000070 90 ba db bd 71 a6 81 bc 7a df 77 bd 97 f1 18 3d
       -0.10728943 -0.015826436 -0.06051586 0.037339773
000080 a7 20 2c be cf ab 3f bd 8b a3 99 3c 1a 16 02 3e
       -0.16809331 -0.04679471 0.018754741 0.12703744
000090 67 84 8f 3d 3e d4 89 3b c2 8d d7 3c 24 d9 81 bd
       0.070076756 0.0042062094 0.026312713 -0.063402444
0000a0 ce 2e 3e bd d9 b9 2c 3d 07 60 02 bd 62 74 b1 bd
       -0.046431355 0.042169426 -0.03182986 -0.086647764
0000b0 da ec c3 bd b8 e5 9e bd 4e 90 68 bd 87 7f cd 3d
       -0.0956666 -0.07758659 -0.056778245 0.100340895
0000c0 a9 c4 68 3e 19 78 96 bd 7f da d1 bd 5e 56 80 3d
       0.2273127 -0.073471256 -0.10246753 0.06266473
0000d0 28 a8 aa 3d 7f d8 a3 3d 9d a3 23 be 70 d3 0f be
       0.083328545 0.08000278 -0.15980382 -0.14045501
0000e0 f6 8c 88 bc c6 8f a3 bd 6d 53 30 bd 7e 63 dc 3d
       -0.016668778 -0.07986407 -0.04304831 0.10761164
0000f0 42 b5 41 bd fa 9a 49 3d 47 75 15 3d 6b f1 48 3d
       -0.047292 0.049220063 0.036488798 0.04905836
000100 03 40 ca 3d a3 12 f9 bc f4 e3 9a 3d 40 fb 0b bd
       0.098754905 -0.030404394 0.0756301 -0.034175158
000110 f9 69 a0 bd 83 f1 b1 3d d6 bf 19 3e 75 34 fa 3c
       -0.07832713 0.08688643 0.15014586 0.030542592
000120 31 33 d5 3d b9 86 54 bd 44 d6 22 be 00 63 34 be
       0.104101546 -0.051886294 -0.15902048 -0.1761589
000130 59 55 9d bd 08 f2 f0 bd 8b 8d 76 bd 6f 05 60 3d
       -0.076822944 -0.11764914 -0.06019358 0.054692682
000140 a7 e9 05 be 3f 3f ee bd 25 2e 0e be 78 db 13 3d
       -0.13077413 -0.11633157 -0.1388479 0.036097974
000150 67 81 38 be 10 c6 97 3d fe 76 2f be 3b 0e 59 3d
       -0.18018113 0.07410824 -0.17135236 0.052992087
000160 d6 0d 71 bd b5 14 16 3d e0 b0 b6 3d bd 5a 14 be
       -0.058851086 0.03664084 0.08920455 -0.14487739
000170 ab e9 84 be 44 d8 52 be 3d b5 74 bd 2f a2 05 bd
       -0.25959525 -0.20590311 -0.059743155 -0.032625373
000180 d5 89 2b be ad ab 9c bd 7f 01 83 3c 5a be 26 be
       -0.16751797 -0.07649932 0.015991924 -0.16283551
000190 99 16 06 be 71 35 ff bd d3 97 0b be 81 b8 ad bd
       -0.13094558 -0.12461365 -0.13632135 -0.08482457
0001a0 d1 d6 26 be 12 42 65 bd 5c f1 42 3c cc 5b 9a 3d
       -0.16292883 -0.055971213 0.011898365 0.0753704
0001b0 59 4d 0f bd 76 08 9a bd 2b b4 9b 3d 2d eb 1d 3c
       -0.034985874 -0.07521145 0.07602724 0.00963859
0001c0 9a f9 c4 3d 7e 7a da bd b3 0f b8 3d 7a fc f1 bd
       0.0961792 -0.10667895 0.089873694 -0.11815734
0001d0 1b c7 04 bd e0 42 30 bd 6c aa e4 3b 0f c2 f0 bd
       -0.032416444 -0.043032527 0.0069783237 -0.11755764
0001e0 5a f6 bd bd 0d cb 08 be 09 c2 1c be 3a 26 15 be
       -0.092755035 -0.13358708 -0.15308394 -0.14565364
0001f0 fd 74 9e bd 08 5e e0 bc 9b ff 95 bd 6a c2 70 3d
       -0.077371575 -0.027388588 -0.073241435 0.058779158
000200 b5 c3 da bc 8c 23 97 3b cf 82 89 3d 6b 43 07 be
       -0.026704649 0.004612392 0.06714403 -0.13209312
000210 5b 95 d3 3d 42 16 27 3d 5b b4 b6 3d bb 7c c8 ba
       0.10331222 0.04079271 0.08921119 -0.0015295962
000220 dc 69 a9 3c 5d 72 a5 3c 7e 37 14 be ab 25 f7 bd
       0.02068036 0.020196134 -0.14474294 -0.120677315
000230 2f 89 01 be eb cc 56 be 05 6d 6f bd 80 42 8b bd
       -0.12649988 -0.20976608 -0.05845358 -0.06799793
000240 a7 46 69 bc c2 f2 76 bd c2 4f 90 bd 30 66 88 3c
       -0.014238036 -0.060290106 -0.070464626 0.01665029
000250 d0 a9 fd bc 88 1e 6a 3c 0d 5b 02 3e 5e 04 0a be
       -0.030964762 0.014289506 0.12730046 -0.13478228
000260 ce 87 eb 3b c2 4f d6 bd 56 a3 33 be 24 8f 0a 3e
       0.00718782 -0.10464431 -0.17542776 0.13531166
000270 d4 f7 f5 bd d4 2e 93 3d 66 07 12 bd 48 61 e2 3c
       -0.1201016 0.07186666 -0.035651587 0.027634278
000280 48 19 0d be ed d1 90 ba f6 da 21 3d 0b ca 63 bc
       -0.13779175 -0.0011048891 0.039515458 -0.013903151
000290 83 14 39 3c cc cf 86 3d 10 65 1d 3e f4 9c 3d 3d
       0.011296394 0.06582603 0.15370584 0.04629226
0002a0 95 4c 22 3e e5 35 ca bc f3 2f 7e bd 40 8e af bc
       0.15849526 -0.024683902 -0.062057447 -0.021430135
0002b0 45 3b b7 3d 07 a0 9f bd ae 00 33 3a 86 ba d4 3d
       0.08946852 -0.07794195 0.00068284094 0.10387139
0002c0 f2 e6 3f be 3b 4d 35 bc ec b0 f0 bd 54 4e 49 bd
       -0.18740442 -0.011065776 -0.11752495 -0.049146965
0002d0 12 90 e2 bd 7c 4a bb bd 2d b6 c0 bd ee 0a 18 be
       -0.110626355 -0.09145066 -0.09409747 -0.1484792
0002e0 8b 0b 0c 3c 36 c3 55 bd fd d9 92 3b 87 d1 85 3d
       0.008547674 -0.05218812 0.0044815526 0.06534105
0002f0 a7 e6 c1 bc f6 85 79 3d ba fe f9 bd 21 81 a8 3d
       -0.023669554 0.06091877 -0.12206788 0.082277544
000300 a6 1b 93 bb c8 1c 03 3e 83 dc 33 3d 3b 64 d4 bd
       -0.00448938 0.12803948 0.04391147 -0.1037068
000310 73 09 db 3d 2e 82 74 bd ea 95 17 bd ff 7c 08 3e
       0.10695162 -0.05969446 -0.037008204 0.13328932
000320 ec 5b 49 bd e7 fb 21 be 2a 0e aa 3d 7e 44 f4 bd
       -0.04915993 -0.1581875 0.08303483 -0.11927126
000330 a9 8b cf bd 16 4e 7c 3d 1b 43 3e bd 3b ec a9 bd
       -0.1013406 0.061597906 -0.046450716 -0.082970105
000340 90 30 ce bd d4 82 e9 3d 20 c4 6b 3c e9 7d 01 3e
       -0.10067856 0.114019066 0.014390022 0.12645687
000350 d6 6c 34 be 27 a8 f0 bb 5b 88 cd 3d 7d 96 44 be
       -0.17619643 -0.007344264 0.10035773 -0.19198032
000360 85 cf d7 bd 0c 9f 27 be cc 3d a9 bd 47 be cf 3c
       -0.10537628 -0.16369265 -0.0826374 0.025359286
000370 f4 a1 1e 3e 65 15 c1 bd 5f de 89 3d fc a5 aa 3d
       0.15491468 -0.09427909 0.06731867 0.0833244
000380 df 8f f9 bd 14 d9 3f bd a0 b4 0f be d7 78 95 3d
       -0.12185644 -0.04683788 -0.14033747 0.07298439
000390 02 87 f4 3d 00 bb fc 3d e2 a8 83 3d 4e cc 2f bd
       0.11939813 0.12340355 0.06428696 -0.04291945
0003a0 a2 36 91 bd b9 9c 76 3d 58 2a 47 bd 05 c5 6d 3d
       -0.070904985 0.060208056 -0.048624367 0.05804922
0003b0 fb ff 0e be af 06 b8 bd 79 9f c2 3c a4 0a 7b 3d
       -0.13964836 -0.0898565 0.023757683 0.061289445
0003c0 50 95 3d be 71 92 e1 3c 28 b5 00 bd ab 20 61 bd
       -0.1851399 0.027535649 -0.031422764 -0.054962795
0003d0 24 d8 b2 3c 28 14 f4 bd 1c d2 2c be 96 df 5d bd
       0.02183158 -0.11917907 -0.16877025 -0.054168306
0003e0 30 fe fb bd 5d 41 df bc 9b 99 d9 3d 0f 12 80 bd
       -0.12304342 -0.027252847 0.10625001 -0.062534444
0003f0 e5 f1 1b be 9e 3e 19 3c dc b5 a4 3b d7 78 c2 3d
       -0.15228994 0.009353308 0.005026562 0.094957046

transformer_encoder.layers.0.linear2.weight f4 [40, 396]
000000 74 5a 2e 3e 16 1c 7b 3d 47 ed e9 bd fe f1 ac bd
       0.17026693 0.06130608 -0.1142221 -0.08444594
000010 9b 04 d4 bd 01 e3 d1 bc f0 21 61 bd 54 f8 ed bc
       -0.10352441 -0.02562094 -0.054964006 -0.029049076
000020 3f 61 3c 3e 5d 7a 07 be 13 52 5d bc 3c 72 5b bd
       0.18396471 -0.13230272 -0.013508338 -0.05357574
000030 24 b0 87 3c e7 2f fd bd 7d 31 d9 bd c4 2f b3 bb
       0.016563483 -0.12362652 -0.10605142 -0.0054683406
000040 ce ea 12 bd 5b 19 3c be e3 72 66 3d 1a a8 d9 bd
       -0.03586846 -0.18369047 0.05626191 -0.10627766
000050 3b c8 04 3e a9 6d 60 3d 3f 34 3a bd cd e0 02 bd
       0.12967007 0.05479208 -0.045459982 -0.031952668
000060 b7 77 95 bd ac 4f 19 3c e3 d8 2d 3d 95 f4 b0 3c
       -0.072982244 0.009357374 0.042443167 0.021601
000070 48 95 36 bc c2 79 42 bd 10 a5 c8 3d d6 a5 a2 bd
       -0.01114399 -0.0474794 0.09797108 -0.07941787
000080 ee 4b ec bd 8c 48 cf bd ba a4 a1 3d 24 9a aa bd
       -0.1153792 -0.10121259 0.07892747 -0.08330181
000090 83 23 a9 bd f1 33 b1 3d c2 5b e4 bc c8 76 2a bd
       -0.082587264 0.08652485 -0.027875785 -0.041617185
0000a0 3c 62 a1 bd a4 e5 5d 3d 00 bb 50 3d 2d c3 85 3d
       -0.07880065 0.05417408 0.050959587 0.065313675
0000b0 31 ab 1d 3d c8 a9 c6 3c 76 5e ee bb 00 72 1c bc
       0.03849334 0.02425088 -0.007274444 -0.009548664
0000c0 d6 df 7a 3d 01 1d 97 bd 97 d6 56 bd c7 f1 84 3d
       0.061248623 -0.07378579 -0.052450743 0.06491428
0000d0 86 fa 54 bd 2c 18 e2 3d cb 56 48 3c 60 b1 08 be
       -0.05199673 0.11039767 0.012227724 -0.13348913
0000e0 0d d0 3d 3d 04 f4 9a bd 25 10 10 be fc f5 a1 bb
       0.04634099 -0.075660735 -0.14068659 -0.0049426537
0000f0 22 51 2f bd 5f a5 9f 3c ef 69 ad 3c 0e 14 ae bc
       -0.042801984 0.019488035 0.021168677 -0.021249797
000100 f7 b0 2b bd 68 39 a6 bd 10 22 03 3d 5e a9 f2 3d
       -0.041916814 -0.08116418 0.032014906 0.118487105
000110 eb ae 88 bc 46 c1 38 bd 57 c6 89 bd 1c 87 c8 3d
       -0.01668497 -0.045106195 -0.067272834 0.09791395
000120 27 c1 44 bd 19 0d ab 3d 54 d1 ed bb b4 52 af bc
       -0.048035767 0.083521076 -0.00725762 -0.02140174
000130 63 d5 25 3d d1 c8 1c 3e 1c cc 59 3c cc c1 dc bb
       0.040486705 0.1531098 0.013293292 -0.0067369696
000140 cd ef c7 bd 60 85 a7 3d a8 ee 6b 3d a0 8c eb 3c
       -0.09762535 0.08179736 0.057600647 0.028753579
000150 8f df 18 bd 8c f9 3c bd 45 19 3d 3d 09 a0 39 bd
       -0.037322577 -0.046136424 0.046166677 -0.045318637
000160 41 e6 9e 3d a0 b2 f3 bd 96 f3 10 3c ba 31 41 3e
       0.07758761 -0.118993044 0.008847138 0.18866625
000170 a7 b5 88 3d 90 b7 d9 bc 24 dc 58 3c 09 9d 3d 3e
       0.066752724 -0.026576787 0.013236079 0.18516935
000180 e0 aa 54 3d 15 64 a2 3c 4f 4d 82 3d 37 e1 9f 3d
       0.05192077 0.019823113 0.06362402 0.07806628
000190 88 18 c2 bb e8 0a 36 bd 6f 74 9f bd c0 68 63 38
       -0.0059233345 -0.044443995 -0.0778588 5.4218573e-05
0001a0 b5 ea 86 3b cf bd ee bc 69 25 39 bd b0 84 c8 3d
       0.0041173347 -0.029143242 -0.045201693 0.09790933
0001b0 0e 08 62 bd 1d b2 0b 3e c7 5b 94 bd cb c9 51 bd
       -0.055183463 0.13642164 -0.07244068 -0.051217835
0001c0 3d aa bc bc d3 c4 b9 b8 0c c6 2c 3d e4 9d 78 3d
       -0.023030395 -8.858149e-05 0.04218106 0.06069745
0001d0 9d d0 b0 3c 6d 76 3a 3d 18 55 bb 3d 99 c8 c4 3d
       0.02158385 0.045523096 0.0914709 0.096085735
0001e0 d8 88 4d 3c 93 5b a6 3c b2 ce aa 3d 5a d3 41 bd
       0.012544833 0.020307338 0.08340205 -0.0473207
0001f0 bf ae 7b 3c f5 65 9d 3c 3c 2e d8 bd 58 6a 2e 3c
       0.015361487 0.019213656 -0.105556935 0.0106454715
000200 ad 57 89 3c 59 80 b4 bd 36 50 de bc b5 2f 53 bc
       0.01676544 -0.08813543 -0.027137857 -0.012889792
000210 a1 e6 1b bd ba a8 49 3d 76 74 05 3d 6c e7 82 3d
       -0.03806174 0.049233176 0.03258177 0.063917965
000220 8c 91 cf 3d 49 58 32 3b 37 4e 8c bd 1c 30 9a bd
       0.10135183 0.0027213267 -0.06850856 -0.075287074
000230 18 fd 82 bd 45 92 8c 3d 40 cd f7 bc 17 99 6f 3c
       -0.0639593 0.06863836 -0.030249238 0.014623902
000240 95 d9 b3 3d 81 23 2c 3d e7 e9 9a 3a b1 32 fa 3d
       0.08781735 0.042026047 0.0011818976 0.122167
000250 89 19 af 3d 9a 17 3f 3c bc b8 79 3d c8 47 cd bc
       0.08549792 0.011663342 0.060967192 -0.025058642
000260 15 7b 3a 3e 4b 5c 02 be 7d 95 47 bc c7 bf 89 bd
       0.18211015 -0.1273052 -0.012181637 -0.06726032
000270 e6 b8 41 be cc a9 eb bd 2e 6a 37 3c 51 0b 18 bd
       -0.1891819 -0.115069956 0.011194749 -0.037120167
000280 fc d4 b8 bc 99 43 0b 3c da a4 3e bd 29 ad e3 3b
       -0.022562496 0.008500003 -0.046543933 0.0069481325
000290 e5 4f 87 bd 0c ed c3 ba 2c 09 8e 3a 9e 31 35 bd
       -0.066070355 -0.0014947965 0.0010836474 -0.04423677
0002a0 5e 9a a3 3c 69 a5 1c 3d 21 69 2a 3e 3d df 9f bd
       0.019971069 0.038243685 0.16641666 -0.07806251
0002b0 e6 63 99 3d 6e 62 2a ba ed 90 9a 3d 8f f7 89 3c
       0.07489757 -0.00064996525 0.07547174 0.016841678
0002c0 a0 df 23 3d 17 7a 8d 3c 8b d5 fa 3c 4c 99 dd 3d
       0.040008187 0.017270131 0.030619403 0.10820255
0002d0 6b 75 b5 3b 65 f0 4c bd 6b 32 9b 3c 32 6f 6f bc
       0.005537679 -0.050033946 0.01894494 -0.014613913
0002e0 e7 d3 07 3d 01 df 6a bd 80 03 af bd 21 64 6f 3c
       0.03316107 -0.05734158 -0.085455894 0.014611275
0002f0 68 3e 82 bd 20 5d fd ba df 53 b0 3c c5 78 9b 3d
       -0.06359559 -0.0019330122 0.021524368 0.07591394
000300 4e 1c a7 bc 40 93 d3 3c d5 f4 97 bd e2 2c cb 3d
       -0.020399239 0.02582705 -0.07419745 0.0992067
000310 db e2 b4 3d 80 a9 80 bc 6f 5b a3 3d c6 a7 bd bc
       0.08832332 -0.015705824 0.07976424 -0.02315129
000320 2e e9 1e 3e 06 8e 9f 3d fd 84 01 bd 19 2d 05 bd
       0.15518638 0.07790761 -0.031620968 -0.03251371
000330 72 cd fb 3c 57 be 04 3d 56 2e bd 3d 3a ae 82 bc
       0.030737612 0.032408085 0.092373535 -0.015952218
000340 d8 97 70 bd 60 b0 cf bd 30 16 64 bd 9e ac 96 bd
       -0.05873856 -0.10141063 -0.055685222 -0.07357143
000350 e4 0e ad 3d c4 ec 3a bd 37 78 aa 3c 0b d1 0a 3d
       0.08450106 -0.045635954 0.020809276 0.033890765
000360 85 e7 07 3e eb 68 7a 3d bb c7 2e 3c 33 45 03 3d
       0.13271911 0.061135214 0.010667737 0.032048415
000370 4b 4b 01 be 90 29 e5 bc 88 55 d6 bd 67 f8 02 3d
       -0.12626378 -0.02797392 -0.104655325 0.031975176
000380 2f 21 ba bc 67 f7 83 3b 23 e1 81 bd 51 5a 68 3c
       -0.022720901 0.0040272954 -0.063417695 0.014181689
000390 a8 6b e0 bb 7f 1b 5f 3d 24 2b bf 3d c9 dd 6d bc
       -0.006848771 0.05446958 0.093344 -0.01451821
0003a0 cb 20 b3 3d 47 0e 5f bc a3 20 60 3d 01 07 b4 b9
       0.08746489 -0.013614244 0.054718625 -0.00034337494
0003b0 31 de 6e 3d da 4d fe bb 1b 7e 60 bd 99 3d 90 bd
       0.058317367 -0.0077607455 -0.054807764 -0.07042999
0003c0 24 56 10 3e 3c 6e 18 be f9 7f ee bb 19 8a b9 bd
       0.1409536 -0.14885801 -0.007278439 -0.09059543
0003d0 75 01 1b 3d fa 6f a0 3d aa 42 7e 3d b5 66 a4 3d
       0.037843186 0.07833858 0.062075295 0.08027402
0003e0 82 cc 02 bd ae 11 b9 3b 46 b7 92 3d c2 25 ec 3d
       -0.031933315 0.0056478595 0.07163863 0.11530639
0003f0 27 8e 40 bd d0 56 20 3c 71 ce 1a 3c 5e df 38 bd
       -0.047010567 0.009786323 0.0094486335 -0.045134895

transformer_encoder.layers.0.linear2.bias f4 [40]
000000 bc ac 8e 3c 54 3a a6 bd fa 06 41 3c 5d de 54 bc
       0.01741635 -0.08116594 0.0117814485 -0.012992469
000010 91 32 1a 3d 3c 83 30 3c 74 65 c0 3c 3e f1 76 bb
       0.03764588 0.010773476 0.023485877 -0.0037680413
000020 49 98 47 3d 10 2c 70 3d 02 2f e9 bb 28 27 d3 bc
       0.048729215 0.05863577 -0.0071161995 -0.025775507
000030 cb 3c 51 3d 53 7d 61 bd 8b a7 a1 bc f9 24 4a 3d
       0.051083367 -0.05505116 -0.019733211 0.049351666
000040 84 81 58 bd 3b 81 93 bd 9c 45 16 3c 06 d3 63 bd
       -0.05285789 -0.07202383 0.00917187 -0.05562117
000050 13 71 86 bd fc 22 6c 3d c1 bf aa 3a 78 7b 0c 3d
       -0.06564536 0.05765055 0.0013027118 0.034297436
000060 99 6c b9 bb df 41 ba 3b e1 b0 9d bc 9c e5 37 bd
       -0.005658698 0.005684122 -0.019249381 -0.044896707
000070 6d f0 ef bc 68 80 08 3d 59 89 ee 3c 96 53 db 3b
       -0.029289449 0.033325583 0.029118227 0.006693314
000080 f4 36 d9 bd cb c5 17 bc 6f 0f d4 bc a0 c1 84 bc
       -0.106061846 -0.009263466 -0.025886266 -0.016205609
000090 dd 58 cc 3b 17 21 17 ba ac 32 5a 3d 18 2f de bc
       0.0062361793 -0.00057651236 0.05327098 -0.027122065

transformer_encoder.layers.0.norm1.weight f4 [40]
000000 8e db 83 3f 27 91 5f 3f de b7 78 3f 3c 24 7f 3f
       1.0301378 0.8733086 0.9715556 0.99664664
000010 bb d4 7e 3f 45 a0 77 3f 11 8a 80 3f b9 b0 89 3f
       0.9954335 0.96728927 1.0042135 1.0757056
000020 55 70 86 3f 40 4f 80 3f 91 4a 89 3f 4a a6 8d 3f
       1.0503031 1.0024185 1.0725881 1.1066372
000030 72 74 72 3f f1 96 71 3f d5 19 85 3f 20 27 7b 3f
       0.9470893 0.94370943 1.0398508 0.98106575
000040 e1 60 70 3f f9 7d 63 3f b5 7e 89 3f fa d2 8a 3f
       0.93897825 0.88864094 1.0741793 1.0845635
000050 c3 01 83 3f f7 e0 80 3f 46 14 77 3f 75 70 8e 3f
       1.0234913 1.0068654 0.9651531 1.1128069
000060 11 fc 79 3f 99 f2 7b 3f 52 a0 86 3f 6b 30 7b 3f
       0.9765025 0.9841705 1.0517676 0.98120755
000070 84 2b 81 3f 64 40 78 3f b2 fa 80 3f fb 24 84 3f
       1.0091405 0.9697325 1.0076506 1.0323786
000080 6b 92 80 3f e7 78 8c 3f e8 f8 6a 3f d6 13 7b 3f
       1.0044683 1.0974396 0.9178605 0.9807714
000090 1a 8a 89 3f 85 e5 81 3f 80 c4 7f 3f e6 02 87 3f
       1.074527 1.0148169 0.9990921 1.054776
